…
I0403 00:44:52.556332 24940 net.cpp:323] The NetState phase (0) differed from the phase (1) specified by a rule in layer mnist
I0403 00:44:52.556347 24940 net.cpp:323] The NetState phase (0) differed from the phase (1) specified by a rule in layer accuracy
I0403 00:44:52.556470 24940 net.cpp:49] Initializing net from parameters: 
name: "LeNet"
state {
  phase: TRAIN
}
layer {
  name: "mnist"
  type: "Data"
  top: "data"
  top: "label"
  include {
    phase: TRAIN
  }
  transform_param {
    scale: 0.00390625
  }
  data_param {
    source: "/home/nikoong/Algorithm_test/handwritting/data/lmdb/closed/train_withnewfour_lmdb"
    batch_size: 10000
    backend: LMDB
  }
}
layer {
  name: "conv1"
  type: "Convolution"
  bottom: "data"
  top: "conv1"
  param {
    lr_mult: 1
  }
  param {
    lr_mult: 2
  }
  convolution_param {
    num_output: 20
    kernel_size: 5
    stride: 1
    weight_filler {
      type: "xavier"
    }
    bias_filler {
      type: "constant"
    }
  }
}
layer {
  name: "conv1_bn"
  type: "BN"
  bottom: "conv1"
  top: "conv1_bn"
  param {
    lr_mult: 0
    decay_mult: 0
  }
  param {
    lr_mult: 0
    decay_mult: 0
  }
  bn_param {
    slope_filler {
      type: "constant"
      value: 1
    }
    bias_filler {
      type: "constant"
      value: 0
    }
  }
}
layer {
  name: "relu1"
  type: "ReLU"
  bottom: "conv1_bn"
  top: "conv1_bn"
}
layer {
  name: "pool1"
  type: "Pooling"
  bottom: "conv1_bn"
  top: "pool1"
  pooling_param {
    pool: MAX
    kernel_size: 2
    stride: 2
  }
}
layer {
  name: "conv2"
  type: "Convolution"
  bottom: "pool1"
  top: "conv2"
  param {
    lr_mult: 1
  }
  param {
    lr_mult: 2
  }
  convolution_param {
    num_output: 50
    kernel_size: 5
    stride: 1
    weight_filler {
      type: "xavier"
    }
    bias_filler {
      type: "constant"
    }
  }
}
layer {
  name: "conv2_bn"
  type: "BN"
  bottom: "conv2"
  top: "conv2_bn"
  param {
    lr_mult: 0
    decay_mult: 0
  }
  param {
    lr_mult: 0
    decay_mult: 0
  }
  bn_param {
    slope_filler {
      type: "constant"
      value: 1
    }
    bias_filler {
      type: "constant"
      value: 0
    }
  }
}
layer {
  name: "relu2"
  type: "ReLU"
  bottom: "conv2_bn"
  top: "conv2_bn"
}
layer {
  name: "pool2"
  type: "Pooling"
  bottom: "conv2_bn"
  top: "pool2"
  pooling_param {
    pool: MAX
    kernel_size: 2
    stride: 2
  }
}
layer {
  name: "ip1"
  type: "InnerProduct"
  bottom: "pool2"
  top: "ip1"
  param {
    lr_mult: 1
  }
  param {
    lr_mult: 2
  }
  inner_product_param {
    num_output: 500
    weight_filler {
      type: "xavier"
    }
    bias_filler {
      type: "constant"
    }
  }
}
layer {
  name: "relu1"
  type: "ReLU"
  bottom: "ip1"
  top: "ip1"
}
layer {
  name: "ip2"
  type: "InnerProduct"
  bottom: "ip1"
  top: "ip2"
  param {
    lr_mult: 1
  }
  param {
    lr_mult: 2
  }
  inner_product_param {
    num_output: 10
    weight_filler {
      type: "xavier"
    }
    bias_filler {
      type: "constant"
    }
  }
}
layer {
  name: "loss"
  type: "SoftmaxWithLoss"
  bottom: "ip2"
  bottom: "label"
  top: "loss"
}
I0403 00:44:52.556532 24940 layer_factory.hpp:77] Creating layer mnist
I0403 00:44:52.560771 24940 net.cpp:91] Creating Layer mnist
I0403 00:44:52.560793 24940 net.cpp:409] mnist -> data
I0403 00:44:52.560839 24940 net.cpp:409] mnist -> label
I0403 00:44:52.561594 24946 db_lmdb.cpp:40] Opened lmdb /home/nikoong/Algorithm_test/handwritting/data/lmdb/closed/train_withnewfour_lmdb
I0403 00:44:52.585243 24940 data_layer.cpp:41] output data size: 10000,1,28,28
I0403 00:44:52.671752 24940 net.cpp:141] Setting up mnist
I0403 00:44:52.671811 24940 net.cpp:148] Top shape: 10000 1 28 28 (7840000)
I0403 00:44:52.671816 24940 net.cpp:148] Top shape: 10000 (10000)
I0403 00:44:52.671819 24940 net.cpp:156] Memory required for data: 31400000
I0403 00:44:52.671828 24940 layer_factory.hpp:77] Creating layer conv1
I0403 00:44:52.671850 24940 net.cpp:91] Creating Layer conv1
I0403 00:44:52.671865 24940 net.cpp:435] conv1 <- data
I0403 00:44:52.671885 24940 net.cpp:409] conv1 -> conv1
I0403 00:44:53.096592 24940 net.cpp:141] Setting up conv1
I0403 00:44:53.096617 24940 net.cpp:148] Top shape: 10000 20 24 24 (115200000)
I0403 00:44:53.096621 24940 net.cpp:156] Memory required for data: 492200000
I0403 00:44:53.096637 24940 layer_factory.hpp:77] Creating layer conv1_bn
I0403 00:44:53.096642 24940 layer_factory.cpp:265] Layer conv1_bn is using CAFFE engine.
I0403 00:44:53.096663 24940 net.cpp:91] Creating Layer conv1_bn
I0403 00:44:53.096668 24940 net.cpp:435] conv1_bn <- conv1
I0403 00:44:53.096673 24940 net.cpp:409] conv1_bn -> conv1_bn
I0403 00:44:53.096846 24940 net.cpp:141] Setting up conv1_bn
I0403 00:44:53.096853 24940 net.cpp:148] Top shape: 10000 20 24 24 (115200000)
I0403 00:44:53.096855 24940 net.cpp:156] Memory required for data: 953000000
I0403 00:44:53.096863 24940 layer_factory.hpp:77] Creating layer relu1
I0403 00:44:53.096869 24940 net.cpp:91] Creating Layer relu1
I0403 00:44:53.096873 24940 net.cpp:435] relu1 <- conv1_bn
I0403 00:44:53.096875 24940 net.cpp:396] relu1 -> conv1_bn (in-place)
I0403 00:44:53.097018 24940 net.cpp:141] Setting up relu1
I0403 00:44:53.097025 24940 net.cpp:148] Top shape: 10000 20 24 24 (115200000)
I0403 00:44:53.097028 24940 net.cpp:156] Memory required for data: 1413800000
I0403 00:44:53.097030 24940 layer_factory.hpp:77] Creating layer pool1
I0403 00:44:53.097038 24940 net.cpp:91] Creating Layer pool1
I0403 00:44:53.097040 24940 net.cpp:435] pool1 <- conv1_bn
I0403 00:44:53.097044 24940 net.cpp:409] pool1 -> pool1
I0403 00:44:53.097085 24940 net.cpp:141] Setting up pool1
I0403 00:44:53.097091 24940 net.cpp:148] Top shape: 10000 20 12 12 (28800000)
I0403 00:44:53.097102 24940 net.cpp:156] Memory required for data: 1529000000
I0403 00:44:53.097105 24940 layer_factory.hpp:77] Creating layer conv2
I0403 00:44:53.097112 24940 net.cpp:91] Creating Layer conv2
I0403 00:44:53.097115 24940 net.cpp:435] conv2 <- pool1
I0403 00:44:53.097120 24940 net.cpp:409] conv2 -> conv2
I0403 00:44:53.099216 24940 net.cpp:141] Setting up conv2
I0403 00:44:53.099228 24940 net.cpp:148] Top shape: 10000 50 8 8 (32000000)
I0403 00:44:53.099231 24940 net.cpp:156] Memory required for data: 1657000000
I0403 00:44:53.099236 24940 layer_factory.hpp:77] Creating layer conv2_bn
I0403 00:44:53.099241 24940 layer_factory.cpp:265] Layer conv2_bn is using CAFFE engine.
I0403 00:44:53.099246 24940 net.cpp:91] Creating Layer conv2_bn
I0403 00:44:53.099257 24940 net.cpp:435] conv2_bn <- conv2
I0403 00:44:53.099261 24940 net.cpp:409] conv2_bn -> conv2_bn
I0403 00:44:53.099442 24940 net.cpp:141] Setting up conv2_bn
I0403 00:44:53.099448 24940 net.cpp:148] Top shape: 10000 50 8 8 (32000000)
I0403 00:44:53.099450 24940 net.cpp:156] Memory required for data: 1785000000
I0403 00:44:53.099457 24940 layer_factory.hpp:77] Creating layer relu2
I0403 00:44:53.099462 24940 net.cpp:91] Creating Layer relu2
I0403 00:44:53.099464 24940 net.cpp:435] relu2 <- conv2_bn
I0403 00:44:53.099467 24940 net.cpp:396] relu2 -> conv2_bn (in-place)
I0403 00:44:53.099598 24940 net.cpp:141] Setting up relu2
I0403 00:44:53.099606 24940 net.cpp:148] Top shape: 10000 50 8 8 (32000000)
I0403 00:44:53.099608 24940 net.cpp:156] Memory required for data: 1913000000
I0403 00:44:53.099611 24940 layer_factory.hpp:77] Creating layer pool2
I0403 00:44:53.099617 24940 net.cpp:91] Creating Layer pool2
I0403 00:44:53.099619 24940 net.cpp:435] pool2 <- conv2_bn
I0403 00:44:53.099623 24940 net.cpp:409] pool2 -> pool2
I0403 00:44:53.099673 24940 net.cpp:141] Setting up pool2
I0403 00:44:53.099687 24940 net.cpp:148] Top shape: 10000 50 4 4 (8000000)
I0403 00:44:53.099689 24940 net.cpp:156] Memory required for data: 1945000000
I0403 00:44:53.099692 24940 layer_factory.hpp:77] Creating layer ip1
I0403 00:44:53.099697 24940 net.cpp:91] Creating Layer ip1
I0403 00:44:53.099700 24940 net.cpp:435] ip1 <- pool2
I0403 00:44:53.099704 24940 net.cpp:409] ip1 -> ip1
I0403 00:44:53.102988 24940 net.cpp:141] Setting up ip1
I0403 00:44:53.103001 24940 net.cpp:148] Top shape: 10000 500 (5000000)
I0403 00:44:53.103004 24940 net.cpp:156] Memory required for data: 1965000000
I0403 00:44:53.103009 24940 layer_factory.hpp:77] Creating layer relu1
I0403 00:44:53.103013 24940 net.cpp:91] Creating Layer relu1
I0403 00:44:53.103016 24940 net.cpp:435] relu1 <- ip1
I0403 00:44:53.103020 24940 net.cpp:396] relu1 -> ip1 (in-place)
I0403 00:44:53.103576 24940 net.cpp:141] Setting up relu1
I0403 00:44:53.103586 24940 net.cpp:148] Top shape: 10000 500 (5000000)
I0403 00:44:53.103590 24940 net.cpp:156] Memory required for data: 1985000000
I0403 00:44:53.103591 24940 layer_factory.hpp:77] Creating layer ip2
I0403 00:44:53.103597 24940 net.cpp:91] Creating Layer ip2
I0403 00:44:53.103600 24940 net.cpp:435] ip2 <- ip1
I0403 00:44:53.103605 24940 net.cpp:409] ip2 -> ip2
I0403 00:44:53.103734 24940 net.cpp:141] Setting up ip2
I0403 00:44:53.103740 24940 net.cpp:148] Top shape: 10000 10 (100000)
I0403 00:44:53.103742 24940 net.cpp:156] Memory required for data: 1985400000
I0403 00:44:53.103746 24940 layer_factory.hpp:77] Creating layer loss
I0403 00:44:53.103751 24940 net.cpp:91] Creating Layer loss
I0403 00:44:53.103754 24940 net.cpp:435] loss <- ip2
I0403 00:44:53.103757 24940 net.cpp:435] loss <- label
I0403 00:44:53.103762 24940 net.cpp:409] loss -> loss
I0403 00:44:53.103785 24940 layer_factory.hpp:77] Creating layer loss
…
I0403 00:44:53.104316 24940 solver.cpp:181] Creating test net (#0) specified by net file: /home/nikoong/Algorithm_test/handwritting/lenet/mul_net/lenet_bn_closed.prototxt
I0403 00:44:53.104338 24940 net.cpp:323] The NetState phase (1) differed from the phase (0) specified by a rule in layer mnist
I0403 00:44:53.104468 24940 net.cpp:49] Initializing net from parameters: 
name: "LeNet"
state {
  phase: TEST
}
layer {
  name: "mnist"
  type: "Data"
  top: "data"
  top: "label"
  include {
    phase: TEST
  }
  transform_param {
    scale: 0.00390625
  }
  data_param {
    source: "/home/nikoong/Algorithm_test/handwritting/data/lmdb/closed/val_withnewfour_lmdb"
    batch_size: 500
    backend: LMDB
  }
}
layer {
  name: "conv1"
  type: "Convolution"
  bottom: "data"
  top: "conv1"
  param {
    lr_mult: 1
  }
  param {
    lr_mult: 2
  }
  convolution_param {
    num_output: 20
    kernel_size: 5
    stride: 1
    weight_filler {
      type: "xavier"
    }
    bias_filler {
      type: "constant"
    }
  }
}
layer {
  name: "conv1_bn"
  type: "BN"
  bottom: "conv1"
  top: "conv1_bn"
  param {
    lr_mult: 0
    decay_mult: 0
  }
  param {
    lr_mult: 0
    decay_mult: 0
  }
  bn_param {
    slope_filler {
      type: "constant"
      value: 1
    }
    bias_filler {
      type: "constant"
      value: 0
    }
  }
}
layer {
  name: "relu1"
  type: "ReLU"
  bottom: "conv1_bn"
  top: "conv1_bn"
}
layer {
  name: "pool1"
  type: "Pooling"
  bottom: "conv1_bn"
  top: "pool1"
  pooling_param {
    pool: MAX
    kernel_size: 2
    stride: 2
  }
}
layer {
  name: "conv2"
  type: "Convolution"
  bottom: "pool1"
  top: "conv2"
  param {
    lr_mult: 1
  }
  param {
    lr_mult: 2
  }
  convolution_param {
    num_output: 50
    kernel_size: 5
    stride: 1
    weight_filler {
      type: "xavier"
    }
    bias_filler {
      type: "constant"
    }
  }
}
layer {
  name: "conv2_bn"
  type: "BN"
  bottom: "conv2"
  top: "conv2_bn"
  param {
    lr_mult: 0
    decay_mult: 0
  }
  param {
    lr_mult: 0
    decay_mult: 0
  }
  bn_param {
    slope_filler {
      type: "constant"
      value: 1
    }
    bias_filler {
      type: "constant"
      value: 0
    }
  }
}
layer {
  name: "relu2"
  type: "ReLU"
  bottom: "conv2_bn"
  top: "conv2_bn"
}
layer {
  name: "pool2"
  type: "Pooling"
  bottom: "conv2_bn"
  top: "pool2"
  pooling_param {
    pool: MAX
    kernel_size: 2
    stride: 2
  }
}
layer {
  name: "ip1"
  type: "InnerProduct"
  bottom: "pool2"
  top: "ip1"
  param {
    lr_mult: 1
  }
  param {
    lr_mult: 2
  }
  inner_product_param {
    num_output: 500
    weight_filler {
      type: "xavier"
    }
    bias_filler {
      type: "constant"
    }
  }
}
layer {
  name: "relu1"
  type: "ReLU"
  bottom: "ip1"
  top: "ip1"
}
layer {
  name: "ip2"
  type: "InnerProduct"
  bottom: "ip1"
  top: "ip2"
  param {
    lr_mult: 1
  }
  param {
    lr_mult: 2
  }
  inner_product_param {
    num_output: 10
    weight_filler {
      type: "xavier"
    }
    bias_filler {
      type: "constant"
    }
  }
}
layer {
  name: "accuracy"
  type: "Accuracy"
  bottom: "ip2"
  bottom: "label"
  top: "accuracy"
  include {
    phase: TEST
  }
}
layer {
  name: "loss"
  type: "SoftmaxWithLoss"
  bottom: "ip2"
  bottom: "label"
  top: "loss"
}
I0403 00:44:53.104540 24940 layer_factory.hpp:77] Creating layer mnist
I0403 00:44:53.104758 24940 net.cpp:91] Creating Layer mnist
I0403 00:44:53.104773 24940 net.cpp:409] mnist -> data
I0403 00:44:53.104779 24940 net.cpp:409] mnist -> label
I0403 00:44:53.105463 24948 db_lmdb.cpp:40] Opened lmdb /home/nikoong/Algorithm_test/handwritting/data/lmdb/closed/val_withnewfour_lmdb
I0403 00:44:53.105592 24940 data_layer.cpp:41] output data size: 500,1,28,28
I0403 00:44:53.112962 24940 net.cpp:141] Setting up mnist
I0403 00:44:53.112993 24940 net.cpp:148] Top shape: 500 1 28 28 (392000)
I0403 00:44:53.112998 24940 net.cpp:148] Top shape: 500 (500)
I0403 00:44:53.112999 24940 net.cpp:156] Memory required for data: 1570000
I0403 00:44:53.113005 24940 layer_factory.hpp:77] Creating layer label_mnist_1_split
I0403 00:44:53.113024 24940 net.cpp:91] Creating Layer label_mnist_1_split
I0403 00:44:53.113029 24940 net.cpp:435] label_mnist_1_split <- label
I0403 00:44:53.113034 24940 net.cpp:409] label_mnist_1_split -> label_mnist_1_split_0
I0403 00:44:53.113044 24940 net.cpp:409] label_mnist_1_split -> label_mnist_1_split_1
I0403 00:44:53.113126 24940 net.cpp:141] Setting up label_mnist_1_split
I0403 00:44:53.113132 24940 net.cpp:148] Top shape: 500 (500)
I0403 00:44:53.113144 24940 net.cpp:148] Top shape: 500 (500)
I0403 00:44:53.113147 24940 net.cpp:156] Memory required for data: 1574000
I0403 00:44:53.113149 24940 layer_factory.hpp:77] Creating layer conv1
I0403 00:44:53.113170 24940 net.cpp:91] Creating Layer conv1
I0403 00:44:53.113173 24940 net.cpp:435] conv1 <- data
I0403 00:44:53.113191 24940 net.cpp:409] conv1 -> conv1
I0403 00:44:53.115249 24940 net.cpp:141] Setting up conv1
I0403 00:44:53.115272 24940 net.cpp:148] Top shape: 500 20 24 24 (5760000)
I0403 00:44:53.115283 24940 net.cpp:156] Memory required for data: 24614000
I0403 00:44:53.115294 24940 layer_factory.hpp:77] Creating layer conv1_bn
I0403 00:44:53.115298 24940 layer_factory.cpp:265] Layer conv1_bn is using CAFFE engine.
I0403 00:44:53.115304 24940 net.cpp:91] Creating Layer conv1_bn
I0403 00:44:53.115306 24940 net.cpp:435] conv1_bn <- conv1
I0403 00:44:53.115311 24940 net.cpp:409] conv1_bn -> conv1_bn
I0403 00:44:53.115478 24940 net.cpp:141] Setting up conv1_bn
I0403 00:44:53.115485 24940 net.cpp:148] Top shape: 500 20 24 24 (5760000)
I0403 00:44:53.115499 24940 net.cpp:156] Memory required for data: 47654000
I0403 00:44:53.115506 24940 layer_factory.hpp:77] Creating layer relu1
I0403 00:44:53.115511 24940 net.cpp:91] Creating Layer relu1
I0403 00:44:53.115520 24940 net.cpp:435] relu1 <- conv1_bn
I0403 00:44:53.115525 24940 net.cpp:396] relu1 -> conv1_bn (in-place)
I0403 00:44:53.115669 24940 net.cpp:141] Setting up relu1
I0403 00:44:53.115679 24940 net.cpp:148] Top shape: 500 20 24 24 (5760000)
I0403 00:44:53.115691 24940 net.cpp:156] Memory required for data: 70694000
I0403 00:44:53.115694 24940 layer_factory.hpp:77] Creating layer pool1
I0403 00:44:53.115700 24940 net.cpp:91] Creating Layer pool1
I0403 00:44:53.115707 24940 net.cpp:435] pool1 <- conv1_bn
I0403 00:44:53.115713 24940 net.cpp:409] pool1 -> pool1
I0403 00:44:53.115746 24940 net.cpp:141] Setting up pool1
I0403 00:44:53.115752 24940 net.cpp:148] Top shape: 500 20 12 12 (1440000)
I0403 00:44:53.115756 24940 net.cpp:156] Memory required for data: 76454000
I0403 00:44:53.115761 24940 layer_factory.hpp:77] Creating layer conv2
I0403 00:44:53.115768 24940 net.cpp:91] Creating Layer conv2
I0403 00:44:53.115774 24940 net.cpp:435] conv2 <- pool1
I0403 00:44:53.115778 24940 net.cpp:409] conv2 -> conv2
I0403 00:44:53.116917 24940 net.cpp:141] Setting up conv2
I0403 00:44:53.116930 24940 net.cpp:148] Top shape: 500 50 8 8 (1600000)
I0403 00:44:53.116945 24940 net.cpp:156] Memory required for data: 82854000
I0403 00:44:53.116957 24940 layer_factory.hpp:77] Creating layer conv2_bn
I0403 00:44:53.116961 24940 layer_factory.cpp:265] Layer conv2_bn is using CAFFE engine.
I0403 00:44:53.116967 24940 net.cpp:91] Creating Layer conv2_bn
I0403 00:44:53.116971 24940 net.cpp:435] conv2_bn <- conv2
I0403 00:44:53.116976 24940 net.cpp:409] conv2_bn -> conv2_bn
I0403 00:44:53.117141 24940 net.cpp:141] Setting up conv2_bn
I0403 00:44:53.117147 24940 net.cpp:148] Top shape: 500 50 8 8 (1600000)
I0403 00:44:53.117161 24940 net.cpp:156] Memory required for data: 89254000
I0403 00:44:53.117169 24940 layer_factory.hpp:77] Creating layer relu2
I0403 00:44:53.117174 24940 net.cpp:91] Creating Layer relu2
I0403 00:44:53.117177 24940 net.cpp:435] relu2 <- conv2_bn
I0403 00:44:53.117180 24940 net.cpp:396] relu2 -> conv2_bn (in-place)
I0403 00:44:53.117307 24940 net.cpp:141] Setting up relu2
I0403 00:44:53.117314 24940 net.cpp:148] Top shape: 500 50 8 8 (1600000)
I0403 00:44:53.117327 24940 net.cpp:156] Memory required for data: 95654000
I0403 00:44:53.117329 24940 layer_factory.hpp:77] Creating layer pool2
I0403 00:44:53.117334 24940 net.cpp:91] Creating Layer pool2
I0403 00:44:53.117337 24940 net.cpp:435] pool2 <- conv2_bn
I0403 00:44:53.117341 24940 net.cpp:409] pool2 -> pool2
I0403 00:44:53.117374 24940 net.cpp:141] Setting up pool2
I0403 00:44:53.117382 24940 net.cpp:148] Top shape: 500 50 4 4 (400000)
I0403 00:44:53.117385 24940 net.cpp:156] Memory required for data: 97254000
I0403 00:44:53.117388 24940 layer_factory.hpp:77] Creating layer ip1
I0403 00:44:53.117394 24940 net.cpp:91] Creating Layer ip1
I0403 00:44:53.117398 24940 net.cpp:435] ip1 <- pool2
I0403 00:44:53.117403 24940 net.cpp:409] ip1 -> ip1
I0403 00:44:53.120882 24940 net.cpp:141] Setting up ip1
I0403 00:44:53.120898 24940 net.cpp:148] Top shape: 500 500 (250000)
I0403 00:44:53.120908 24940 net.cpp:156] Memory required for data: 98254000
I0403 00:44:53.120945 24940 layer_factory.hpp:77] Creating layer relu1
I0403 00:44:53.120954 24940 net.cpp:91] Creating Layer relu1
I0403 00:44:53.120959 24940 net.cpp:435] relu1 <- ip1
I0403 00:44:53.120964 24940 net.cpp:396] relu1 -> ip1 (in-place)
I0403 00:44:53.121553 24940 net.cpp:141] Setting up relu1
I0403 00:44:53.121567 24940 net.cpp:148] Top shape: 500 500 (250000)
I0403 00:44:53.121569 24940 net.cpp:156] Memory required for data: 99254000
I0403 00:44:53.121572 24940 layer_factory.hpp:77] Creating layer ip2
I0403 00:44:53.121579 24940 net.cpp:91] Creating Layer ip2
I0403 00:44:53.121582 24940 net.cpp:435] ip2 <- ip1
I0403 00:44:53.121587 24940 net.cpp:409] ip2 -> ip2
I0403 00:44:53.121716 24940 net.cpp:141] Setting up ip2
I0403 00:44:53.121728 24940 net.cpp:148] Top shape: 500 10 (5000)
I0403 00:44:53.121740 24940 net.cpp:156] Memory required for data: 99274000
I0403 00:44:53.121745 24940 layer_factory.hpp:77] Creating layer ip2_ip2_0_split
I0403 00:44:53.121750 24940 net.cpp:91] Creating Layer ip2_ip2_0_split
I0403 00:44:53.121753 24940 net.cpp:435] ip2_ip2_0_split <- ip2
I0403 00:44:53.121757 24940 net.cpp:409] ip2_ip2_0_split -> ip2_ip2_0_split_0
I0403 00:44:53.121762 24940 net.cpp:409] ip2_ip2_0_split -> ip2_ip2_0_split_1
I0403 00:44:53.121795 24940 net.cpp:141] Setting up ip2_ip2_0_split
I0403 00:44:53.121800 24940 net.cpp:148] Top shape: 500 10 (5000)
I0403 00:44:53.121803 24940 net.cpp:148] Top shape: 500 10 (5000)
I0403 00:44:53.121814 24940 net.cpp:156] Memory required for data: 99314000
I0403 00:44:53.121817 24940 layer_factory.hpp:77] Creating layer accuracy
I0403 00:44:53.121822 24940 net.cpp:91] Creating Layer accuracy
I0403 00:44:53.121825 24940 net.cpp:435] accuracy <- ip2_ip2_0_split_0
I0403 00:44:53.121835 24940 net.cpp:435] accuracy <- label_mnist_1_split_0
I0403 00:44:53.121840 24940 net.cpp:409] accuracy -> accuracy
…
