…
I0404 08:52:52.089998 30985 net.cpp:323] The NetState phase (0) differed from the phase (1) specified by a rule in layer mnist
I0404 08:52:52.090014 30985 net.cpp:323] The NetState phase (0) differed from the phase (1) specified by a rule in layer accuracy
I0404 08:52:52.090136 30985 net.cpp:49] Initializing net from parameters: 
name: "LeNet"
state {
  phase: TRAIN
}
layer {
  name: "mnist"
  type: "Data"
  top: "data"
  top: "label"
  include {
    phase: TRAIN
  }
  transform_param {
    scale: 0.00390625
  }
  data_param {
    source: "/home/nikoong/Algorithm_test/handwritting/data/lmdb/dilated/train_withnewfour_lmdb"
    batch_size: 10000
    backend: LMDB
  }
}
layer {
  name: "conv1"
  type: "Convolution"
  bottom: "data"
  top: "conv1"
  param {
    lr_mult: 1
  }
  param {
    lr_mult: 2
  }
  convolution_param {
    num_output: 20
    kernel_size: 5
    stride: 1
    weight_filler {
      type: "xavier"
    }
    bias_filler {
      type: "constant"
    }
  }
}
layer {
  name: "conv1_bn"
  type: "BN"
  bottom: "conv1"
  top: "conv1_bn"
  param {
    lr_mult: 0
    decay_mult: 0
  }
  param {
    lr_mult: 0
    decay_mult: 0
  }
  bn_param {
    slope_filler {
      type: "constant"
      value: 1
    }
    bias_filler {
      type: "constant"
      value: 0
    }
  }
}
layer {
  name: "relu1"
  type: "ReLU"
  bottom: "conv1_bn"
  top: "conv1_bn"
}
layer {
  name: "pool1"
  type: "Pooling"
  bottom: "conv1_bn"
  top: "pool1"
  pooling_param {
    pool: MAX
    kernel_size: 2
    stride: 2
  }
}
layer {
  name: "conv2"
  type: "Convolution"
  bottom: "pool1"
  top: "conv2"
  param {
    lr_mult: 1
  }
  param {
    lr_mult: 2
  }
  convolution_param {
    num_output: 50
    kernel_size: 5
    stride: 1
    weight_filler {
      type: "xavier"
    }
    bias_filler {
      type: "constant"
    }
  }
}
layer {
  name: "conv2_bn"
  type: "BN"
  bottom: "conv2"
  top: "conv2_bn"
  param {
    lr_mult: 0
    decay_mult: 0
  }
  param {
    lr_mult: 0
    decay_mult: 0
  }
  bn_param {
    slope_filler {
      type: "constant"
      value: 1
    }
    bias_filler {
      type: "constant"
      value: 0
    }
  }
}
layer {
  name: "relu2"
  type: "ReLU"
  bottom: "conv2_bn"
  top: "conv2_bn"
}
layer {
  name: "pool2"
  type: "Pooling"
  bottom: "conv2_bn"
  top: "pool2"
  pooling_param {
    pool: MAX
    kernel_size: 2
    stride: 2
  }
}
layer {
  name: "ip1"
  type: "InnerProduct"
  bottom: "pool2"
  top: "ip1"
  param {
    lr_mult: 1
  }
  param {
    lr_mult: 2
  }
  inner_product_param {
    num_output: 500
    weight_filler {
      type: "xavier"
    }
    bias_filler {
      type: "constant"
    }
  }
}
layer {
  name: "relu1"
  type: "ReLU"
  bottom: "ip1"
  top: "ip1"
}
layer {
  name: "ip2"
  type: "InnerProduct"
  bottom: "ip1"
  top: "ip2"
  param {
    lr_mult: 1
  }
  param {
    lr_mult: 2
  }
  inner_product_param {
    num_output: 10
    weight_filler {
      type: "xavier"
    }
    bias_filler {
      type: "constant"
    }
  }
}
layer {
  name: "loss"
  type: "SoftmaxWithLoss"
  bottom: "ip2"
  bottom: "label"
  top: "loss"
}
I0404 08:52:52.090196 30985 layer_factory.hpp:77] Creating layer mnist
I0404 08:52:52.094517 30985 net.cpp:91] Creating Layer mnist
I0404 08:52:52.094548 30985 net.cpp:409] mnist -> data
I0404 08:52:52.094601 30985 net.cpp:409] mnist -> label
I0404 08:52:52.095350 30991 db_lmdb.cpp:40] Opened lmdb /home/nikoong/Algorithm_test/handwritting/data/lmdb/dilated/train_withnewfour_lmdb
I0404 08:52:52.118402 30985 data_layer.cpp:41] output data size: 10000,1,28,28
I0404 08:52:52.204987 30985 net.cpp:141] Setting up mnist
I0404 08:52:52.205030 30985 net.cpp:148] Top shape: 10000 1 28 28 (7840000)
I0404 08:52:52.205045 30985 net.cpp:148] Top shape: 10000 (10000)
I0404 08:52:52.205049 30985 net.cpp:156] Memory required for data: 31400000
I0404 08:52:52.205056 30985 layer_factory.hpp:77] Creating layer conv1
I0404 08:52:52.205078 30985 net.cpp:91] Creating Layer conv1
I0404 08:52:52.205085 30985 net.cpp:435] conv1 <- data
I0404 08:52:52.205103 30985 net.cpp:409] conv1 -> conv1
I0404 08:52:52.626672 30985 net.cpp:141] Setting up conv1
I0404 08:52:52.626698 30985 net.cpp:148] Top shape: 10000 20 24 24 (115200000)
I0404 08:52:52.626700 30985 net.cpp:156] Memory required for data: 492200000
I0404 08:52:52.626716 30985 layer_factory.hpp:77] Creating layer conv1_bn
I0404 08:52:52.626720 30985 layer_factory.cpp:265] Layer conv1_bn is using CAFFE engine.
I0404 08:52:52.626744 30985 net.cpp:91] Creating Layer conv1_bn
I0404 08:52:52.626749 30985 net.cpp:435] conv1_bn <- conv1
I0404 08:52:52.626754 30985 net.cpp:409] conv1_bn -> conv1_bn
I0404 08:52:52.626925 30985 net.cpp:141] Setting up conv1_bn
I0404 08:52:52.626932 30985 net.cpp:148] Top shape: 10000 20 24 24 (115200000)
I0404 08:52:52.626935 30985 net.cpp:156] Memory required for data: 953000000
I0404 08:52:52.626942 30985 layer_factory.hpp:77] Creating layer relu1
I0404 08:52:52.626948 30985 net.cpp:91] Creating Layer relu1
I0404 08:52:52.626950 30985 net.cpp:435] relu1 <- conv1_bn
I0404 08:52:52.626955 30985 net.cpp:396] relu1 -> conv1_bn (in-place)
I0404 08:52:52.627095 30985 net.cpp:141] Setting up relu1
I0404 08:52:52.627102 30985 net.cpp:148] Top shape: 10000 20 24 24 (115200000)
I0404 08:52:52.627104 30985 net.cpp:156] Memory required for data: 1413800000
I0404 08:52:52.627107 30985 layer_factory.hpp:77] Creating layer pool1
I0404 08:52:52.627115 30985 net.cpp:91] Creating Layer pool1
I0404 08:52:52.627117 30985 net.cpp:435] pool1 <- conv1_bn
I0404 08:52:52.627121 30985 net.cpp:409] pool1 -> pool1
I0404 08:52:52.627163 30985 net.cpp:141] Setting up pool1
I0404 08:52:52.627168 30985 net.cpp:148] Top shape: 10000 20 12 12 (28800000)
I0404 08:52:52.627180 30985 net.cpp:156] Memory required for data: 1529000000
I0404 08:52:52.627182 30985 layer_factory.hpp:77] Creating layer conv2
I0404 08:52:52.627190 30985 net.cpp:91] Creating Layer conv2
I0404 08:52:52.627192 30985 net.cpp:435] conv2 <- pool1
I0404 08:52:52.627197 30985 net.cpp:409] conv2 -> conv2
I0404 08:52:52.629241 30985 net.cpp:141] Setting up conv2
I0404 08:52:52.629252 30985 net.cpp:148] Top shape: 10000 50 8 8 (32000000)
I0404 08:52:52.629256 30985 net.cpp:156] Memory required for data: 1657000000
I0404 08:52:52.629261 30985 layer_factory.hpp:77] Creating layer conv2_bn
I0404 08:52:52.629266 30985 layer_factory.cpp:265] Layer conv2_bn is using CAFFE engine.
I0404 08:52:52.629271 30985 net.cpp:91] Creating Layer conv2_bn
I0404 08:52:52.629272 30985 net.cpp:435] conv2_bn <- conv2
I0404 08:52:52.629287 30985 net.cpp:409] conv2_bn -> conv2_bn
I0404 08:52:52.629446 30985 net.cpp:141] Setting up conv2_bn
I0404 08:52:52.629453 30985 net.cpp:148] Top shape: 10000 50 8 8 (32000000)
I0404 08:52:52.629465 30985 net.cpp:156] Memory required for data: 1785000000
I0404 08:52:52.629472 30985 layer_factory.hpp:77] Creating layer relu2
I0404 08:52:52.629477 30985 net.cpp:91] Creating Layer relu2
I0404 08:52:52.629488 30985 net.cpp:435] relu2 <- conv2_bn
I0404 08:52:52.629492 30985 net.cpp:396] relu2 -> conv2_bn (in-place)
I0404 08:52:52.629623 30985 net.cpp:141] Setting up relu2
I0404 08:52:52.629631 30985 net.cpp:148] Top shape: 10000 50 8 8 (32000000)
I0404 08:52:52.629633 30985 net.cpp:156] Memory required for data: 1913000000
I0404 08:52:52.629637 30985 layer_factory.hpp:77] Creating layer pool2
I0404 08:52:52.629642 30985 net.cpp:91] Creating Layer pool2
I0404 08:52:52.629644 30985 net.cpp:435] pool2 <- conv2_bn
I0404 08:52:52.629669 30985 net.cpp:409] pool2 -> pool2
I0404 08:52:52.629698 30985 net.cpp:141] Setting up pool2
I0404 08:52:52.629712 30985 net.cpp:148] Top shape: 10000 50 4 4 (8000000)
I0404 08:52:52.629715 30985 net.cpp:156] Memory required for data: 1945000000
I0404 08:52:52.629717 30985 layer_factory.hpp:77] Creating layer ip1
I0404 08:52:52.629722 30985 net.cpp:91] Creating Layer ip1
I0404 08:52:52.629725 30985 net.cpp:435] ip1 <- pool2
I0404 08:52:52.629729 30985 net.cpp:409] ip1 -> ip1
I0404 08:52:52.633045 30985 net.cpp:141] Setting up ip1
I0404 08:52:52.633057 30985 net.cpp:148] Top shape: 10000 500 (5000000)
I0404 08:52:52.633060 30985 net.cpp:156] Memory required for data: 1965000000
I0404 08:52:52.633065 30985 layer_factory.hpp:77] Creating layer relu1
I0404 08:52:52.633070 30985 net.cpp:91] Creating Layer relu1
I0404 08:52:52.633072 30985 net.cpp:435] relu1 <- ip1
I0404 08:52:52.633076 30985 net.cpp:396] relu1 -> ip1 (in-place)
I0404 08:52:52.633615 30985 net.cpp:141] Setting up relu1
I0404 08:52:52.633625 30985 net.cpp:148] Top shape: 10000 500 (5000000)
I0404 08:52:52.633628 30985 net.cpp:156] Memory required for data: 1985000000
I0404 08:52:52.633631 30985 layer_factory.hpp:77] Creating layer ip2
I0404 08:52:52.633636 30985 net.cpp:91] Creating Layer ip2
I0404 08:52:52.633640 30985 net.cpp:435] ip2 <- ip1
I0404 08:52:52.633643 30985 net.cpp:409] ip2 -> ip2
I0404 08:52:52.633774 30985 net.cpp:141] Setting up ip2
I0404 08:52:52.633780 30985 net.cpp:148] Top shape: 10000 10 (100000)
I0404 08:52:52.633781 30985 net.cpp:156] Memory required for data: 1985400000
I0404 08:52:52.633786 30985 layer_factory.hpp:77] Creating layer loss
I0404 08:52:52.633790 30985 net.cpp:91] Creating Layer loss
I0404 08:52:52.633793 30985 net.cpp:435] loss <- ip2
I0404 08:52:52.633796 30985 net.cpp:435] loss <- label
I0404 08:52:52.633800 30985 net.cpp:409] loss -> loss
I0404 08:52:52.633823 30985 layer_factory.hpp:77] Creating layer loss
…
I0404 08:52:52.634359 30985 solver.cpp:181] Creating test net (#0) specified by net file: /home/nikoong/Algorithm_test/handwritting/lenet/mul_net/lenet_bn_dilated.prototxt
I0404 08:52:52.634382 30985 net.cpp:323] The NetState phase (1) differed from the phase (0) specified by a rule in layer mnist
I0404 08:52:52.634510 30985 net.cpp:49] Initializing net from parameters: 
name: "LeNet"
state {
  phase: TEST
}
layer {
  name: "mnist"
  type: "Data"
  top: "data"
  top: "label"
  include {
    phase: TEST
  }
  transform_param {
    scale: 0.00390625
  }
  data_param {
    source: "/home/nikoong/Algorithm_test/handwritting/data/lmdb/dilated/val_withnewfour_lmdb"
    batch_size: 500
    backend: LMDB
  }
}
layer {
  name: "conv1"
  type: "Convolution"
  bottom: "data"
  top: "conv1"
  param {
    lr_mult: 1
  }
  param {
    lr_mult: 2
  }
  convolution_param {
    num_output: 20
    kernel_size: 5
    stride: 1
    weight_filler {
      type: "xavier"
    }
    bias_filler {
      type: "constant"
    }
  }
}
layer {
  name: "conv1_bn"
  type: "BN"
  bottom: "conv1"
  top: "conv1_bn"
  param {
    lr_mult: 0
    decay_mult: 0
  }
  param {
    lr_mult: 0
    decay_mult: 0
  }
  bn_param {
    slope_filler {
      type: "constant"
      value: 1
    }
    bias_filler {
      type: "constant"
      value: 0
    }
  }
}
layer {
  name: "relu1"
  type: "ReLU"
  bottom: "conv1_bn"
  top: "conv1_bn"
}
layer {
  name: "pool1"
  type: "Pooling"
  bottom: "conv1_bn"
  top: "pool1"
  pooling_param {
    pool: MAX
    kernel_size: 2
    stride: 2
  }
}
layer {
  name: "conv2"
  type: "Convolution"
  bottom: "pool1"
  top: "conv2"
  param {
    lr_mult: 1
  }
  param {
    lr_mult: 2
  }
  convolution_param {
    num_output: 50
    kernel_size: 5
    stride: 1
    weight_filler {
      type: "xavier"
    }
    bias_filler {
      type: "constant"
    }
  }
}
layer {
  name: "conv2_bn"
  type: "BN"
  bottom: "conv2"
  top: "conv2_bn"
  param {
    lr_mult: 0
    decay_mult: 0
  }
  param {
    lr_mult: 0
    decay_mult: 0
  }
  bn_param {
    slope_filler {
      type: "constant"
      value: 1
    }
    bias_filler {
      type: "constant"
      value: 0
    }
  }
}
layer {
  name: "relu2"
  type: "ReLU"
  bottom: "conv2_bn"
  top: "conv2_bn"
}
layer {
  name: "pool2"
  type: "Pooling"
  bottom: "conv2_bn"
  top: "pool2"
  pooling_param {
    pool: MAX
    kernel_size: 2
    stride: 2
  }
}
layer {
  name: "ip1"
  type: "InnerProduct"
  bottom: "pool2"
  top: "ip1"
  param {
    lr_mult: 1
  }
  param {
    lr_mult: 2
  }
  inner_product_param {
    num_output: 500
    weight_filler {
      type: "xavier"
    }
    bias_filler {
      type: "constant"
    }
  }
}
layer {
  name: "relu1"
  type: "ReLU"
  bottom: "ip1"
  top: "ip1"
}
layer {
  name: "ip2"
  type: "InnerProduct"
  bottom: "ip1"
  top: "ip2"
  param {
    lr_mult: 1
  }
  param {
    lr_mult: 2
  }
  inner_product_param {
    num_output: 10
    weight_filler {
      type: "xavier"
    }
    bias_filler {
      type: "constant"
    }
  }
}
layer {
  name: "accuracy"
  type: "Accuracy"
  bottom: "ip2"
  bottom: "label"
  top: "accuracy"
  include {
    phase: TEST
  }
}
layer {
  name: "loss"
  type: "SoftmaxWithLoss"
  bottom: "ip2"
  bottom: "label"
  top: "loss"
}
I0404 08:52:52.634580 30985 layer_factory.hpp:77] Creating layer mnist
I0404 08:52:52.634800 30985 net.cpp:91] Creating Layer mnist
I0404 08:52:52.634816 30985 net.cpp:409] mnist -> data
I0404 08:52:52.634824 30985 net.cpp:409] mnist -> label
I0404 08:52:52.635529 30993 db_lmdb.cpp:40] Opened lmdb /home/nikoong/Algorithm_test/handwritting/data/lmdb/dilated/val_withnewfour_lmdb
I0404 08:52:52.635629 30985 data_layer.cpp:41] output data size: 500,1,28,28
I0404 08:52:52.643206 30985 net.cpp:141] Setting up mnist
I0404 08:52:52.643236 30985 net.cpp:148] Top shape: 500 1 28 28 (392000)
I0404 08:52:52.643241 30985 net.cpp:148] Top shape: 500 (500)
I0404 08:52:52.643244 30985 net.cpp:156] Memory required for data: 1570000
I0404 08:52:52.643250 30985 layer_factory.hpp:77] Creating layer label_mnist_1_split
I0404 08:52:52.643270 30985 net.cpp:91] Creating Layer label_mnist_1_split
I0404 08:52:52.643272 30985 net.cpp:435] label_mnist_1_split <- label
I0404 08:52:52.643278 30985 net.cpp:409] label_mnist_1_split -> label_mnist_1_split_0
I0404 08:52:52.643287 30985 net.cpp:409] label_mnist_1_split -> label_mnist_1_split_1
I0404 08:52:52.643360 30985 net.cpp:141] Setting up label_mnist_1_split
I0404 08:52:52.643366 30985 net.cpp:148] Top shape: 500 (500)
I0404 08:52:52.643379 30985 net.cpp:148] Top shape: 500 (500)
I0404 08:52:52.643381 30985 net.cpp:156] Memory required for data: 1574000
I0404 08:52:52.643383 30985 layer_factory.hpp:77] Creating layer conv1
I0404 08:52:52.643404 30985 net.cpp:91] Creating Layer conv1
I0404 08:52:52.643406 30985 net.cpp:435] conv1 <- data
I0404 08:52:52.643421 30985 net.cpp:409] conv1 -> conv1
I0404 08:52:52.645445 30985 net.cpp:141] Setting up conv1
I0404 08:52:52.645458 30985 net.cpp:148] Top shape: 500 20 24 24 (5760000)
I0404 08:52:52.645473 30985 net.cpp:156] Memory required for data: 24614000
I0404 08:52:52.645481 30985 layer_factory.hpp:77] Creating layer conv1_bn
I0404 08:52:52.645485 30985 layer_factory.cpp:265] Layer conv1_bn is using CAFFE engine.
I0404 08:52:52.645491 30985 net.cpp:91] Creating Layer conv1_bn
I0404 08:52:52.645496 30985 net.cpp:435] conv1_bn <- conv1
I0404 08:52:52.645503 30985 net.cpp:409] conv1_bn -> conv1_bn
I0404 08:52:52.645670 30985 net.cpp:141] Setting up conv1_bn
I0404 08:52:52.645678 30985 net.cpp:148] Top shape: 500 20 24 24 (5760000)
I0404 08:52:52.645690 30985 net.cpp:156] Memory required for data: 47654000
I0404 08:52:52.645699 30985 layer_factory.hpp:77] Creating layer relu1
I0404 08:52:52.645704 30985 net.cpp:91] Creating Layer relu1
I0404 08:52:52.645719 30985 net.cpp:435] relu1 <- conv1_bn
I0404 08:52:52.645722 30985 net.cpp:396] relu1 -> conv1_bn (in-place)
I0404 08:52:52.645864 30985 net.cpp:141] Setting up relu1
I0404 08:52:52.645872 30985 net.cpp:148] Top shape: 500 20 24 24 (5760000)
I0404 08:52:52.645884 30985 net.cpp:156] Memory required for data: 70694000
I0404 08:52:52.645887 30985 layer_factory.hpp:77] Creating layer pool1
I0404 08:52:52.645894 30985 net.cpp:91] Creating Layer pool1
I0404 08:52:52.645897 30985 net.cpp:435] pool1 <- conv1_bn
I0404 08:52:52.645901 30985 net.cpp:409] pool1 -> pool1
I0404 08:52:52.645937 30985 net.cpp:141] Setting up pool1
I0404 08:52:52.645943 30985 net.cpp:148] Top shape: 500 20 12 12 (1440000)
I0404 08:52:52.645946 30985 net.cpp:156] Memory required for data: 76454000
I0404 08:52:52.645953 30985 layer_factory.hpp:77] Creating layer conv2
I0404 08:52:52.645962 30985 net.cpp:91] Creating Layer conv2
I0404 08:52:52.645967 30985 net.cpp:435] conv2 <- pool1
I0404 08:52:52.645972 30985 net.cpp:409] conv2 -> conv2
I0404 08:52:52.647099 30985 net.cpp:141] Setting up conv2
I0404 08:52:52.647112 30985 net.cpp:148] Top shape: 500 50 8 8 (1600000)
I0404 08:52:52.647126 30985 net.cpp:156] Memory required for data: 82854000
I0404 08:52:52.647137 30985 layer_factory.hpp:77] Creating layer conv2_bn
I0404 08:52:52.647145 30985 layer_factory.cpp:265] Layer conv2_bn is using CAFFE engine.
I0404 08:52:52.647150 30985 net.cpp:91] Creating Layer conv2_bn
I0404 08:52:52.647157 30985 net.cpp:435] conv2_bn <- conv2
I0404 08:52:52.647163 30985 net.cpp:409] conv2_bn -> conv2_bn
I0404 08:52:52.647330 30985 net.cpp:141] Setting up conv2_bn
I0404 08:52:52.647339 30985 net.cpp:148] Top shape: 500 50 8 8 (1600000)
I0404 08:52:52.647352 30985 net.cpp:156] Memory required for data: 89254000
I0404 08:52:52.647361 30985 layer_factory.hpp:77] Creating layer relu2
I0404 08:52:52.647367 30985 net.cpp:91] Creating Layer relu2
I0404 08:52:52.647369 30985 net.cpp:435] relu2 <- conv2_bn
I0404 08:52:52.647375 30985 net.cpp:396] relu2 -> conv2_bn (in-place)
I0404 08:52:52.647502 30985 net.cpp:141] Setting up relu2
I0404 08:52:52.647511 30985 net.cpp:148] Top shape: 500 50 8 8 (1600000)
I0404 08:52:52.647522 30985 net.cpp:156] Memory required for data: 95654000
I0404 08:52:52.647526 30985 layer_factory.hpp:77] Creating layer pool2
I0404 08:52:52.647531 30985 net.cpp:91] Creating Layer pool2
I0404 08:52:52.647533 30985 net.cpp:435] pool2 <- conv2_bn
I0404 08:52:52.647537 30985 net.cpp:409] pool2 -> pool2
I0404 08:52:52.647575 30985 net.cpp:141] Setting up pool2
I0404 08:52:52.647583 30985 net.cpp:148] Top shape: 500 50 4 4 (400000)
I0404 08:52:52.647585 30985 net.cpp:156] Memory required for data: 97254000
I0404 08:52:52.647588 30985 layer_factory.hpp:77] Creating layer ip1
I0404 08:52:52.647593 30985 net.cpp:91] Creating Layer ip1
I0404 08:52:52.647595 30985 net.cpp:435] ip1 <- pool2
I0404 08:52:52.647604 30985 net.cpp:409] ip1 -> ip1
I0404 08:52:52.651022 30985 net.cpp:141] Setting up ip1
I0404 08:52:52.651047 30985 net.cpp:148] Top shape: 500 500 (250000)
I0404 08:52:52.651051 30985 net.cpp:156] Memory required for data: 98254000
I0404 08:52:52.651068 30985 layer_factory.hpp:77] Creating layer relu1
I0404 08:52:52.651074 30985 net.cpp:91] Creating Layer relu1
I0404 08:52:52.651079 30985 net.cpp:435] relu1 <- ip1
I0404 08:52:52.651083 30985 net.cpp:396] relu1 -> ip1 (in-place)
I0404 08:52:52.651669 30985 net.cpp:141] Setting up relu1
I0404 08:52:52.651680 30985 net.cpp:148] Top shape: 500 500 (250000)
I0404 08:52:52.651700 30985 net.cpp:156] Memory required for data: 99254000
I0404 08:52:52.651741 30985 layer_factory.hpp:77] Creating layer ip2
I0404 08:52:52.651748 30985 net.cpp:91] Creating Layer ip2
I0404 08:52:52.651762 30985 net.cpp:435] ip2 <- ip1
I0404 08:52:52.651768 30985 net.cpp:409] ip2 -> ip2
I0404 08:52:52.651902 30985 net.cpp:141] Setting up ip2
I0404 08:52:52.651909 30985 net.cpp:148] Top shape: 500 10 (5000)
I0404 08:52:52.651927 30985 net.cpp:156] Memory required for data: 99274000
I0404 08:52:52.651932 30985 layer_factory.hpp:77] Creating layer ip2_ip2_0_split
I0404 08:52:52.651939 30985 net.cpp:91] Creating Layer ip2_ip2_0_split
I0404 08:52:52.651947 30985 net.cpp:435] ip2_ip2_0_split <- ip2
I0404 08:52:52.651950 30985 net.cpp:409] ip2_ip2_0_split -> ip2_ip2_0_split_0
I0404 08:52:52.651955 30985 net.cpp:409] ip2_ip2_0_split -> ip2_ip2_0_split_1
I0404 08:52:52.651980 30985 net.cpp:141] Setting up ip2_ip2_0_split
I0404 08:52:52.651995 30985 net.cpp:148] Top shape: 500 10 (5000)
I0404 08:52:52.652011 30985 net.cpp:148] Top shape: 500 10 (5000)
I0404 08:52:52.652015 30985 net.cpp:156] Memory required for data: 99314000
I0404 08:52:52.652019 30985 layer_factory.hpp:77] Creating layer accuracy
I0404 08:52:52.652024 30985 net.cpp:91] Creating Layer accuracy
I0404 08:52:52.652027 30985 net.cpp:435] accuracy <- ip2_ip2_0_split_0
I0404 08:52:52.652030 30985 net.cpp:435] accuracy <- label_mnist_1_split_0
I0404 08:52:52.652034 30985 net.cpp:409] accuracy -> accuracy
…
