…
I0401 16:36:20.397138 18230 net.cpp:323] The NetState phase (0) differed from the phase (1) specified by a rule in layer mnist
I0401 16:36:20.397155 18230 net.cpp:323] The NetState phase (0) differed from the phase (1) specified by a rule in layer accuracy
I0401 16:36:20.397276 18230 net.cpp:49] Initializing net from parameters: 
name: "LeNet"
state {
  phase: TRAIN
}
layer {
  name: "mnist"
  type: "Data"
  top: "data"
  top: "label"
  include {
    phase: TRAIN
  }
  transform_param {
    scale: 0.00390625
  }
  data_param {
    source: "/home/nikoong/Algorithm_test/handwritting/data/lmdb/progress/train_withnewfour_lmdb"
    batch_size: 10000
    backend: LMDB
  }
}
layer {
  name: "conv1"
  type: "Convolution"
  bottom: "data"
  top: "conv1"
  param {
    lr_mult: 1
  }
  param {
    lr_mult: 2
  }
  convolution_param {
    num_output: 20
    kernel_size: 5
    stride: 1
    weight_filler {
      type: "xavier"
    }
    bias_filler {
      type: "constant"
    }
  }
}
layer {
  name: "conv1_bn"
  type: "BN"
  bottom: "conv1"
  top: "conv1_bn"
  param {
    lr_mult: 0
    decay_mult: 0
  }
  param {
    lr_mult: 0
    decay_mult: 0
  }
  bn_param {
    slope_filler {
      type: "constant"
      value: 1
    }
    bias_filler {
      type: "constant"
      value: 0
    }
  }
}
layer {
  name: "relu1"
  type: "ReLU"
  bottom: "conv1_bn"
  top: "conv1_bn"
}
layer {
  name: "pool1"
  type: "Pooling"
  bottom: "conv1_bn"
  top: "pool1"
  pooling_param {
    pool: MAX
    kernel_size: 2
    stride: 2
  }
}
layer {
  name: "conv2"
  type: "Convolution"
  bottom: "pool1"
  top: "conv2"
  param {
    lr_mult: 1
  }
  param {
    lr_mult: 2
  }
  convolution_param {
    num_output: 50
    kernel_size: 5
    stride: 1
    weight_filler {
      type: "xavier"
    }
    bias_filler {
      type: "constant"
    }
  }
}
layer {
  name: "conv2_bn"
  type: "BN"
  bottom: "conv2"
  top: "conv2_bn"
  param {
    lr_mult: 0
    decay_mult: 0
  }
  param {
    lr_mult: 0
    decay_mult: 0
  }
  bn_param {
    slope_filler {
      type: "constant"
      value: 1
    }
    bias_filler {
      type: "constant"
      value: 0
    }
  }
}
layer {
  name: "relu2"
  type: "ReLU"
  bottom: "conv2_bn"
  top: "conv2_bn"
}
layer {
  name: "pool2"
  type: "Pooling"
  bottom: "conv2_bn"
  top: "pool2"
  pooling_param {
    pool: MAX
    kernel_size: 2
    stride: 2
  }
}
layer {
  name: "ip1"
  type: "InnerProduct"
  bottom: "pool2"
  top: "ip1"
  param {
    lr_mult: 1
  }
  param {
    lr_mult: 2
  }
  inner_product_param {
    num_output: 500
    weight_filler {
      type: "xavier"
    }
    bias_filler {
      type: "constant"
    }
  }
}
layer {
  name: "relu1"
  type: "ReLU"
  bottom: "ip1"
  top: "ip1"
}
layer {
  name: "ip2"
  type: "InnerProduct"
  bottom: "ip1"
  top: "ip2"
  param {
    lr_mult: 1
  }
  param {
    lr_mult: 2
  }
  inner_product_param {
    num_output: 10
    weight_filler {
      type: "xavier"
    }
    bias_filler {
      type: "constant"
    }
  }
}
layer {
  name: "loss"
  type: "SoftmaxWithLoss"
  bottom: "ip2"
  bottom: "label"
  top: "loss"
}
I0401 16:36:20.397337 18230 layer_factory.hpp:77] Creating layer mnist
I0401 16:36:20.401576 18230 net.cpp:91] Creating Layer mnist
I0401 16:36:20.401598 18230 net.cpp:409] mnist -> data
I0401 16:36:20.401643 18230 net.cpp:409] mnist -> label
I0401 16:36:20.402380 18237 db_lmdb.cpp:40] Opened lmdb /home/nikoong/Algorithm_test/handwritting/data/lmdb/progress/train_withnewfour_lmdb
I0401 16:36:20.425426 18230 data_layer.cpp:41] output data size: 10000,1,28,28
I0401 16:36:20.512070 18230 net.cpp:141] Setting up mnist
I0401 16:36:20.512112 18230 net.cpp:148] Top shape: 10000 1 28 28 (7840000)
I0401 16:36:20.512117 18230 net.cpp:148] Top shape: 10000 (10000)
I0401 16:36:20.512130 18230 net.cpp:156] Memory required for data: 31400000
I0401 16:36:20.512138 18230 layer_factory.hpp:77] Creating layer conv1
I0401 16:36:20.512161 18230 net.cpp:91] Creating Layer conv1
I0401 16:36:20.512167 18230 net.cpp:435] conv1 <- data
I0401 16:36:20.512187 18230 net.cpp:409] conv1 -> conv1
I0401 16:36:20.938599 18230 net.cpp:141] Setting up conv1
I0401 16:36:20.938624 18230 net.cpp:148] Top shape: 10000 20 24 24 (115200000)
I0401 16:36:20.938627 18230 net.cpp:156] Memory required for data: 492200000
I0401 16:36:20.938644 18230 layer_factory.hpp:77] Creating layer conv1_bn
I0401 16:36:20.938648 18230 layer_factory.cpp:265] Layer conv1_bn is using CAFFE engine.
I0401 16:36:20.938668 18230 net.cpp:91] Creating Layer conv1_bn
I0401 16:36:20.938673 18230 net.cpp:435] conv1_bn <- conv1
I0401 16:36:20.938678 18230 net.cpp:409] conv1_bn -> conv1_bn
I0401 16:36:20.938853 18230 net.cpp:141] Setting up conv1_bn
I0401 16:36:20.938859 18230 net.cpp:148] Top shape: 10000 20 24 24 (115200000)
I0401 16:36:20.938861 18230 net.cpp:156] Memory required for data: 953000000
I0401 16:36:20.938869 18230 layer_factory.hpp:77] Creating layer relu1
I0401 16:36:20.938874 18230 net.cpp:91] Creating Layer relu1
I0401 16:36:20.938877 18230 net.cpp:435] relu1 <- conv1_bn
I0401 16:36:20.938890 18230 net.cpp:396] relu1 -> conv1_bn (in-place)
I0401 16:36:20.939023 18230 net.cpp:141] Setting up relu1
I0401 16:36:20.939030 18230 net.cpp:148] Top shape: 10000 20 24 24 (115200000)
I0401 16:36:20.939033 18230 net.cpp:156] Memory required for data: 1413800000
I0401 16:36:20.939035 18230 layer_factory.hpp:77] Creating layer pool1
I0401 16:36:20.939043 18230 net.cpp:91] Creating Layer pool1
I0401 16:36:20.939044 18230 net.cpp:435] pool1 <- conv1_bn
I0401 16:36:20.939049 18230 net.cpp:409] pool1 -> pool1
I0401 16:36:20.939090 18230 net.cpp:141] Setting up pool1
I0401 16:36:20.939096 18230 net.cpp:148] Top shape: 10000 20 12 12 (28800000)
I0401 16:36:20.939098 18230 net.cpp:156] Memory required for data: 1529000000
I0401 16:36:20.939110 18230 layer_factory.hpp:77] Creating layer conv2
I0401 16:36:20.939117 18230 net.cpp:91] Creating Layer conv2
I0401 16:36:20.939121 18230 net.cpp:435] conv2 <- pool1
I0401 16:36:20.939124 18230 net.cpp:409] conv2 -> conv2
I0401 16:36:20.941195 18230 net.cpp:141] Setting up conv2
I0401 16:36:20.941207 18230 net.cpp:148] Top shape: 10000 50 8 8 (32000000)
I0401 16:36:20.941210 18230 net.cpp:156] Memory required for data: 1657000000
I0401 16:36:20.941215 18230 layer_factory.hpp:77] Creating layer conv2_bn
I0401 16:36:20.941220 18230 layer_factory.cpp:265] Layer conv2_bn is using CAFFE engine.
I0401 16:36:20.941224 18230 net.cpp:91] Creating Layer conv2_bn
I0401 16:36:20.941227 18230 net.cpp:435] conv2_bn <- conv2
I0401 16:36:20.941241 18230 net.cpp:409] conv2_bn -> conv2_bn
I0401 16:36:20.941403 18230 net.cpp:141] Setting up conv2_bn
I0401 16:36:20.941411 18230 net.cpp:148] Top shape: 10000 50 8 8 (32000000)
I0401 16:36:20.941412 18230 net.cpp:156] Memory required for data: 1785000000
I0401 16:36:20.941421 18230 layer_factory.hpp:77] Creating layer relu2
I0401 16:36:20.941424 18230 net.cpp:91] Creating Layer relu2
I0401 16:36:20.941427 18230 net.cpp:435] relu2 <- conv2_bn
I0401 16:36:20.941431 18230 net.cpp:396] relu2 -> conv2_bn (in-place)
I0401 16:36:20.941562 18230 net.cpp:141] Setting up relu2
I0401 16:36:20.941570 18230 net.cpp:148] Top shape: 10000 50 8 8 (32000000)
I0401 16:36:20.941572 18230 net.cpp:156] Memory required for data: 1913000000
I0401 16:36:20.941575 18230 layer_factory.hpp:77] Creating layer pool2
I0401 16:36:20.941581 18230 net.cpp:91] Creating Layer pool2
I0401 16:36:20.941582 18230 net.cpp:435] pool2 <- conv2_bn
I0401 16:36:20.941586 18230 net.cpp:409] pool2 -> pool2
I0401 16:36:20.941637 18230 net.cpp:141] Setting up pool2
I0401 16:36:20.941653 18230 net.cpp:148] Top shape: 10000 50 4 4 (8000000)
I0401 16:36:20.941655 18230 net.cpp:156] Memory required for data: 1945000000
I0401 16:36:20.941658 18230 layer_factory.hpp:77] Creating layer ip1
I0401 16:36:20.941663 18230 net.cpp:91] Creating Layer ip1
I0401 16:36:20.941665 18230 net.cpp:435] ip1 <- pool2
I0401 16:36:20.941669 18230 net.cpp:409] ip1 -> ip1
I0401 16:36:20.944991 18230 net.cpp:141] Setting up ip1
I0401 16:36:20.945003 18230 net.cpp:148] Top shape: 10000 500 (5000000)
I0401 16:36:20.945006 18230 net.cpp:156] Memory required for data: 1965000000
I0401 16:36:20.945011 18230 layer_factory.hpp:77] Creating layer relu1
I0401 16:36:20.945016 18230 net.cpp:91] Creating Layer relu1
I0401 16:36:20.945019 18230 net.cpp:435] relu1 <- ip1
I0401 16:36:20.945024 18230 net.cpp:396] relu1 -> ip1 (in-place)
I0401 16:36:20.945570 18230 net.cpp:141] Setting up relu1
I0401 16:36:20.945581 18230 net.cpp:148] Top shape: 10000 500 (5000000)
I0401 16:36:20.945583 18230 net.cpp:156] Memory required for data: 1985000000
I0401 16:36:20.945586 18230 layer_factory.hpp:77] Creating layer ip2
I0401 16:36:20.945592 18230 net.cpp:91] Creating Layer ip2
I0401 16:36:20.945595 18230 net.cpp:435] ip2 <- ip1
I0401 16:36:20.945600 18230 net.cpp:409] ip2 -> ip2
I0401 16:36:20.945731 18230 net.cpp:141] Setting up ip2
I0401 16:36:20.945737 18230 net.cpp:148] Top shape: 10000 10 (100000)
I0401 16:36:20.945739 18230 net.cpp:156] Memory required for data: 1985400000
I0401 16:36:20.945744 18230 layer_factory.hpp:77] Creating layer loss
I0401 16:36:20.945752 18230 net.cpp:91] Creating Layer loss
I0401 16:36:20.945755 18230 net.cpp:435] loss <- ip2
I0401 16:36:20.945758 18230 net.cpp:435] loss <- label
I0401 16:36:20.945771 18230 net.cpp:409] loss -> loss
I0401 16:36:20.945783 18230 layer_factory.hpp:77] Creating layer loss
…
I0401 16:36:20.946342 18230 solver.cpp:181] Creating test net (#0) specified by net file: /home/nikoong/Algorithm_test/handwritting/lenet/mul_net/lenet_bn_progress.prototxt
I0401 16:36:20.946375 18230 net.cpp:323] The NetState phase (1) differed from the phase (0) specified by a rule in layer mnist
I0401 16:36:20.946513 18230 net.cpp:49] Initializing net from parameters: 
name: "LeNet"
state {
  phase: TEST
}
layer {
  name: "mnist"
  type: "Data"
  top: "data"
  top: "label"
  include {
    phase: TEST
  }
  transform_param {
    scale: 0.00390625
  }
  data_param {
    source: "/home/nikoong/Algorithm_test/handwritting/data/lmdb/progress/val_withnewfour_lmdb"
    batch_size: 500
    backend: LMDB
  }
}
layer {
  name: "conv1"
  type: "Convolution"
  bottom: "data"
  top: "conv1"
  param {
    lr_mult: 1
  }
  param {
    lr_mult: 2
  }
  convolution_param {
    num_output: 20
    kernel_size: 5
    stride: 1
    weight_filler {
      type: "xavier"
    }
    bias_filler {
      type: "constant"
    }
  }
}
layer {
  name: "conv1_bn"
  type: "BN"
  bottom: "conv1"
  top: "conv1_bn"
  param {
    lr_mult: 0
    decay_mult: 0
  }
  param {
    lr_mult: 0
    decay_mult: 0
  }
  bn_param {
    slope_filler {
      type: "constant"
      value: 1
    }
    bias_filler {
      type: "constant"
      value: 0
    }
  }
}
layer {
  name: "relu1"
  type: "ReLU"
  bottom: "conv1_bn"
  top: "conv1_bn"
}
layer {
  name: "pool1"
  type: "Pooling"
  bottom: "conv1_bn"
  top: "pool1"
  pooling_param {
    pool: MAX
    kernel_size: 2
    stride: 2
  }
}
layer {
  name: "conv2"
  type: "Convolution"
  bottom: "pool1"
  top: "conv2"
  param {
    lr_mult: 1
  }
  param {
    lr_mult: 2
  }
  convolution_param {
    num_output: 50
    kernel_size: 5
    stride: 1
    weight_filler {
      type: "xavier"
    }
    bias_filler {
      type: "constant"
    }
  }
}
layer {
  name: "conv2_bn"
  type: "BN"
  bottom: "conv2"
  top: "conv2_bn"
  param {
    lr_mult: 0
    decay_mult: 0
  }
  param {
    lr_mult: 0
    decay_mult: 0
  }
  bn_param {
    slope_filler {
      type: "constant"
      value: 1
    }
    bias_filler {
      type: "constant"
      value: 0
    }
  }
}
layer {
  name: "relu2"
  type: "ReLU"
  bottom: "conv2_bn"
  top: "conv2_bn"
}
layer {
  name: "pool2"
  type: "Pooling"
  bottom: "conv2_bn"
  top: "pool2"
  pooling_param {
    pool: MAX
    kernel_size: 2
    stride: 2
  }
}
layer {
  name: "ip1"
  type: "InnerProduct"
  bottom: "pool2"
  top: "ip1"
  param {
    lr_mult: 1
  }
  param {
    lr_mult: 2
  }
  inner_product_param {
    num_output: 500
    weight_filler {
      type: "xavier"
    }
    bias_filler {
      type: "constant"
    }
  }
}
layer {
  name: "relu1"
  type: "ReLU"
  bottom: "ip1"
  top: "ip1"
}
layer {
  name: "ip2"
  type: "InnerProduct"
  bottom: "ip1"
  top: "ip2"
  param {
    lr_mult: 1
  }
  param {
    lr_mult: 2
  }
  inner_product_param {
    num_output: 10
    weight_filler {
      type: "xavier"
    }
    bias_filler {
      type: "constant"
    }
  }
}
layer {
  name: "accuracy"
  type: "Accuracy"
  bottom: "ip2"
  bottom: "label"
  top: "accuracy"
  include {
    phase: TEST
  }
}
layer {
  name: "loss"
  type: "SoftmaxWithLoss"
  bottom: "ip2"
  bottom: "label"
  top: "loss"
}
I0401 16:36:20.946596 18230 layer_factory.hpp:77] Creating layer mnist
I0401 16:36:20.946923 18230 net.cpp:91] Creating Layer mnist
I0401 16:36:20.946928 18230 net.cpp:409] mnist -> data
I0401 16:36:20.946936 18230 net.cpp:409] mnist -> label
I0401 16:36:20.947671 18239 db_lmdb.cpp:40] Opened lmdb /home/nikoong/Algorithm_test/handwritting/data/lmdb/progress/val_withnewfour_lmdb
I0401 16:36:20.947784 18230 data_layer.cpp:41] output data size: 500,1,28,28
I0401 16:36:20.955399 18230 net.cpp:141] Setting up mnist
I0401 16:36:20.955430 18230 net.cpp:148] Top shape: 500 1 28 28 (392000)
I0401 16:36:20.955435 18230 net.cpp:148] Top shape: 500 (500)
I0401 16:36:20.955437 18230 net.cpp:156] Memory required for data: 1570000
I0401 16:36:20.955442 18230 layer_factory.hpp:77] Creating layer label_mnist_1_split
I0401 16:36:20.955462 18230 net.cpp:91] Creating Layer label_mnist_1_split
I0401 16:36:20.955466 18230 net.cpp:435] label_mnist_1_split <- label
I0401 16:36:20.955471 18230 net.cpp:409] label_mnist_1_split -> label_mnist_1_split_0
I0401 16:36:20.955480 18230 net.cpp:409] label_mnist_1_split -> label_mnist_1_split_1
I0401 16:36:20.955550 18230 net.cpp:141] Setting up label_mnist_1_split
I0401 16:36:20.955556 18230 net.cpp:148] Top shape: 500 (500)
I0401 16:36:20.955569 18230 net.cpp:148] Top shape: 500 (500)
I0401 16:36:20.955571 18230 net.cpp:156] Memory required for data: 1574000
I0401 16:36:20.955574 18230 layer_factory.hpp:77] Creating layer conv1
I0401 16:36:20.955595 18230 net.cpp:91] Creating Layer conv1
I0401 16:36:20.955598 18230 net.cpp:435] conv1 <- data
I0401 16:36:20.955615 18230 net.cpp:409] conv1 -> conv1
I0401 16:36:20.957640 18230 net.cpp:141] Setting up conv1
I0401 16:36:20.957653 18230 net.cpp:148] Top shape: 500 20 24 24 (5760000)
I0401 16:36:20.957666 18230 net.cpp:156] Memory required for data: 24614000
I0401 16:36:20.957675 18230 layer_factory.hpp:77] Creating layer conv1_bn
I0401 16:36:20.957679 18230 layer_factory.cpp:265] Layer conv1_bn is using CAFFE engine.
I0401 16:36:20.957685 18230 net.cpp:91] Creating Layer conv1_bn
I0401 16:36:20.957696 18230 net.cpp:435] conv1_bn <- conv1
I0401 16:36:20.957701 18230 net.cpp:409] conv1_bn -> conv1_bn
I0401 16:36:20.957865 18230 net.cpp:141] Setting up conv1_bn
I0401 16:36:20.957875 18230 net.cpp:148] Top shape: 500 20 24 24 (5760000)
I0401 16:36:20.957876 18230 net.cpp:156] Memory required for data: 47654000
I0401 16:36:20.957885 18230 layer_factory.hpp:77] Creating layer relu1
I0401 16:36:20.957891 18230 net.cpp:91] Creating Layer relu1
I0401 16:36:20.957900 18230 net.cpp:435] relu1 <- conv1_bn
I0401 16:36:20.957906 18230 net.cpp:396] relu1 -> conv1_bn (in-place)
I0401 16:36:20.958039 18230 net.cpp:141] Setting up relu1
I0401 16:36:20.958047 18230 net.cpp:148] Top shape: 500 20 24 24 (5760000)
I0401 16:36:20.958050 18230 net.cpp:156] Memory required for data: 70694000
I0401 16:36:20.958055 18230 layer_factory.hpp:77] Creating layer pool1
I0401 16:36:20.958068 18230 net.cpp:91] Creating Layer pool1
I0401 16:36:20.958071 18230 net.cpp:435] pool1 <- conv1_bn
I0401 16:36:20.958076 18230 net.cpp:409] pool1 -> pool1
I0401 16:36:20.958104 18230 net.cpp:141] Setting up pool1
I0401 16:36:20.958112 18230 net.cpp:148] Top shape: 500 20 12 12 (1440000)
I0401 16:36:20.958114 18230 net.cpp:156] Memory required for data: 76454000
I0401 16:36:20.958120 18230 layer_factory.hpp:77] Creating layer conv2
I0401 16:36:20.958127 18230 net.cpp:91] Creating Layer conv2
I0401 16:36:20.958132 18230 net.cpp:435] conv2 <- pool1
I0401 16:36:20.958137 18230 net.cpp:409] conv2 -> conv2
I0401 16:36:20.959288 18230 net.cpp:141] Setting up conv2
I0401 16:36:20.959301 18230 net.cpp:148] Top shape: 500 50 8 8 (1600000)
I0401 16:36:20.959306 18230 net.cpp:156] Memory required for data: 82854000
I0401 16:36:20.959311 18230 layer_factory.hpp:77] Creating layer conv2_bn
I0401 16:36:20.959314 18230 layer_factory.cpp:265] Layer conv2_bn is using CAFFE engine.
I0401 16:36:20.959319 18230 net.cpp:91] Creating Layer conv2_bn
I0401 16:36:20.959322 18230 net.cpp:435] conv2_bn <- conv2
I0401 16:36:20.959327 18230 net.cpp:409] conv2_bn -> conv2_bn
I0401 16:36:20.959488 18230 net.cpp:141] Setting up conv2_bn
I0401 16:36:20.959497 18230 net.cpp:148] Top shape: 500 50 8 8 (1600000)
I0401 16:36:20.959501 18230 net.cpp:156] Memory required for data: 89254000
I0401 16:36:20.959516 18230 layer_factory.hpp:77] Creating layer relu2
I0401 16:36:20.959522 18230 net.cpp:91] Creating Layer relu2
I0401 16:36:20.959524 18230 net.cpp:435] relu2 <- conv2_bn
I0401 16:36:20.959530 18230 net.cpp:396] relu2 -> conv2_bn (in-place)
I0401 16:36:20.959653 18230 net.cpp:141] Setting up relu2
I0401 16:36:20.959661 18230 net.cpp:148] Top shape: 500 50 8 8 (1600000)
I0401 16:36:20.959664 18230 net.cpp:156] Memory required for data: 95654000
I0401 16:36:20.959667 18230 layer_factory.hpp:77] Creating layer pool2
I0401 16:36:20.959672 18230 net.cpp:91] Creating Layer pool2
I0401 16:36:20.959676 18230 net.cpp:435] pool2 <- conv2_bn
I0401 16:36:20.959679 18230 net.cpp:409] pool2 -> pool2
I0401 16:36:20.959708 18230 net.cpp:141] Setting up pool2
I0401 16:36:20.959713 18230 net.cpp:148] Top shape: 500 50 4 4 (400000)
I0401 16:36:20.959717 18230 net.cpp:156] Memory required for data: 97254000
I0401 16:36:20.959718 18230 layer_factory.hpp:77] Creating layer ip1
I0401 16:36:20.959724 18230 net.cpp:91] Creating Layer ip1
I0401 16:36:20.959733 18230 net.cpp:435] ip1 <- pool2
I0401 16:36:20.959738 18230 net.cpp:409] ip1 -> ip1
I0401 16:36:20.963186 18230 net.cpp:141] Setting up ip1
I0401 16:36:20.963201 18230 net.cpp:148] Top shape: 500 500 (250000)
I0401 16:36:20.963214 18230 net.cpp:156] Memory required for data: 98254000
I0401 16:36:20.963232 18230 layer_factory.hpp:77] Creating layer relu1
I0401 16:36:20.963240 18230 net.cpp:91] Creating Layer relu1
I0401 16:36:20.963246 18230 net.cpp:435] relu1 <- ip1
I0401 16:36:20.963253 18230 net.cpp:396] relu1 -> ip1 (in-place)
I0401 16:36:20.963838 18230 net.cpp:141] Setting up relu1
I0401 16:36:20.963850 18230 net.cpp:148] Top shape: 500 500 (250000)
I0401 16:36:20.963863 18230 net.cpp:156] Memory required for data: 99254000
I0401 16:36:20.963866 18230 layer_factory.hpp:77] Creating layer ip2
I0401 16:36:20.963874 18230 net.cpp:91] Creating Layer ip2
I0401 16:36:20.963877 18230 net.cpp:435] ip2 <- ip1
I0401 16:36:20.963882 18230 net.cpp:409] ip2 -> ip2
I0401 16:36:20.964006 18230 net.cpp:141] Setting up ip2
I0401 16:36:20.964013 18230 net.cpp:148] Top shape: 500 10 (5000)
I0401 16:36:20.964015 18230 net.cpp:156] Memory required for data: 99274000
I0401 16:36:20.964020 18230 layer_factory.hpp:77] Creating layer ip2_ip2_0_split
I0401 16:36:20.964027 18230 net.cpp:91] Creating Layer ip2_ip2_0_split
I0401 16:36:20.964032 18230 net.cpp:435] ip2_ip2_0_split <- ip2
I0401 16:36:20.964036 18230 net.cpp:409] ip2_ip2_0_split -> ip2_ip2_0_split_0
I0401 16:36:20.964042 18230 net.cpp:409] ip2_ip2_0_split -> ip2_ip2_0_split_1
I0401 16:36:20.964078 18230 net.cpp:141] Setting up ip2_ip2_0_split
I0401 16:36:20.964084 18230 net.cpp:148] Top shape: 500 10 (5000)
I0401 16:36:20.964097 18230 net.cpp:148] Top shape: 500 10 (5000)
I0401 16:36:20.964099 18230 net.cpp:156] Memory required for data: 99314000
I0401 16:36:20.964107 18230 layer_factory.hpp:77] Creating layer accuracy
I0401 16:36:20.964112 18230 net.cpp:91] Creating Layer accuracy
I0401 16:36:20.964115 18230 net.cpp:435] accuracy <- ip2_ip2_0_split_0
I0401 16:36:20.964118 18230 net.cpp:435] accuracy <- label_mnist_1_split_0
I0401 16:36:20.964123 18230 net.cpp:409] accuracy -> accuracy
…
