…
I0405 17:01:04.250844  4555 net.cpp:323] The NetState phase (0) differed from the phase (1) specified by a rule in layer mnist
I0405 17:01:04.250869  4555 net.cpp:323] The NetState phase (0) differed from the phase (1) specified by a rule in layer accuracy
I0405 17:01:04.251003  4555 net.cpp:49] Initializing net from parameters: 
name: "LeNet"
state {
  phase: TRAIN
}
layer {
  name: "mnist"
  type: "Data"
  top: "data"
  top: "label"
  include {
    phase: TRAIN
  }
  transform_param {
    scale: 0.00390625
  }
  data_param {
    source: "/home/nikoong/Algorithm_test/handwritting/data/lmdb/progress/train_withnewfour_lmdb"
    batch_size: 10000
    backend: LMDB
  }
}
layer {
  name: "conv1"
  type: "Convolution"
  bottom: "data"
  top: "conv1"
  param {
    lr_mult: 1
  }
  param {
    lr_mult: 2
  }
  convolution_param {
    num_output: 20
    kernel_size: 5
    stride: 1
    weight_filler {
      type: "xavier"
    }
    bias_filler {
      type: "constant"
    }
  }
}
layer {
  name: "conv1_bn"
  type: "BN"
  bottom: "conv1"
  top: "conv1_bn"
  param {
    lr_mult: 0
    decay_mult: 0
  }
  param {
    lr_mult: 0
    decay_mult: 0
  }
  bn_param {
    slope_filler {
      type: "constant"
      value: 1
    }
    bias_filler {
      type: "constant"
      value: 0
    }
  }
}
layer {
  name: "relu1"
  type: "ReLU"
  bottom: "conv1_bn"
  top: "conv1_bn"
}
layer {
  name: "pool1"
  type: "Pooling"
  bottom: "conv1_bn"
  top: "pool1"
  pooling_param {
    pool: MAX
    kernel_size: 2
    stride: 2
  }
}
layer {
  name: "conv2"
  type: "Convolution"
  bottom: "pool1"
  top: "conv2"
  param {
    lr_mult: 1
  }
  param {
    lr_mult: 2
  }
  convolution_param {
    num_output: 50
    kernel_size: 5
    stride: 1
    weight_filler {
      type: "xavier"
    }
    bias_filler {
      type: "constant"
    }
  }
}
layer {
  name: "conv2_bn"
  type: "BN"
  bottom: "conv2"
  top: "conv2_bn"
  param {
    lr_mult: 0
    decay_mult: 0
  }
  param {
    lr_mult: 0
    decay_mult: 0
  }
  bn_param {
    slope_filler {
      type: "constant"
      value: 1
    }
    bias_filler {
      type: "constant"
      value: 0
    }
  }
}
layer {
  name: "relu2"
  type: "ReLU"
  bottom: "conv2_bn"
  top: "conv2_bn"
}
layer {
  name: "pool2"
  type: "Pooling"
  bottom: "conv2_bn"
  top: "pool2"
  pooling_param {
    pool: MAX
    kernel_size: 2
    stride: 2
  }
}
layer {
  name: "ip1"
  type: "InnerProduct"
  bottom: "pool2"
  top: "ip1"
  param {
    lr_mult: 1
  }
  param {
    lr_mult: 2
  }
  inner_product_param {
    num_output: 500
    weight_filler {
      type: "xavier"
    }
    bias_filler {
      type: "constant"
    }
  }
}
layer {
  name: "relu1"
  type: "ReLU"
  bottom: "ip1"
  top: "ip1"
}
layer {
  name: "ip2"
  type: "InnerProduct"
  bottom: "ip1"
  top: "ip2"
  param {
    lr_mult: 1
  }
  param {
    lr_mult: 2
  }
  inner_product_param {
    num_output: 10
    weight_filler {
      type: "xavier"
    }
    bias_filler {
      type: "constant"
    }
  }
}
layer {
  name: "loss"
  type: "WeightedSoftmaxWithLoss"
  bottom: "ip2"
  bottom: "label"
  top: "loss"
  weighted_softmax_param {
    origin_label_a: 6
    pre_label_a: 8
    weight_a: 2
  }
}
I0405 17:01:04.251077  4555 layer_factory.hpp:77] Creating layer mnist
I0405 17:01:04.255514  4555 net.cpp:91] Creating Layer mnist
I0405 17:01:04.255540  4555 net.cpp:409] mnist -> data
I0405 17:01:04.255579  4555 net.cpp:409] mnist -> label
I0405 17:01:04.256378  4561 db_lmdb.cpp:40] Opened lmdb /home/nikoong/Algorithm_test/handwritting/data/lmdb/progress/train_withnewfour_lmdb
I0405 17:01:04.279814  4555 data_layer.cpp:41] output data size: 10000,1,28,28
I0405 17:01:04.366403  4555 net.cpp:141] Setting up mnist
I0405 17:01:04.366446  4555 net.cpp:148] Top shape: 10000 1 28 28 (7840000)
I0405 17:01:04.366461  4555 net.cpp:148] Top shape: 10000 (10000)
I0405 17:01:04.366463  4555 net.cpp:156] Memory required for data: 31400000
I0405 17:01:04.366470  4555 layer_factory.hpp:77] Creating layer conv1
I0405 17:01:04.366493  4555 net.cpp:91] Creating Layer conv1
I0405 17:01:04.366508  4555 net.cpp:435] conv1 <- data
I0405 17:01:04.366518  4555 net.cpp:409] conv1 -> conv1
I0405 17:01:04.787192  4555 net.cpp:141] Setting up conv1
I0405 17:01:04.787216  4555 net.cpp:148] Top shape: 10000 20 24 24 (115200000)
I0405 17:01:04.787220  4555 net.cpp:156] Memory required for data: 492200000
I0405 17:01:04.787236  4555 layer_factory.hpp:77] Creating layer conv1_bn
I0405 17:01:04.787250  4555 layer_factory.cpp:265] Layer conv1_bn is using CAFFE engine.
I0405 17:01:04.787261  4555 net.cpp:91] Creating Layer conv1_bn
I0405 17:01:04.787264  4555 net.cpp:435] conv1_bn <- conv1
I0405 17:01:04.787271  4555 net.cpp:409] conv1_bn -> conv1_bn
I0405 17:01:04.787448  4555 net.cpp:141] Setting up conv1_bn
I0405 17:01:04.787456  4555 net.cpp:148] Top shape: 10000 20 24 24 (115200000)
I0405 17:01:04.787457  4555 net.cpp:156] Memory required for data: 953000000
I0405 17:01:04.787466  4555 layer_factory.hpp:77] Creating layer relu1
I0405 17:01:04.787470  4555 net.cpp:91] Creating Layer relu1
I0405 17:01:04.787472  4555 net.cpp:435] relu1 <- conv1_bn
I0405 17:01:04.787487  4555 net.cpp:396] relu1 -> conv1_bn (in-place)
I0405 17:01:04.787616  4555 net.cpp:141] Setting up relu1
I0405 17:01:04.787622  4555 net.cpp:148] Top shape: 10000 20 24 24 (115200000)
I0405 17:01:04.787626  4555 net.cpp:156] Memory required for data: 1413800000
I0405 17:01:04.787627  4555 layer_factory.hpp:77] Creating layer pool1
I0405 17:01:04.787636  4555 net.cpp:91] Creating Layer pool1
I0405 17:01:04.787637  4555 net.cpp:435] pool1 <- conv1_bn
I0405 17:01:04.787642  4555 net.cpp:409] pool1 -> pool1
I0405 17:01:04.787683  4555 net.cpp:141] Setting up pool1
I0405 17:01:04.787688  4555 net.cpp:148] Top shape: 10000 20 12 12 (28800000)
I0405 17:01:04.787699  4555 net.cpp:156] Memory required for data: 1529000000
I0405 17:01:04.787701  4555 layer_factory.hpp:77] Creating layer conv2
I0405 17:01:04.787709  4555 net.cpp:91] Creating Layer conv2
I0405 17:01:04.787713  4555 net.cpp:435] conv2 <- pool1
I0405 17:01:04.787715  4555 net.cpp:409] conv2 -> conv2
I0405 17:01:04.789762  4555 net.cpp:141] Setting up conv2
I0405 17:01:04.789772  4555 net.cpp:148] Top shape: 10000 50 8 8 (32000000)
I0405 17:01:04.789775  4555 net.cpp:156] Memory required for data: 1657000000
I0405 17:01:04.789782  4555 layer_factory.hpp:77] Creating layer conv2_bn
I0405 17:01:04.789784  4555 layer_factory.cpp:265] Layer conv2_bn is using CAFFE engine.
I0405 17:01:04.789789  4555 net.cpp:91] Creating Layer conv2_bn
I0405 17:01:04.789791  4555 net.cpp:435] conv2_bn <- conv2
I0405 17:01:04.789806  4555 net.cpp:409] conv2_bn -> conv2_bn
I0405 17:01:04.789966  4555 net.cpp:141] Setting up conv2_bn
I0405 17:01:04.789973  4555 net.cpp:148] Top shape: 10000 50 8 8 (32000000)
I0405 17:01:04.789975  4555 net.cpp:156] Memory required for data: 1785000000
I0405 17:01:04.789983  4555 layer_factory.hpp:77] Creating layer relu2
I0405 17:01:04.789988  4555 net.cpp:91] Creating Layer relu2
I0405 17:01:04.789999  4555 net.cpp:435] relu2 <- conv2_bn
I0405 17:01:04.790004  4555 net.cpp:396] relu2 -> conv2_bn (in-place)
I0405 17:01:04.790125  4555 net.cpp:141] Setting up relu2
I0405 17:01:04.790133  4555 net.cpp:148] Top shape: 10000 50 8 8 (32000000)
I0405 17:01:04.790135  4555 net.cpp:156] Memory required for data: 1913000000
I0405 17:01:04.790148  4555 layer_factory.hpp:77] Creating layer pool2
I0405 17:01:04.790154  4555 net.cpp:91] Creating Layer pool2
I0405 17:01:04.790169  4555 net.cpp:435] pool2 <- conv2_bn
I0405 17:01:04.790174  4555 net.cpp:409] pool2 -> pool2
I0405 17:01:04.790211  4555 net.cpp:141] Setting up pool2
I0405 17:01:04.790216  4555 net.cpp:148] Top shape: 10000 50 4 4 (8000000)
I0405 17:01:04.790220  4555 net.cpp:156] Memory required for data: 1945000000
I0405 17:01:04.790237  4555 layer_factory.hpp:77] Creating layer ip1
I0405 17:01:04.790253  4555 net.cpp:91] Creating Layer ip1
I0405 17:01:04.790256  4555 net.cpp:435] ip1 <- pool2
I0405 17:01:04.790261  4555 net.cpp:409] ip1 -> ip1
I0405 17:01:04.793529  4555 net.cpp:141] Setting up ip1
I0405 17:01:04.793540  4555 net.cpp:148] Top shape: 10000 500 (5000000)
I0405 17:01:04.793543  4555 net.cpp:156] Memory required for data: 1965000000
I0405 17:01:04.793548  4555 layer_factory.hpp:77] Creating layer relu1
I0405 17:01:04.793553  4555 net.cpp:91] Creating Layer relu1
I0405 17:01:04.793556  4555 net.cpp:435] relu1 <- ip1
I0405 17:01:04.793560  4555 net.cpp:396] relu1 -> ip1 (in-place)
I0405 17:01:04.794100  4555 net.cpp:141] Setting up relu1
I0405 17:01:04.794111  4555 net.cpp:148] Top shape: 10000 500 (5000000)
I0405 17:01:04.794113  4555 net.cpp:156] Memory required for data: 1985000000
I0405 17:01:04.794116  4555 layer_factory.hpp:77] Creating layer ip2
I0405 17:01:04.794122  4555 net.cpp:91] Creating Layer ip2
I0405 17:01:04.794124  4555 net.cpp:435] ip2 <- ip1
I0405 17:01:04.794129  4555 net.cpp:409] ip2 -> ip2
I0405 17:01:04.794286  4555 net.cpp:141] Setting up ip2
I0405 17:01:04.794302  4555 net.cpp:148] Top shape: 10000 10 (100000)
I0405 17:01:04.794304  4555 net.cpp:156] Memory required for data: 1985400000
I0405 17:01:04.794318  4555 layer_factory.hpp:77] Creating layer loss
I0405 17:01:04.794337  4555 net.cpp:91] Creating Layer loss
I0405 17:01:04.794340  4555 net.cpp:435] loss <- ip2
I0405 17:01:04.794343  4555 net.cpp:435] loss <- label
I0405 17:01:04.794358  4555 net.cpp:409] loss -> loss
I0405 17:01:04.794380  4555 layer_factory.hpp:77] Creating layer loss
…
I0405 17:01:04.794971  4555 solver.cpp:181] Creating test net (#0) specified by net file: /home/nikoong/Algorithm_test/handwritting/lenet/mul_net/lenet_bn_weighted.prototxt
I0405 17:01:04.794994  4555 net.cpp:323] The NetState phase (1) differed from the phase (0) specified by a rule in layer mnist
I0405 17:01:04.795125  4555 net.cpp:49] Initializing net from parameters: 
name: "LeNet"
state {
  phase: TEST
}
layer {
  name: "mnist"
  type: "Data"
  top: "data"
  top: "label"
  include {
    phase: TEST
  }
  transform_param {
    scale: 0.00390625
  }
  data_param {
    source: "/home/nikoong/Algorithm_test/handwritting/data/lmdb/progress/val_withnewfour_lmdb"
    batch_size: 500
    backend: LMDB
  }
}
layer {
  name: "conv1"
  type: "Convolution"
  bottom: "data"
  top: "conv1"
  param {
    lr_mult: 1
  }
  param {
    lr_mult: 2
  }
  convolution_param {
    num_output: 20
    kernel_size: 5
    stride: 1
    weight_filler {
      type: "xavier"
    }
    bias_filler {
      type: "constant"
    }
  }
}
layer {
  name: "conv1_bn"
  type: "BN"
  bottom: "conv1"
  top: "conv1_bn"
  param {
    lr_mult: 0
    decay_mult: 0
  }
  param {
    lr_mult: 0
    decay_mult: 0
  }
  bn_param {
    slope_filler {
      type: "constant"
      value: 1
    }
    bias_filler {
      type: "constant"
      value: 0
    }
  }
}
layer {
  name: "relu1"
  type: "ReLU"
  bottom: "conv1_bn"
  top: "conv1_bn"
}
layer {
  name: "pool1"
  type: "Pooling"
  bottom: "conv1_bn"
  top: "pool1"
  pooling_param {
    pool: MAX
    kernel_size: 2
    stride: 2
  }
}
layer {
  name: "conv2"
  type: "Convolution"
  bottom: "pool1"
  top: "conv2"
  param {
    lr_mult: 1
  }
  param {
    lr_mult: 2
  }
  convolution_param {
    num_output: 50
    kernel_size: 5
    stride: 1
    weight_filler {
      type: "xavier"
    }
    bias_filler {
      type: "constant"
    }
  }
}
layer {
  name: "conv2_bn"
  type: "BN"
  bottom: "conv2"
  top: "conv2_bn"
  param {
    lr_mult: 0
    decay_mult: 0
  }
  param {
    lr_mult: 0
    decay_mult: 0
  }
  bn_param {
    slope_filler {
      type: "constant"
      value: 1
    }
    bias_filler {
      type: "constant"
      value: 0
    }
  }
}
layer {
  name: "relu2"
  type: "ReLU"
  bottom: "conv2_bn"
  top: "conv2_bn"
}
layer {
  name: "pool2"
  type: "Pooling"
  bottom: "conv2_bn"
  top: "pool2"
  pooling_param {
    pool: MAX
    kernel_size: 2
    stride: 2
  }
}
layer {
  name: "ip1"
  type: "InnerProduct"
  bottom: "pool2"
  top: "ip1"
  param {
    lr_mult: 1
  }
  param {
    lr_mult: 2
  }
  inner_product_param {
    num_output: 500
    weight_filler {
      type: "xavier"
    }
    bias_filler {
      type: "constant"
    }
  }
}
layer {
  name: "relu1"
  type: "ReLU"
  bottom: "ip1"
  top: "ip1"
}
layer {
  name: "ip2"
  type: "InnerProduct"
  bottom: "ip1"
  top: "ip2"
  param {
    lr_mult: 1
  }
  param {
    lr_mult: 2
  }
  inner_product_param {
    num_output: 10
    weight_filler {
      type: "xavier"
    }
    bias_filler {
      type: "constant"
    }
  }
}
layer {
  name: "accuracy"
  type: "Accuracy"
  bottom: "ip2"
  bottom: "label"
  top: "accuracy"
  include {
    phase: TEST
  }
}
layer {
  name: "loss"
  type: "WeightedSoftmaxWithLoss"
  bottom: "ip2"
  bottom: "label"
  top: "loss"
  weighted_softmax_param {
    origin_label_a: 6
    pre_label_a: 8
    weight_a: 2
  }
}
I0405 17:01:04.795197  4555 layer_factory.hpp:77] Creating layer mnist
I0405 17:01:04.795414  4555 net.cpp:91] Creating Layer mnist
I0405 17:01:04.795430  4555 net.cpp:409] mnist -> data
I0405 17:01:04.795438  4555 net.cpp:409] mnist -> label
I0405 17:01:04.796164  4563 db_lmdb.cpp:40] Opened lmdb /home/nikoong/Algorithm_test/handwritting/data/lmdb/progress/val_withnewfour_lmdb
I0405 17:01:04.796291  4555 data_layer.cpp:41] output data size: 500,1,28,28
I0405 17:01:04.803849  4555 net.cpp:141] Setting up mnist
I0405 17:01:04.803880  4555 net.cpp:148] Top shape: 500 1 28 28 (392000)
I0405 17:01:04.803885  4555 net.cpp:148] Top shape: 500 (500)
I0405 17:01:04.803889  4555 net.cpp:156] Memory required for data: 1570000
I0405 17:01:04.803894  4555 layer_factory.hpp:77] Creating layer label_mnist_1_split
I0405 17:01:04.803913  4555 net.cpp:91] Creating Layer label_mnist_1_split
I0405 17:01:04.803916  4555 net.cpp:435] label_mnist_1_split <- label
I0405 17:01:04.803922  4555 net.cpp:409] label_mnist_1_split -> label_mnist_1_split_0
I0405 17:01:04.803931  4555 net.cpp:409] label_mnist_1_split -> label_mnist_1_split_1
I0405 17:01:04.804002  4555 net.cpp:141] Setting up label_mnist_1_split
I0405 17:01:04.804008  4555 net.cpp:148] Top shape: 500 (500)
I0405 17:01:04.804021  4555 net.cpp:148] Top shape: 500 (500)
I0405 17:01:04.804023  4555 net.cpp:156] Memory required for data: 1574000
I0405 17:01:04.804049  4555 layer_factory.hpp:77] Creating layer conv1
I0405 17:01:04.804059  4555 net.cpp:91] Creating Layer conv1
I0405 17:01:04.804062  4555 net.cpp:435] conv1 <- data
I0405 17:01:04.804067  4555 net.cpp:409] conv1 -> conv1
I0405 17:01:04.806099  4555 net.cpp:141] Setting up conv1
I0405 17:01:04.806124  4555 net.cpp:148] Top shape: 500 20 24 24 (5760000)
I0405 17:01:04.806128  4555 net.cpp:156] Memory required for data: 24614000
I0405 17:01:04.806136  4555 layer_factory.hpp:77] Creating layer conv1_bn
I0405 17:01:04.806141  4555 layer_factory.cpp:265] Layer conv1_bn is using CAFFE engine.
I0405 17:01:04.806149  4555 net.cpp:91] Creating Layer conv1_bn
I0405 17:01:04.806154  4555 net.cpp:435] conv1_bn <- conv1
I0405 17:01:04.806159  4555 net.cpp:409] conv1_bn -> conv1_bn
I0405 17:01:04.806332  4555 net.cpp:141] Setting up conv1_bn
I0405 17:01:04.806346  4555 net.cpp:148] Top shape: 500 20 24 24 (5760000)
I0405 17:01:04.806360  4555 net.cpp:156] Memory required for data: 47654000
I0405 17:01:04.806370  4555 layer_factory.hpp:77] Creating layer relu1
I0405 17:01:04.806375  4555 net.cpp:91] Creating Layer relu1
I0405 17:01:04.806378  4555 net.cpp:435] relu1 <- conv1_bn
I0405 17:01:04.806381  4555 net.cpp:396] relu1 -> conv1_bn (in-place)
I0405 17:01:04.806522  4555 net.cpp:141] Setting up relu1
I0405 17:01:04.806532  4555 net.cpp:148] Top shape: 500 20 24 24 (5760000)
I0405 17:01:04.806545  4555 net.cpp:156] Memory required for data: 70694000
I0405 17:01:04.806547  4555 layer_factory.hpp:77] Creating layer pool1
I0405 17:01:04.806555  4555 net.cpp:91] Creating Layer pool1
I0405 17:01:04.806558  4555 net.cpp:435] pool1 <- conv1_bn
I0405 17:01:04.806573  4555 net.cpp:409] pool1 -> pool1
I0405 17:01:04.806617  4555 net.cpp:141] Setting up pool1
I0405 17:01:04.806622  4555 net.cpp:148] Top shape: 500 20 12 12 (1440000)
I0405 17:01:04.806637  4555 net.cpp:156] Memory required for data: 76454000
I0405 17:01:04.806639  4555 layer_factory.hpp:77] Creating layer conv2
I0405 17:01:04.806646  4555 net.cpp:91] Creating Layer conv2
I0405 17:01:04.806656  4555 net.cpp:435] conv2 <- pool1
I0405 17:01:04.806661  4555 net.cpp:409] conv2 -> conv2
I0405 17:01:04.807802  4555 net.cpp:141] Setting up conv2
I0405 17:01:04.807821  4555 net.cpp:148] Top shape: 500 50 8 8 (1600000)
I0405 17:01:04.807834  4555 net.cpp:156] Memory required for data: 82854000
I0405 17:01:04.807840  4555 layer_factory.hpp:77] Creating layer conv2_bn
I0405 17:01:04.807844  4555 layer_factory.cpp:265] Layer conv2_bn is using CAFFE engine.
I0405 17:01:04.807855  4555 net.cpp:91] Creating Layer conv2_bn
I0405 17:01:04.807858  4555 net.cpp:435] conv2_bn <- conv2
I0405 17:01:04.807868  4555 net.cpp:409] conv2_bn -> conv2_bn
I0405 17:01:04.808033  4555 net.cpp:141] Setting up conv2_bn
I0405 17:01:04.808043  4555 net.cpp:148] Top shape: 500 50 8 8 (1600000)
I0405 17:01:04.808058  4555 net.cpp:156] Memory required for data: 89254000
I0405 17:01:04.808070  4555 layer_factory.hpp:77] Creating layer relu2
I0405 17:01:04.808078  4555 net.cpp:91] Creating Layer relu2
I0405 17:01:04.808089  4555 net.cpp:435] relu2 <- conv2_bn
I0405 17:01:04.808094  4555 net.cpp:396] relu2 -> conv2_bn (in-place)
I0405 17:01:04.808220  4555 net.cpp:141] Setting up relu2
I0405 17:01:04.808228  4555 net.cpp:148] Top shape: 500 50 8 8 (1600000)
I0405 17:01:04.808240  4555 net.cpp:156] Memory required for data: 95654000
I0405 17:01:04.808243  4555 layer_factory.hpp:77] Creating layer pool2
I0405 17:01:04.808248  4555 net.cpp:91] Creating Layer pool2
I0405 17:01:04.808251  4555 net.cpp:435] pool2 <- conv2_bn
I0405 17:01:04.808255  4555 net.cpp:409] pool2 -> pool2
I0405 17:01:04.808286  4555 net.cpp:141] Setting up pool2
I0405 17:01:04.808312  4555 net.cpp:148] Top shape: 500 50 4 4 (400000)
I0405 17:01:04.808318  4555 net.cpp:156] Memory required for data: 97254000
I0405 17:01:04.808321  4555 layer_factory.hpp:77] Creating layer ip1
I0405 17:01:04.808328  4555 net.cpp:91] Creating Layer ip1
I0405 17:01:04.808333  4555 net.cpp:435] ip1 <- pool2
I0405 17:01:04.808338  4555 net.cpp:409] ip1 -> ip1
I0405 17:01:04.811810  4555 net.cpp:141] Setting up ip1
I0405 17:01:04.811825  4555 net.cpp:148] Top shape: 500 500 (250000)
I0405 17:01:04.811828  4555 net.cpp:156] Memory required for data: 98254000
I0405 17:01:04.811842  4555 layer_factory.hpp:77] Creating layer relu1
I0405 17:01:04.811852  4555 net.cpp:91] Creating Layer relu1
I0405 17:01:04.811857  4555 net.cpp:435] relu1 <- ip1
I0405 17:01:04.811862  4555 net.cpp:396] relu1 -> ip1 (in-place)
I0405 17:01:04.812441  4555 net.cpp:141] Setting up relu1
I0405 17:01:04.812453  4555 net.cpp:148] Top shape: 500 500 (250000)
I0405 17:01:04.812467  4555 net.cpp:156] Memory required for data: 99254000
I0405 17:01:04.812470  4555 layer_factory.hpp:77] Creating layer ip2
I0405 17:01:04.812479  4555 net.cpp:91] Creating Layer ip2
I0405 17:01:04.812489  4555 net.cpp:435] ip2 <- ip1
I0405 17:01:04.812494  4555 net.cpp:409] ip2 -> ip2
I0405 17:01:04.812625  4555 net.cpp:141] Setting up ip2
I0405 17:01:04.812630  4555 net.cpp:148] Top shape: 500 10 (5000)
I0405 17:01:04.812643  4555 net.cpp:156] Memory required for data: 99274000
I0405 17:01:04.812650  4555 layer_factory.hpp:77] Creating layer ip2_ip2_0_split
I0405 17:01:04.812656  4555 net.cpp:91] Creating Layer ip2_ip2_0_split
I0405 17:01:04.812659  4555 net.cpp:435] ip2_ip2_0_split <- ip2
I0405 17:01:04.812665  4555 net.cpp:409] ip2_ip2_0_split -> ip2_ip2_0_split_0
I0405 17:01:04.812676  4555 net.cpp:409] ip2_ip2_0_split -> ip2_ip2_0_split_1
I0405 17:01:04.812711  4555 net.cpp:141] Setting up ip2_ip2_0_split
I0405 17:01:04.812719  4555 net.cpp:148] Top shape: 500 10 (5000)
I0405 17:01:04.812733  4555 net.cpp:148] Top shape: 500 10 (5000)
I0405 17:01:04.812739  4555 net.cpp:156] Memory required for data: 99314000
I0405 17:01:04.812741  4555 layer_factory.hpp:77] Creating layer accuracy
I0405 17:01:04.812748  4555 net.cpp:91] Creating Layer accuracy
I0405 17:01:04.812753  4555 net.cpp:435] accuracy <- ip2_ip2_0_split_0
I0405 17:01:04.812757  4555 net.cpp:435] accuracy <- label_mnist_1_split_0
I0405 17:01:04.812760  4555 net.cpp:409] accuracy -> accuracy
…
