…
I0315 09:43:44.225154 13154 net.cpp:323] The NetState phase (0) differed from the phase (1) specified by a rule in layer accuracy
I0315 09:43:44.225231 13154 net.cpp:49] Initializing net from parameters: 
state {
  phase: TRAIN
}
layer {
  name: "data"
  type: "ImageData"
  top: "data"
  top: "label"
  include {
    phase: TRAIN
  }
  image_data_param {
    source: "/home/nikoong/Algorithm_test/handwritting/data_crop/txt/data2_28*28.txt"
    scale: 0.00390625
    batch_size: 10000
    shuffle: true
    new_height: 28
    new_width: 28
    is_color: false
  }
}
layer {
  name: "conv1"
  type: "Convolution"
  bottom: "data"
  top: "conv1"
  param {
    lr_mult: 1
  }
  param {
    lr_mult: 2
  }
  convolution_param {
    num_output: 20
    kernel_size: 5
    stride: 1
    weight_filler {
      type: "xavier"
    }
    bias_filler {
      type: "constant"
    }
  }
}
layer {
  name: "pool1"
  type: "Pooling"
  bottom: "conv1"
  top: "pool1"
  pooling_param {
    pool: MAX
    kernel_size: 2
    stride: 2
  }
}
layer {
  name: "conv2"
  type: "Convolution"
  bottom: "pool1"
  top: "conv2"
  param {
    lr_mult: 1
  }
  param {
    lr_mult: 2
  }
  convolution_param {
    num_output: 50
    kernel_size: 5
    stride: 1
    weight_filler {
      type: "xavier"
    }
    bias_filler {
      type: "constant"
    }
  }
}
layer {
  name: "pool2"
  type: "Pooling"
  bottom: "conv2"
  top: "pool2"
  pooling_param {
    pool: MAX
    kernel_size: 2
    stride: 2
  }
}
layer {
  name: "ip1"
  type: "InnerProduct"
  bottom: "pool2"
  top: "ip1"
  param {
    lr_mult: 1
  }
  param {
    lr_mult: 2
  }
  inner_product_param {
    num_output: 500
    weight_filler {
      type: "xavier"
    }
    bias_filler {
      type: "constant"
    }
  }
}
layer {
  name: "relu1"
  type: "ReLU"
  bottom: "ip1"
  top: "ip1"
}
layer {
  name: "ip2"
  type: "InnerProduct"
  bottom: "ip1"
  top: "ip2"
  param {
    lr_mult: 1
  }
  param {
    lr_mult: 2
  }
  inner_product_param {
    num_output: 10
    weight_filler {
      type: "xavier"
    }
    bias_filler {
      type: "constant"
    }
  }
}
layer {
  name: "loss"
  type: "SoftmaxWithLoss"
  bottom: "ip2"
  bottom: "label"
  top: "loss"
}
I0315 09:43:44.225276 13154 layer_factory.hpp:77] Creating layer data
I0315 09:43:44.225311 13154 net.cpp:91] Creating Layer data
I0315 09:43:44.225316 13154 net.cpp:409] data -> data
I0315 09:43:44.225347 13154 net.cpp:409] data -> label
I0315 09:43:44.225360 13154 image_data_layer.cpp:37] Opening file /home/nikoong/Algorithm_test/handwritting/data_crop/txt/data2_28*28.txt
I0315 09:43:44.251945 13154 image_data_layer.cpp:47] Shuffling data
I0315 09:43:44.267993 13154 image_data_layer.cpp:52] A total of 88301 images.
I0315 09:43:44.387565 13154 image_data_layer.cpp:79] output data size: 10000,1,28,28
I0315 09:43:44.473682 13154 net.cpp:141] Setting up data
I0315 09:43:44.473742 13154 net.cpp:148] Top shape: 10000 1 28 28 (7840000)
I0315 09:43:44.473748 13154 net.cpp:148] Top shape: 10000 (10000)
I0315 09:43:44.473752 13154 net.cpp:156] Memory required for data: 31400000
I0315 09:43:44.473758 13154 layer_factory.hpp:77] Creating layer conv1
I0315 09:43:44.473780 13154 net.cpp:91] Creating Layer conv1
I0315 09:43:44.473788 13154 net.cpp:435] conv1 <- data
I0315 09:43:44.473798 13154 net.cpp:409] conv1 -> conv1
I0315 09:43:44.823166 13154 net.cpp:141] Setting up conv1
I0315 09:43:44.823196 13154 net.cpp:148] Top shape: 10000 20 24 24 (115200000)
I0315 09:43:44.823200 13154 net.cpp:156] Memory required for data: 492200000
I0315 09:43:44.823226 13154 layer_factory.hpp:77] Creating layer pool1
I0315 09:43:44.823238 13154 net.cpp:91] Creating Layer pool1
I0315 09:43:44.823242 13154 net.cpp:435] pool1 <- conv1
I0315 09:43:44.823249 13154 net.cpp:409] pool1 -> pool1
I0315 09:43:44.823287 13154 net.cpp:141] Setting up pool1
I0315 09:43:44.823293 13154 net.cpp:148] Top shape: 10000 20 12 12 (28800000)
I0315 09:43:44.823304 13154 net.cpp:156] Memory required for data: 607400000
I0315 09:43:44.823307 13154 layer_factory.hpp:77] Creating layer conv2
I0315 09:43:44.823318 13154 net.cpp:91] Creating Layer conv2
I0315 09:43:44.823319 13154 net.cpp:435] conv2 <- pool1
I0315 09:43:44.823324 13154 net.cpp:409] conv2 -> conv2
I0315 09:43:44.825697 13154 net.cpp:141] Setting up conv2
I0315 09:43:44.825721 13154 net.cpp:148] Top shape: 10000 50 8 8 (32000000)
I0315 09:43:44.825723 13154 net.cpp:156] Memory required for data: 735400000
I0315 09:43:44.825732 13154 layer_factory.hpp:77] Creating layer pool2
I0315 09:43:44.825739 13154 net.cpp:91] Creating Layer pool2
I0315 09:43:44.825742 13154 net.cpp:435] pool2 <- conv2
I0315 09:43:44.825747 13154 net.cpp:409] pool2 -> pool2
I0315 09:43:44.825778 13154 net.cpp:141] Setting up pool2
I0315 09:43:44.825806 13154 net.cpp:148] Top shape: 10000 50 4 4 (8000000)
I0315 09:43:44.825812 13154 net.cpp:156] Memory required for data: 767400000
I0315 09:43:44.825814 13154 layer_factory.hpp:77] Creating layer ip1
I0315 09:43:44.825822 13154 net.cpp:91] Creating Layer ip1
I0315 09:43:44.825824 13154 net.cpp:435] ip1 <- pool2
I0315 09:43:44.825839 13154 net.cpp:409] ip1 -> ip1
I0315 09:43:44.829295 13154 net.cpp:141] Setting up ip1
I0315 09:43:44.829316 13154 net.cpp:148] Top shape: 10000 500 (5000000)
I0315 09:43:44.829320 13154 net.cpp:156] Memory required for data: 787400000
I0315 09:43:44.829327 13154 layer_factory.hpp:77] Creating layer relu1
I0315 09:43:44.829349 13154 net.cpp:91] Creating Layer relu1
I0315 09:43:44.829352 13154 net.cpp:435] relu1 <- ip1
I0315 09:43:44.829357 13154 net.cpp:396] relu1 -> ip1 (in-place)
I0315 09:43:44.829511 13154 net.cpp:141] Setting up relu1
I0315 09:43:44.829519 13154 net.cpp:148] Top shape: 10000 500 (5000000)
I0315 09:43:44.829531 13154 net.cpp:156] Memory required for data: 807400000
I0315 09:43:44.829533 13154 layer_factory.hpp:77] Creating layer ip2
I0315 09:43:44.829540 13154 net.cpp:91] Creating Layer ip2
I0315 09:43:44.829551 13154 net.cpp:435] ip2 <- ip1
I0315 09:43:44.829556 13154 net.cpp:409] ip2 -> ip2
I0315 09:43:44.829692 13154 net.cpp:141] Setting up ip2
I0315 09:43:44.829699 13154 net.cpp:148] Top shape: 10000 10 (100000)
I0315 09:43:44.829711 13154 net.cpp:156] Memory required for data: 807800000
I0315 09:43:44.829716 13154 layer_factory.hpp:77] Creating layer loss
I0315 09:43:44.829746 13154 net.cpp:91] Creating Layer loss
I0315 09:43:44.829751 13154 net.cpp:435] loss <- ip2
I0315 09:43:44.829754 13154 net.cpp:435] loss <- label
I0315 09:43:44.829759 13154 net.cpp:409] loss -> loss
I0315 09:43:44.829773 13154 layer_factory.hpp:77] Creating layer loss
…
I0315 09:43:44.830337 13154 solver.cpp:181] Creating test net (#0) specified by net file: /home/nikoong/Algorithm_test/handwritting/lenet/lenet_my.prototxt
I0315 09:43:44.830368 13154 net.cpp:323] The NetState phase (1) differed from the phase (0) specified by a rule in layer data
I0315 09:43:44.830471 13154 net.cpp:49] Initializing net from parameters: 
state {
  phase: TEST
}
layer {
  name: "data"
  type: "ImageData"
  top: "data"
  top: "label"
  include {
    phase: TEST
  }
  image_data_param {
    source: "/home/nikoong/Algorithm_test/handwritting/data_crop/txt/data1_28*28.txt"
    batch_size: 100
    new_height: 28
    new_width: 28
    is_color: false
  }
}
layer {
  name: "conv1"
  type: "Convolution"
  bottom: "data"
  top: "conv1"
  param {
    lr_mult: 1
  }
  param {
    lr_mult: 2
  }
  convolution_param {
    num_output: 20
    kernel_size: 5
    stride: 1
    weight_filler {
      type: "xavier"
    }
    bias_filler {
      type: "constant"
    }
  }
}
layer {
  name: "pool1"
  type: "Pooling"
  bottom: "conv1"
  top: "pool1"
  pooling_param {
    pool: MAX
    kernel_size: 2
    stride: 2
  }
}
layer {
  name: "conv2"
  type: "Convolution"
  bottom: "pool1"
  top: "conv2"
  param {
    lr_mult: 1
  }
  param {
    lr_mult: 2
  }
  convolution_param {
    num_output: 50
    kernel_size: 5
    stride: 1
    weight_filler {
      type: "xavier"
    }
    bias_filler {
      type: "constant"
    }
  }
}
layer {
  name: "pool2"
  type: "Pooling"
  bottom: "conv2"
  top: "pool2"
  pooling_param {
    pool: MAX
    kernel_size: 2
    stride: 2
  }
}
layer {
  name: "ip1"
  type: "InnerProduct"
  bottom: "pool2"
  top: "ip1"
  param {
    lr_mult: 1
  }
  param {
    lr_mult: 2
  }
  inner_product_param {
    num_output: 500
    weight_filler {
      type: "xavier"
    }
    bias_filler {
      type: "constant"
    }
  }
}
layer {
  name: "relu1"
  type: "ReLU"
  bottom: "ip1"
  top: "ip1"
}
layer {
  name: "ip2"
  type: "InnerProduct"
  bottom: "ip1"
  top: "ip2"
  param {
    lr_mult: 1
  }
  param {
    lr_mult: 2
  }
  inner_product_param {
    num_output: 10
    weight_filler {
      type: "xavier"
    }
    bias_filler {
      type: "constant"
    }
  }
}
layer {
  name: "accuracy"
  type: "Accuracy"
  bottom: "ip2"
  bottom: "label"
  top: "accuracy"
  include {
    phase: TEST
  }
}
layer {
  name: "loss"
  type: "SoftmaxWithLoss"
  bottom: "ip2"
  bottom: "label"
  top: "loss"
}
I0315 09:43:44.830538 13154 layer_factory.hpp:77] Creating layer data
I0315 09:43:44.830549 13154 net.cpp:91] Creating Layer data
I0315 09:43:44.830556 13154 net.cpp:409] data -> data
I0315 09:43:44.830562 13154 net.cpp:409] data -> label
I0315 09:43:44.830569 13154 image_data_layer.cpp:37] Opening file /home/nikoong/Algorithm_test/handwritting/data_crop/txt/data1_28*28.txt
I0315 09:43:44.833804 13154 image_data_layer.cpp:52] A total of 11430 images.
I0315 09:43:44.833963 13154 image_data_layer.cpp:79] output data size: 100,1,28,28
I0315 09:43:44.836375 13154 net.cpp:141] Setting up data
I0315 09:43:44.836475 13154 net.cpp:148] Top shape: 100 1 28 28 (78400)
I0315 09:43:44.836493 13154 net.cpp:148] Top shape: 100 (100)
I0315 09:43:44.836504 13154 net.cpp:156] Memory required for data: 314000
I0315 09:43:44.836519 13154 layer_factory.hpp:77] Creating layer label_data_1_split
I0315 09:43:44.836536 13154 net.cpp:91] Creating Layer label_data_1_split
I0315 09:43:44.836549 13154 net.cpp:435] label_data_1_split <- label
I0315 09:43:44.836563 13154 net.cpp:409] label_data_1_split -> label_data_1_split_0
I0315 09:43:44.836581 13154 net.cpp:409] label_data_1_split -> label_data_1_split_1
I0315 09:43:44.836630 13154 net.cpp:141] Setting up label_data_1_split
I0315 09:43:44.836647 13154 net.cpp:148] Top shape: 100 (100)
I0315 09:43:44.836664 13154 net.cpp:148] Top shape: 100 (100)
I0315 09:43:44.836685 13154 net.cpp:156] Memory required for data: 314800
I0315 09:43:44.836696 13154 layer_factory.hpp:77] Creating layer conv1
I0315 09:43:44.836716 13154 net.cpp:91] Creating Layer conv1
I0315 09:43:44.836727 13154 net.cpp:435] conv1 <- data
I0315 09:43:44.836741 13154 net.cpp:409] conv1 -> conv1
I0315 09:43:44.838305 13154 net.cpp:141] Setting up conv1
I0315 09:43:44.838318 13154 net.cpp:148] Top shape: 100 20 24 24 (1152000)
I0315 09:43:44.838321 13154 net.cpp:156] Memory required for data: 4922800
I0315 09:43:44.838331 13154 layer_factory.hpp:77] Creating layer pool1
I0315 09:43:44.838338 13154 net.cpp:91] Creating Layer pool1
I0315 09:43:44.838341 13154 net.cpp:435] pool1 <- conv1
I0315 09:43:44.838346 13154 net.cpp:409] pool1 -> pool1
I0315 09:43:44.838387 13154 net.cpp:141] Setting up pool1
I0315 09:43:44.838398 13154 net.cpp:148] Top shape: 100 20 12 12 (288000)
I0315 09:43:44.838410 13154 net.cpp:156] Memory required for data: 6074800
I0315 09:43:44.838413 13154 layer_factory.hpp:77] Creating layer conv2
I0315 09:43:44.838421 13154 net.cpp:91] Creating Layer conv2
I0315 09:43:44.838424 13154 net.cpp:435] conv2 <- pool1
I0315 09:43:44.838429 13154 net.cpp:409] conv2 -> conv2
I0315 09:43:44.839771 13154 net.cpp:141] Setting up conv2
I0315 09:43:44.839783 13154 net.cpp:148] Top shape: 100 50 8 8 (320000)
I0315 09:43:44.839787 13154 net.cpp:156] Memory required for data: 7354800
I0315 09:43:44.839793 13154 layer_factory.hpp:77] Creating layer pool2
I0315 09:43:44.839807 13154 net.cpp:91] Creating Layer pool2
I0315 09:43:44.839809 13154 net.cpp:435] pool2 <- conv2
I0315 09:43:44.839866 13154 net.cpp:409] pool2 -> pool2
I0315 09:43:44.839929 13154 net.cpp:141] Setting up pool2
I0315 09:43:44.839953 13154 net.cpp:148] Top shape: 100 50 4 4 (80000)
I0315 09:43:44.839962 13154 net.cpp:156] Memory required for data: 7674800
I0315 09:43:44.839980 13154 layer_factory.hpp:77] Creating layer ip1
I0315 09:43:44.840004 13154 net.cpp:91] Creating Layer ip1
I0315 09:43:44.840010 13154 net.cpp:435] ip1 <- pool2
I0315 09:43:44.840015 13154 net.cpp:409] ip1 -> ip1
I0315 09:43:44.843732 13154 net.cpp:141] Setting up ip1
I0315 09:43:44.843746 13154 net.cpp:148] Top shape: 100 500 (50000)
I0315 09:43:44.843750 13154 net.cpp:156] Memory required for data: 7874800
I0315 09:43:44.843757 13154 layer_factory.hpp:77] Creating layer relu1
I0315 09:43:44.843768 13154 net.cpp:91] Creating Layer relu1
I0315 09:43:44.843775 13154 net.cpp:435] relu1 <- ip1
I0315 09:43:44.843780 13154 net.cpp:396] relu1 -> ip1 (in-place)
I0315 09:43:44.844678 13154 net.cpp:141] Setting up relu1
I0315 09:43:44.844691 13154 net.cpp:148] Top shape: 100 500 (50000)
I0315 09:43:44.844705 13154 net.cpp:156] Memory required for data: 8074800
I0315 09:43:44.844708 13154 layer_factory.hpp:77] Creating layer ip2
I0315 09:43:44.844723 13154 net.cpp:91] Creating Layer ip2
I0315 09:43:44.844727 13154 net.cpp:435] ip2 <- ip1
I0315 09:43:44.844736 13154 net.cpp:409] ip2 -> ip2
I0315 09:43:44.844884 13154 net.cpp:141] Setting up ip2
I0315 09:43:44.844895 13154 net.cpp:148] Top shape: 100 10 (1000)
I0315 09:43:44.844900 13154 net.cpp:156] Memory required for data: 8078800
I0315 09:43:44.844905 13154 layer_factory.hpp:77] Creating layer ip2_ip2_0_split
I0315 09:43:44.844910 13154 net.cpp:91] Creating Layer ip2_ip2_0_split
I0315 09:43:44.844913 13154 net.cpp:435] ip2_ip2_0_split <- ip2
I0315 09:43:44.844918 13154 net.cpp:409] ip2_ip2_0_split -> ip2_ip2_0_split_0
I0315 09:43:44.844923 13154 net.cpp:409] ip2_ip2_0_split -> ip2_ip2_0_split_1
I0315 09:43:44.844962 13154 net.cpp:141] Setting up ip2_ip2_0_split
I0315 09:43:44.844969 13154 net.cpp:148] Top shape: 100 10 (1000)
I0315 09:43:44.844972 13154 net.cpp:148] Top shape: 100 10 (1000)
I0315 09:43:44.844974 13154 net.cpp:156] Memory required for data: 8086800
I0315 09:43:44.844977 13154 layer_factory.hpp:77] Creating layer accuracy
I0315 09:43:44.845015 13154 net.cpp:91] Creating Layer accuracy
I0315 09:43:44.845021 13154 net.cpp:435] accuracy <- ip2_ip2_0_split_0
I0315 09:43:44.845023 13154 net.cpp:435] accuracy <- label_data_1_split_0
I0315 09:43:44.845041 13154 net.cpp:409] accuracy -> accuracy
…
