…
I0314 12:43:01.489140 19116 net.cpp:323] The NetState phase (0) differed from the phase (1) specified by a rule in layer data
I0314 12:43:01.489154 19116 net.cpp:323] The NetState phase (0) differed from the phase (1) specified by a rule in layer accuracy
I0314 12:43:01.489243 19116 net.cpp:49] Initializing net from parameters: 
state {
  phase: TRAIN
}
layer {
  name: "data"
  type: "ImageData"
  top: "data"
  top: "label"
  include {
    phase: TRAIN
  }
  image_data_param {
    source: "/home/nikoong/Algorithm_test/handwritting/data_crop/data2_cut_inverse.txt"
    batch_size: 5000
    new_height: 28
    new_width: 28
    is_color: false
  }
}
layer {
  name: "conv1"
  type: "Convolution"
  bottom: "data"
  top: "conv1"
  param {
    lr_mult: 1
  }
  param {
    lr_mult: 2
  }
  convolution_param {
    num_output: 20
    kernel_size: 5
    stride: 1
    weight_filler {
      type: "xavier"
    }
    bias_filler {
      type: "constant"
    }
  }
}
layer {
  name: "pool1"
  type: "Pooling"
  bottom: "conv1"
  top: "pool1"
  pooling_param {
    pool: MAX
    kernel_size: 2
    stride: 2
  }
}
layer {
  name: "conv2"
  type: "Convolution"
  bottom: "pool1"
  top: "conv2"
  param {
    lr_mult: 1
  }
  param {
    lr_mult: 2
  }
  convolution_param {
    num_output: 50
    kernel_size: 5
    stride: 1
    weight_filler {
      type: "xavier"
    }
    bias_filler {
      type: "constant"
    }
  }
}
layer {
  name: "pool2"
  type: "Pooling"
  bottom: "conv2"
  top: "pool2"
  pooling_param {
    pool: MAX
    kernel_size: 2
    stride: 2
  }
}
layer {
  name: "ip1"
  type: "InnerProduct"
  bottom: "pool2"
  top: "ip1"
  param {
    lr_mult: 1
  }
  param {
    lr_mult: 2
  }
  inner_product_param {
    num_output: 500
    weight_filler {
      type: "xavier"
    }
    bias_filler {
      type: "constant"
    }
  }
}
layer {
  name: "relu1"
  type: "ReLU"
  bottom: "ip1"
  top: "ip1"
}
layer {
  name: "ip_add"
  type: "InnerProduct"
  bottom: "ip1"
  top: "ip_add"
  param {
    lr_mult: 1
  }
  param {
    lr_mult: 2
  }
  inner_product_param {
    num_output: 500
    weight_filler {
      type: "xavier"
    }
    bias_filler {
      type: "constant"
    }
  }
}
layer {
  name: "relu1"
  type: "ReLU"
  bottom: "ip_add"
  top: "ip_add"
}
layer {
  name: "ip2"
  type: "InnerProduct"
  bottom: "ip_add"
  top: "ip2"
  param {
    lr_mult: 1
  }
  param {
    lr_mult: 2
  }
  inner_product_param {
    num_output: 10
    weight_filler {
      type: "xavier"
    }
    bias_filler {
      type: "constant"
    }
  }
}
layer {
  name: "loss"
  type: "SoftmaxWithLoss"
  bottom: "ip2"
  bottom: "label"
  top: "loss"
}
I0314 12:43:01.489295 19116 layer_factory.hpp:77] Creating layer data
I0314 12:43:01.489328 19116 net.cpp:91] Creating Layer data
I0314 12:43:01.489334 19116 net.cpp:409] data -> data
I0314 12:43:01.489364 19116 net.cpp:409] data -> label
I0314 12:43:01.489375 19116 image_data_layer.cpp:37] Opening file /home/nikoong/Algorithm_test/handwritting/data_crop/data2_cut_inverse.txt
I0314 12:43:01.516855 19116 image_data_layer.cpp:52] A total of 88401 images.
I0314 12:43:01.638561 19116 image_data_layer.cpp:79] output data size: 5000,1,28,28
I0314 12:43:01.685189 19116 net.cpp:141] Setting up data
I0314 12:43:01.685235 19116 net.cpp:148] Top shape: 5000 1 28 28 (3920000)
I0314 12:43:01.685240 19116 net.cpp:148] Top shape: 5000 (5000)
I0314 12:43:01.685241 19116 net.cpp:156] Memory required for data: 15700000
I0314 12:43:01.685262 19116 layer_factory.hpp:77] Creating layer conv1
I0314 12:43:01.685286 19116 net.cpp:91] Creating Layer conv1
I0314 12:43:01.685292 19116 net.cpp:435] conv1 <- data
I0314 12:43:01.685303 19116 net.cpp:409] conv1 -> conv1
I0314 12:43:02.078874 19116 net.cpp:141] Setting up conv1
I0314 12:43:02.078907 19116 net.cpp:148] Top shape: 5000 20 24 24 (57600000)
I0314 12:43:02.078910 19116 net.cpp:156] Memory required for data: 246100000
I0314 12:43:02.078938 19116 layer_factory.hpp:77] Creating layer pool1
I0314 12:43:02.078950 19116 net.cpp:91] Creating Layer pool1
I0314 12:43:02.078954 19116 net.cpp:435] pool1 <- conv1
I0314 12:43:02.078959 19116 net.cpp:409] pool1 -> pool1
I0314 12:43:02.079008 19116 net.cpp:141] Setting up pool1
I0314 12:43:02.079027 19116 net.cpp:148] Top shape: 5000 20 12 12 (14400000)
I0314 12:43:02.079030 19116 net.cpp:156] Memory required for data: 303700000
I0314 12:43:02.079032 19116 layer_factory.hpp:77] Creating layer conv2
I0314 12:43:02.079051 19116 net.cpp:91] Creating Layer conv2
I0314 12:43:02.079056 19116 net.cpp:435] conv2 <- pool1
I0314 12:43:02.079059 19116 net.cpp:409] conv2 -> conv2
I0314 12:43:02.081483 19116 net.cpp:141] Setting up conv2
I0314 12:43:02.081507 19116 net.cpp:148] Top shape: 5000 50 8 8 (16000000)
I0314 12:43:02.081513 19116 net.cpp:156] Memory required for data: 367700000
I0314 12:43:02.081521 19116 layer_factory.hpp:77] Creating layer pool2
I0314 12:43:02.081539 19116 net.cpp:91] Creating Layer pool2
I0314 12:43:02.081543 19116 net.cpp:435] pool2 <- conv2
I0314 12:43:02.081548 19116 net.cpp:409] pool2 -> pool2
I0314 12:43:02.081590 19116 net.cpp:141] Setting up pool2
I0314 12:43:02.081598 19116 net.cpp:148] Top shape: 5000 50 4 4 (4000000)
I0314 12:43:02.081609 19116 net.cpp:156] Memory required for data: 383700000
I0314 12:43:02.081611 19116 layer_factory.hpp:77] Creating layer ip1
I0314 12:43:02.081626 19116 net.cpp:91] Creating Layer ip1
I0314 12:43:02.081629 19116 net.cpp:435] ip1 <- pool2
I0314 12:43:02.081632 19116 net.cpp:409] ip1 -> ip1
I0314 12:43:02.085167 19116 net.cpp:141] Setting up ip1
I0314 12:43:02.085191 19116 net.cpp:148] Top shape: 5000 500 (2500000)
I0314 12:43:02.085193 19116 net.cpp:156] Memory required for data: 393700000
I0314 12:43:02.085201 19116 layer_factory.hpp:77] Creating layer relu1
I0314 12:43:02.085217 19116 net.cpp:91] Creating Layer relu1
I0314 12:43:02.085222 19116 net.cpp:435] relu1 <- ip1
I0314 12:43:02.085225 19116 net.cpp:396] relu1 -> ip1 (in-place)
I0314 12:43:02.085394 19116 net.cpp:141] Setting up relu1
I0314 12:43:02.085402 19116 net.cpp:148] Top shape: 5000 500 (2500000)
I0314 12:43:02.085415 19116 net.cpp:156] Memory required for data: 403700000
I0314 12:43:02.085417 19116 layer_factory.hpp:77] Creating layer ip_add
I0314 12:43:02.085423 19116 net.cpp:91] Creating Layer ip_add
I0314 12:43:02.085425 19116 net.cpp:435] ip_add <- ip1
I0314 12:43:02.085430 19116 net.cpp:409] ip_add -> ip_add
I0314 12:43:02.087924 19116 net.cpp:141] Setting up ip_add
I0314 12:43:02.087936 19116 net.cpp:148] Top shape: 5000 500 (2500000)
I0314 12:43:02.087950 19116 net.cpp:156] Memory required for data: 413700000
I0314 12:43:02.087963 19116 layer_factory.hpp:77] Creating layer relu1
I0314 12:43:02.087980 19116 net.cpp:91] Creating Layer relu1
I0314 12:43:02.087985 19116 net.cpp:435] relu1 <- ip_add
I0314 12:43:02.087988 19116 net.cpp:396] relu1 -> ip_add (in-place)
I0314 12:43:02.088145 19116 net.cpp:141] Setting up relu1
I0314 12:43:02.088153 19116 net.cpp:148] Top shape: 5000 500 (2500000)
I0314 12:43:02.088166 19116 net.cpp:156] Memory required for data: 423700000
I0314 12:43:02.088170 19116 layer_factory.hpp:77] Creating layer ip2
I0314 12:43:02.088174 19116 net.cpp:91] Creating Layer ip2
I0314 12:43:02.088177 19116 net.cpp:435] ip2 <- ip_add
I0314 12:43:02.088191 19116 net.cpp:409] ip2 -> ip2
I0314 12:43:02.088322 19116 net.cpp:141] Setting up ip2
I0314 12:43:02.088335 19116 net.cpp:148] Top shape: 5000 10 (50000)
I0314 12:43:02.088346 19116 net.cpp:156] Memory required for data: 423900000
I0314 12:43:02.088377 19116 layer_factory.hpp:77] Creating layer loss
I0314 12:43:02.088383 19116 net.cpp:91] Creating Layer loss
I0314 12:43:02.088385 19116 net.cpp:435] loss <- ip2
I0314 12:43:02.088389 19116 net.cpp:435] loss <- label
I0314 12:43:02.088399 19116 net.cpp:409] loss -> loss
I0314 12:43:02.088410 19116 layer_factory.hpp:77] Creating layer loss
…
I0314 12:43:02.089499 19116 solver.cpp:181] Creating test net (#0) specified by net file: /home/nikoong/Algorithm_test/handwritting/lenet/lenet_add_inner.prototxt
I0314 12:43:02.089524 19116 net.cpp:323] The NetState phase (1) differed from the phase (0) specified by a rule in layer data
I0314 12:43:02.089625 19116 net.cpp:49] Initializing net from parameters: 
state {
  phase: TEST
}
layer {
  name: "data"
  type: "ImageData"
  top: "data"
  top: "label"
  include {
    phase: TEST
  }
  image_data_param {
    source: "/home/nikoong/Algorithm_test/handwritting/data_crop/data1_cut_inverse.txt"
    batch_size: 100
    new_height: 28
    new_width: 28
    is_color: false
  }
}
layer {
  name: "conv1"
  type: "Convolution"
  bottom: "data"
  top: "conv1"
  param {
    lr_mult: 1
  }
  param {
    lr_mult: 2
  }
  convolution_param {
    num_output: 20
    kernel_size: 5
    stride: 1
    weight_filler {
      type: "xavier"
    }
    bias_filler {
      type: "constant"
    }
  }
}
layer {
  name: "pool1"
  type: "Pooling"
  bottom: "conv1"
  top: "pool1"
  pooling_param {
    pool: MAX
    kernel_size: 2
    stride: 2
  }
}
layer {
  name: "conv2"
  type: "Convolution"
  bottom: "pool1"
  top: "conv2"
  param {
    lr_mult: 1
  }
  param {
    lr_mult: 2
  }
  convolution_param {
    num_output: 50
    kernel_size: 5
    stride: 1
    weight_filler {
      type: "xavier"
    }
    bias_filler {
      type: "constant"
    }
  }
}
layer {
  name: "pool2"
  type: "Pooling"
  bottom: "conv2"
  top: "pool2"
  pooling_param {
    pool: MAX
    kernel_size: 2
    stride: 2
  }
}
layer {
  name: "ip1"
  type: "InnerProduct"
  bottom: "pool2"
  top: "ip1"
  param {
    lr_mult: 1
  }
  param {
    lr_mult: 2
  }
  inner_product_param {
    num_output: 500
    weight_filler {
      type: "xavier"
    }
    bias_filler {
      type: "constant"
    }
  }
}
layer {
  name: "relu1"
  type: "ReLU"
  bottom: "ip1"
  top: "ip1"
}
layer {
  name: "ip_add"
  type: "InnerProduct"
  bottom: "ip1"
  top: "ip_add"
  param {
    lr_mult: 1
  }
  param {
    lr_mult: 2
  }
  inner_product_param {
    num_output: 500
    weight_filler {
      type: "xavier"
    }
    bias_filler {
      type: "constant"
    }
  }
}
layer {
  name: "relu1"
  type: "ReLU"
  bottom: "ip_add"
  top: "ip_add"
}
layer {
  name: "ip2"
  type: "InnerProduct"
  bottom: "ip_add"
  top: "ip2"
  param {
    lr_mult: 1
  }
  param {
    lr_mult: 2
  }
  inner_product_param {
    num_output: 10
    weight_filler {
      type: "xavier"
    }
    bias_filler {
      type: "constant"
    }
  }
}
layer {
  name: "accuracy"
  type: "Accuracy"
  bottom: "ip2"
  bottom: "label"
  top: "accuracy"
  include {
    phase: TEST
  }
}
layer {
  name: "loss"
  type: "SoftmaxWithLoss"
  bottom: "ip2"
  bottom: "label"
  top: "loss"
}
I0314 12:43:02.089689 19116 layer_factory.hpp:77] Creating layer data
I0314 12:43:02.089702 19116 net.cpp:91] Creating Layer data
I0314 12:43:02.089707 19116 net.cpp:409] data -> data
I0314 12:43:02.089714 19116 net.cpp:409] data -> label
I0314 12:43:02.089720 19116 image_data_layer.cpp:37] Opening file /home/nikoong/Algorithm_test/handwritting/data_crop/data1_cut_inverse.txt
I0314 12:43:02.093250 19116 image_data_layer.cpp:52] A total of 11432 images.
I0314 12:43:02.093457 19116 image_data_layer.cpp:79] output data size: 100,1,28,28
I0314 12:43:02.094470 19116 net.cpp:141] Setting up data
I0314 12:43:02.094501 19116 net.cpp:148] Top shape: 100 1 28 28 (78400)
I0314 12:43:02.094506 19116 net.cpp:148] Top shape: 100 (100)
I0314 12:43:02.094507 19116 net.cpp:156] Memory required for data: 314000
I0314 12:43:02.094512 19116 layer_factory.hpp:77] Creating layer label_data_1_split
I0314 12:43:02.094523 19116 net.cpp:91] Creating Layer label_data_1_split
I0314 12:43:02.094527 19116 net.cpp:435] label_data_1_split <- label
I0314 12:43:02.094532 19116 net.cpp:409] label_data_1_split -> label_data_1_split_0
I0314 12:43:02.094542 19116 net.cpp:409] label_data_1_split -> label_data_1_split_1
I0314 12:43:02.094615 19116 net.cpp:141] Setting up label_data_1_split
I0314 12:43:02.094632 19116 net.cpp:148] Top shape: 100 (100)
I0314 12:43:02.094635 19116 net.cpp:148] Top shape: 100 (100)
I0314 12:43:02.094637 19116 net.cpp:156] Memory required for data: 314800
I0314 12:43:02.094650 19116 layer_factory.hpp:77] Creating layer conv1
I0314 12:43:02.094660 19116 net.cpp:91] Creating Layer conv1
I0314 12:43:02.094662 19116 net.cpp:435] conv1 <- data
I0314 12:43:02.094667 19116 net.cpp:409] conv1 -> conv1
I0314 12:43:02.095892 19116 net.cpp:141] Setting up conv1
I0314 12:43:02.095904 19116 net.cpp:148] Top shape: 100 20 24 24 (1152000)
I0314 12:43:02.095917 19116 net.cpp:156] Memory required for data: 4922800
I0314 12:43:02.095927 19116 layer_factory.hpp:77] Creating layer pool1
I0314 12:43:02.095933 19116 net.cpp:91] Creating Layer pool1
I0314 12:43:02.095937 19116 net.cpp:435] pool1 <- conv1
I0314 12:43:02.095940 19116 net.cpp:409] pool1 -> pool1
I0314 12:43:02.096150 19116 net.cpp:141] Setting up pool1
I0314 12:43:02.096158 19116 net.cpp:148] Top shape: 100 20 12 12 (288000)
I0314 12:43:02.096169 19116 net.cpp:156] Memory required for data: 6074800
I0314 12:43:02.096173 19116 layer_factory.hpp:77] Creating layer conv2
I0314 12:43:02.096180 19116 net.cpp:91] Creating Layer conv2
I0314 12:43:02.096184 19116 net.cpp:435] conv2 <- pool1
I0314 12:43:02.096189 19116 net.cpp:409] conv2 -> conv2
I0314 12:43:02.097442 19116 net.cpp:141] Setting up conv2
I0314 12:43:02.097455 19116 net.cpp:148] Top shape: 100 50 8 8 (320000)
I0314 12:43:02.097466 19116 net.cpp:156] Memory required for data: 7354800
I0314 12:43:02.097474 19116 layer_factory.hpp:77] Creating layer pool2
I0314 12:43:02.097479 19116 net.cpp:91] Creating Layer pool2
I0314 12:43:02.097482 19116 net.cpp:435] pool2 <- conv2
I0314 12:43:02.097487 19116 net.cpp:409] pool2 -> pool2
I0314 12:43:02.097517 19116 net.cpp:141] Setting up pool2
I0314 12:43:02.097539 19116 net.cpp:148] Top shape: 100 50 4 4 (80000)
I0314 12:43:02.097543 19116 net.cpp:156] Memory required for data: 7674800
I0314 12:43:02.097555 19116 layer_factory.hpp:77] Creating layer ip1
I0314 12:43:02.097560 19116 net.cpp:91] Creating Layer ip1
I0314 12:43:02.097607 19116 net.cpp:435] ip1 <- pool2
I0314 12:43:02.097622 19116 net.cpp:409] ip1 -> ip1
I0314 12:43:02.101318 19116 net.cpp:141] Setting up ip1
I0314 12:43:02.101343 19116 net.cpp:148] Top shape: 100 500 (50000)
I0314 12:43:02.101347 19116 net.cpp:156] Memory required for data: 7874800
I0314 12:43:02.101356 19116 layer_factory.hpp:77] Creating layer relu1
I0314 12:43:02.101361 19116 net.cpp:91] Creating Layer relu1
I0314 12:43:02.101377 19116 net.cpp:435] relu1 <- ip1
I0314 12:43:02.101383 19116 net.cpp:396] relu1 -> ip1 (in-place)
I0314 12:43:02.101536 19116 net.cpp:141] Setting up relu1
I0314 12:43:02.101546 19116 net.cpp:148] Top shape: 100 500 (50000)
I0314 12:43:02.101558 19116 net.cpp:156] Memory required for data: 8074800
I0314 12:43:02.101560 19116 layer_factory.hpp:77] Creating layer ip_add
I0314 12:43:02.101567 19116 net.cpp:91] Creating Layer ip_add
I0314 12:43:02.101575 19116 net.cpp:435] ip_add <- ip1
I0314 12:43:02.101580 19116 net.cpp:409] ip_add -> ip_add
I0314 12:43:02.104195 19116 net.cpp:141] Setting up ip_add
I0314 12:43:02.104219 19116 net.cpp:148] Top shape: 100 500 (50000)
I0314 12:43:02.104223 19116 net.cpp:156] Memory required for data: 8274800
I0314 12:43:02.104228 19116 layer_factory.hpp:77] Creating layer relu1
I0314 12:43:02.104234 19116 net.cpp:91] Creating Layer relu1
I0314 12:43:02.104238 19116 net.cpp:435] relu1 <- ip_add
I0314 12:43:02.104243 19116 net.cpp:396] relu1 -> ip_add (in-place)
I0314 12:43:02.104387 19116 net.cpp:141] Setting up relu1
I0314 12:43:02.104413 19116 net.cpp:148] Top shape: 100 500 (50000)
I0314 12:43:02.104427 19116 net.cpp:156] Memory required for data: 8474800
I0314 12:43:02.104439 19116 layer_factory.hpp:77] Creating layer ip2
I0314 12:43:02.104454 19116 net.cpp:91] Creating Layer ip2
I0314 12:43:02.104466 19116 net.cpp:435] ip2 <- ip_add
I0314 12:43:02.104483 19116 net.cpp:409] ip2 -> ip2
I0314 12:43:02.104619 19116 net.cpp:141] Setting up ip2
I0314 12:43:02.104636 19116 net.cpp:148] Top shape: 100 10 (1000)
I0314 12:43:02.104648 19116 net.cpp:156] Memory required for data: 8478800
I0314 12:43:02.104665 19116 layer_factory.hpp:77] Creating layer ip2_ip2_0_split
I0314 12:43:02.104679 19116 net.cpp:91] Creating Layer ip2_ip2_0_split
I0314 12:43:02.104691 19116 net.cpp:435] ip2_ip2_0_split <- ip2
I0314 12:43:02.104706 19116 net.cpp:409] ip2_ip2_0_split -> ip2_ip2_0_split_0
I0314 12:43:02.104722 19116 net.cpp:409] ip2_ip2_0_split -> ip2_ip2_0_split_1
I0314 12:43:02.104766 19116 net.cpp:141] Setting up ip2_ip2_0_split
I0314 12:43:02.104780 19116 net.cpp:148] Top shape: 100 10 (1000)
I0314 12:43:02.104794 19116 net.cpp:148] Top shape: 100 10 (1000)
I0314 12:43:02.104806 19116 net.cpp:156] Memory required for data: 8486800
I0314 12:43:02.104817 19116 layer_factory.hpp:77] Creating layer accuracy
I0314 12:43:02.104831 19116 net.cpp:91] Creating Layer accuracy
I0314 12:43:02.104843 19116 net.cpp:435] accuracy <- ip2_ip2_0_split_0
I0314 12:43:02.104856 19116 net.cpp:435] accuracy <- label_data_1_split_0
I0314 12:43:02.104871 19116 net.cpp:409] accuracy -> accuracy
…
