…
I0314 15:30:47.125367  6259 net.cpp:323] The NetState phase (0) differed from the phase (1) specified by a rule in layer data
I0314 15:30:47.125382  6259 net.cpp:323] The NetState phase (0) differed from the phase (1) specified by a rule in layer accuracy
I0314 15:30:47.125486  6259 net.cpp:49] Initializing net from parameters: 
state {
  phase: TRAIN
}
layer {
  name: "data"
  type: "ImageData"
  top: "data"
  top: "label"
  include {
    phase: TRAIN
  }
  image_data_param {
    source: "/home/nikoong/Algorithm_test/handwritting/data_crop/txt/data2_28*28.txt"
    batch_size: 5000
    new_height: 28
    new_width: 28
    is_color: false
  }
}
layer {
  name: "conv1"
  type: "Convolution"
  bottom: "data"
  top: "conv1"
  param {
    lr_mult: 1
  }
  param {
    lr_mult: 2
  }
  convolution_param {
    num_output: 20
    kernel_size: 5
    stride: 1
    weight_filler {
      type: "xavier"
    }
    bias_filler {
      type: "constant"
    }
  }
}
layer {
  name: "pool1"
  type: "Pooling"
  bottom: "conv1"
  top: "pool1"
  pooling_param {
    pool: MAX
    kernel_size: 2
    stride: 2
  }
}
layer {
  name: "conv2"
  type: "Convolution"
  bottom: "pool1"
  top: "conv2"
  param {
    lr_mult: 1
  }
  param {
    lr_mult: 2
  }
  convolution_param {
    num_output: 50
    kernel_size: 5
    stride: 1
    weight_filler {
      type: "xavier"
    }
    bias_filler {
      type: "constant"
    }
  }
}
layer {
  name: "pool2"
  type: "Pooling"
  bottom: "conv2"
  top: "pool2"
  pooling_param {
    pool: MAX
    kernel_size: 2
    stride: 2
  }
}
layer {
  name: "ip1"
  type: "InnerProduct"
  bottom: "pool2"
  top: "ip1"
  param {
    lr_mult: 1
  }
  param {
    lr_mult: 2
  }
  inner_product_param {
    num_output: 500
    weight_filler {
      type: "xavier"
    }
    bias_filler {
      type: "constant"
    }
  }
}
layer {
  name: "relu1"
  type: "ReLU"
  bottom: "ip1"
  top: "ip1"
}
layer {
  name: "ip_add"
  type: "InnerProduct"
  bottom: "ip1"
  top: "ip_add"
  param {
    lr_mult: 1
  }
  param {
    lr_mult: 2
  }
  inner_product_param {
    num_output: 500
    weight_filler {
      type: "xavier"
    }
    bias_filler {
      type: "constant"
    }
  }
}
layer {
  name: "relu1"
  type: "ReLU"
  bottom: "ip_add"
  top: "ip_add"
}
layer {
  name: "ip2"
  type: "InnerProduct"
  bottom: "ip_add"
  top: "ip2"
  param {
    lr_mult: 1
  }
  param {
    lr_mult: 2
  }
  inner_product_param {
    num_output: 10
    weight_filler {
      type: "xavier"
    }
    bias_filler {
      type: "constant"
    }
  }
}
layer {
  name: "loss"
  type: "SoftmaxWithLoss"
  bottom: "ip2"
  bottom: "label"
  top: "loss"
}
I0314 15:30:47.125545  6259 layer_factory.hpp:77] Creating layer data
I0314 15:30:47.125572  6259 net.cpp:91] Creating Layer data
I0314 15:30:47.125578  6259 net.cpp:409] data -> data
I0314 15:30:47.125609  6259 net.cpp:409] data -> label
I0314 15:30:47.125622  6259 image_data_layer.cpp:37] Opening file /home/nikoong/Algorithm_test/handwritting/data_crop/txt/data2_28*28.txt
I0314 15:30:47.131307  6259 image_data_layer.cpp:52] A total of 19017 images.
I0314 15:30:47.258965  6259 image_data_layer.cpp:79] output data size: 5000,1,28,28
I0314 15:30:47.305568  6259 net.cpp:141] Setting up data
I0314 15:30:47.305608  6259 net.cpp:148] Top shape: 5000 1 28 28 (3920000)
I0314 15:30:47.305615  6259 net.cpp:148] Top shape: 5000 (5000)
I0314 15:30:47.305629  6259 net.cpp:156] Memory required for data: 15700000
I0314 15:30:47.305650  6259 layer_factory.hpp:77] Creating layer conv1
I0314 15:30:47.305675  6259 net.cpp:91] Creating Layer conv1
I0314 15:30:47.305691  6259 net.cpp:435] conv1 <- data
I0314 15:30:47.305701  6259 net.cpp:409] conv1 -> conv1
I0314 15:30:47.687067  6259 net.cpp:141] Setting up conv1
I0314 15:30:47.687098  6259 net.cpp:148] Top shape: 5000 20 24 24 (57600000)
I0314 15:30:47.687103  6259 net.cpp:156] Memory required for data: 246100000
I0314 15:30:47.687129  6259 layer_factory.hpp:77] Creating layer pool1
I0314 15:30:47.687142  6259 net.cpp:91] Creating Layer pool1
I0314 15:30:47.687145  6259 net.cpp:435] pool1 <- conv1
I0314 15:30:47.687151  6259 net.cpp:409] pool1 -> pool1
I0314 15:30:47.687201  6259 net.cpp:141] Setting up pool1
I0314 15:30:47.687207  6259 net.cpp:148] Top shape: 5000 20 12 12 (14400000)
I0314 15:30:47.687222  6259 net.cpp:156] Memory required for data: 303700000
I0314 15:30:47.687225  6259 layer_factory.hpp:77] Creating layer conv2
I0314 15:30:47.687235  6259 net.cpp:91] Creating Layer conv2
I0314 15:30:47.687237  6259 net.cpp:435] conv2 <- pool1
I0314 15:30:47.687242  6259 net.cpp:409] conv2 -> conv2
I0314 15:30:47.689728  6259 net.cpp:141] Setting up conv2
I0314 15:30:47.689754  6259 net.cpp:148] Top shape: 5000 50 8 8 (16000000)
I0314 15:30:47.689756  6259 net.cpp:156] Memory required for data: 367700000
I0314 15:30:47.689765  6259 layer_factory.hpp:77] Creating layer pool2
I0314 15:30:47.689774  6259 net.cpp:91] Creating Layer pool2
I0314 15:30:47.689776  6259 net.cpp:435] pool2 <- conv2
I0314 15:30:47.689781  6259 net.cpp:409] pool2 -> pool2
I0314 15:30:47.689813  6259 net.cpp:141] Setting up pool2
I0314 15:30:47.689821  6259 net.cpp:148] Top shape: 5000 50 4 4 (4000000)
I0314 15:30:47.689823  6259 net.cpp:156] Memory required for data: 383700000
I0314 15:30:47.689832  6259 layer_factory.hpp:77] Creating layer ip1
I0314 15:30:47.689839  6259 net.cpp:91] Creating Layer ip1
I0314 15:30:47.689841  6259 net.cpp:435] ip1 <- pool2
I0314 15:30:47.689846  6259 net.cpp:409] ip1 -> ip1
I0314 15:30:47.693481  6259 net.cpp:141] Setting up ip1
I0314 15:30:47.693506  6259 net.cpp:148] Top shape: 5000 500 (2500000)
I0314 15:30:47.693508  6259 net.cpp:156] Memory required for data: 393700000
I0314 15:30:47.693517  6259 layer_factory.hpp:77] Creating layer relu1
I0314 15:30:47.693534  6259 net.cpp:91] Creating Layer relu1
I0314 15:30:47.693537  6259 net.cpp:435] relu1 <- ip1
I0314 15:30:47.693542  6259 net.cpp:396] relu1 -> ip1 (in-place)
I0314 15:30:47.693717  6259 net.cpp:141] Setting up relu1
I0314 15:30:47.693724  6259 net.cpp:148] Top shape: 5000 500 (2500000)
I0314 15:30:47.693737  6259 net.cpp:156] Memory required for data: 403700000
I0314 15:30:47.693740  6259 layer_factory.hpp:77] Creating layer ip_add
I0314 15:30:47.693745  6259 net.cpp:91] Creating Layer ip_add
I0314 15:30:47.693748  6259 net.cpp:435] ip_add <- ip1
I0314 15:30:47.693753  6259 net.cpp:409] ip_add -> ip_add
I0314 15:30:47.696341  6259 net.cpp:141] Setting up ip_add
I0314 15:30:47.696363  6259 net.cpp:148] Top shape: 5000 500 (2500000)
I0314 15:30:47.696367  6259 net.cpp:156] Memory required for data: 413700000
I0314 15:30:47.696373  6259 layer_factory.hpp:77] Creating layer relu1
I0314 15:30:47.696391  6259 net.cpp:91] Creating Layer relu1
I0314 15:30:47.696394  6259 net.cpp:435] relu1 <- ip_add
I0314 15:30:47.696399  6259 net.cpp:396] relu1 -> ip_add (in-place)
I0314 15:30:47.696558  6259 net.cpp:141] Setting up relu1
I0314 15:30:47.696571  6259 net.cpp:148] Top shape: 5000 500 (2500000)
I0314 15:30:47.696584  6259 net.cpp:156] Memory required for data: 423700000
I0314 15:30:47.696588  6259 layer_factory.hpp:77] Creating layer ip2
I0314 15:30:47.696593  6259 net.cpp:91] Creating Layer ip2
I0314 15:30:47.696596  6259 net.cpp:435] ip2 <- ip_add
I0314 15:30:47.696611  6259 net.cpp:409] ip2 -> ip2
I0314 15:30:47.696743  6259 net.cpp:141] Setting up ip2
I0314 15:30:47.696748  6259 net.cpp:148] Top shape: 5000 10 (50000)
I0314 15:30:47.696761  6259 net.cpp:156] Memory required for data: 423900000
I0314 15:30:47.696790  6259 layer_factory.hpp:77] Creating layer loss
I0314 15:30:47.696801  6259 net.cpp:91] Creating Layer loss
I0314 15:30:47.696805  6259 net.cpp:435] loss <- ip2
I0314 15:30:47.696808  6259 net.cpp:435] loss <- label
I0314 15:30:47.696813  6259 net.cpp:409] loss -> loss
I0314 15:30:47.696825  6259 layer_factory.hpp:77] Creating layer loss
…
I0314 15:30:47.697903  6259 solver.cpp:181] Creating test net (#0) specified by net file: /home/nikoong/Algorithm_test/handwritting/lenet/lenet_add_inner.prototxt
I0314 15:30:47.697937  6259 net.cpp:323] The NetState phase (1) differed from the phase (0) specified by a rule in layer data
I0314 15:30:47.698045  6259 net.cpp:49] Initializing net from parameters: 
state {
  phase: TEST
}
layer {
  name: "data"
  type: "ImageData"
  top: "data"
  top: "label"
  include {
    phase: TEST
  }
  image_data_param {
    source: "/home/nikoong/Algorithm_test/handwritting/data_crop/txt/data1_28*28.txt"
    batch_size: 100
    new_height: 28
    new_width: 28
    is_color: false
  }
}
layer {
  name: "conv1"
  type: "Convolution"
  bottom: "data"
  top: "conv1"
  param {
    lr_mult: 1
  }
  param {
    lr_mult: 2
  }
  convolution_param {
    num_output: 20
    kernel_size: 5
    stride: 1
    weight_filler {
      type: "xavier"
    }
    bias_filler {
      type: "constant"
    }
  }
}
layer {
  name: "pool1"
  type: "Pooling"
  bottom: "conv1"
  top: "pool1"
  pooling_param {
    pool: MAX
    kernel_size: 2
    stride: 2
  }
}
layer {
  name: "conv2"
  type: "Convolution"
  bottom: "pool1"
  top: "conv2"
  param {
    lr_mult: 1
  }
  param {
    lr_mult: 2
  }
  convolution_param {
    num_output: 50
    kernel_size: 5
    stride: 1
    weight_filler {
      type: "xavier"
    }
    bias_filler {
      type: "constant"
    }
  }
}
layer {
  name: "pool2"
  type: "Pooling"
  bottom: "conv2"
  top: "pool2"
  pooling_param {
    pool: MAX
    kernel_size: 2
    stride: 2
  }
}
layer {
  name: "ip1"
  type: "InnerProduct"
  bottom: "pool2"
  top: "ip1"
  param {
    lr_mult: 1
  }
  param {
    lr_mult: 2
  }
  inner_product_param {
    num_output: 500
    weight_filler {
      type: "xavier"
    }
    bias_filler {
      type: "constant"
    }
  }
}
layer {
  name: "relu1"
  type: "ReLU"
  bottom: "ip1"
  top: "ip1"
}
layer {
  name: "ip_add"
  type: "InnerProduct"
  bottom: "ip1"
  top: "ip_add"
  param {
    lr_mult: 1
  }
  param {
    lr_mult: 2
  }
  inner_product_param {
    num_output: 500
    weight_filler {
      type: "xavier"
    }
    bias_filler {
      type: "constant"
    }
  }
}
layer {
  name: "relu1"
  type: "ReLU"
  bottom: "ip_add"
  top: "ip_add"
}
layer {
  name: "ip2"
  type: "InnerProduct"
  bottom: "ip_add"
  top: "ip2"
  param {
    lr_mult: 1
  }
  param {
    lr_mult: 2
  }
  inner_product_param {
    num_output: 10
    weight_filler {
      type: "xavier"
    }
    bias_filler {
      type: "constant"
    }
  }
}
layer {
  name: "accuracy"
  type: "Accuracy"
  bottom: "ip2"
  bottom: "label"
  top: "accuracy"
  include {
    phase: TEST
  }
}
layer {
  name: "loss"
  type: "SoftmaxWithLoss"
  bottom: "ip2"
  bottom: "label"
  top: "loss"
}
I0314 15:30:47.698117  6259 layer_factory.hpp:77] Creating layer data
I0314 15:30:47.698127  6259 net.cpp:91] Creating Layer data
I0314 15:30:47.698132  6259 net.cpp:409] data -> data
I0314 15:30:47.698138  6259 net.cpp:409] data -> label
I0314 15:30:47.698145  6259 image_data_layer.cpp:37] Opening file /home/nikoong/Algorithm_test/handwritting/data_crop/txt/data1_28*28.txt
I0314 15:30:47.702070  6259 image_data_layer.cpp:52] A total of 11432 images.
I0314 15:30:47.702682  6259 image_data_layer.cpp:79] output data size: 100,1,28,28
I0314 15:30:47.705078  6259 net.cpp:141] Setting up data
I0314 15:30:47.705101  6259 net.cpp:148] Top shape: 100 1 28 28 (78400)
I0314 15:30:47.705106  6259 net.cpp:148] Top shape: 100 (100)
I0314 15:30:47.705108  6259 net.cpp:156] Memory required for data: 314000
I0314 15:30:47.705114  6259 layer_factory.hpp:77] Creating layer label_data_1_split
I0314 15:30:47.705124  6259 net.cpp:91] Creating Layer label_data_1_split
I0314 15:30:47.705128  6259 net.cpp:435] label_data_1_split <- label
I0314 15:30:47.705137  6259 net.cpp:409] label_data_1_split -> label_data_1_split_0
I0314 15:30:47.705147  6259 net.cpp:409] label_data_1_split -> label_data_1_split_1
I0314 15:30:47.705205  6259 net.cpp:141] Setting up label_data_1_split
I0314 15:30:47.705214  6259 net.cpp:148] Top shape: 100 (100)
I0314 15:30:47.705216  6259 net.cpp:148] Top shape: 100 (100)
I0314 15:30:47.705219  6259 net.cpp:156] Memory required for data: 314800
I0314 15:30:47.705221  6259 layer_factory.hpp:77] Creating layer conv1
I0314 15:30:47.705232  6259 net.cpp:91] Creating Layer conv1
I0314 15:30:47.705236  6259 net.cpp:435] conv1 <- data
I0314 15:30:47.705242  6259 net.cpp:409] conv1 -> conv1
I0314 15:30:47.706610  6259 net.cpp:141] Setting up conv1
I0314 15:30:47.706635  6259 net.cpp:148] Top shape: 100 20 24 24 (1152000)
I0314 15:30:47.706640  6259 net.cpp:156] Memory required for data: 4922800
I0314 15:30:47.706648  6259 layer_factory.hpp:77] Creating layer pool1
I0314 15:30:47.706656  6259 net.cpp:91] Creating Layer pool1
I0314 15:30:47.706660  6259 net.cpp:435] pool1 <- conv1
I0314 15:30:47.706668  6259 net.cpp:409] pool1 -> pool1
I0314 15:30:47.706917  6259 net.cpp:141] Setting up pool1
I0314 15:30:47.706924  6259 net.cpp:148] Top shape: 100 20 12 12 (288000)
I0314 15:30:47.706936  6259 net.cpp:156] Memory required for data: 6074800
I0314 15:30:47.706940  6259 layer_factory.hpp:77] Creating layer conv2
I0314 15:30:47.706956  6259 net.cpp:91] Creating Layer conv2
I0314 15:30:47.706959  6259 net.cpp:435] conv2 <- pool1
I0314 15:30:47.706965  6259 net.cpp:409] conv2 -> conv2
I0314 15:30:47.708379  6259 net.cpp:141] Setting up conv2
I0314 15:30:47.708401  6259 net.cpp:148] Top shape: 100 50 8 8 (320000)
I0314 15:30:47.708405  6259 net.cpp:156] Memory required for data: 7354800
I0314 15:30:47.708420  6259 layer_factory.hpp:77] Creating layer pool2
I0314 15:30:47.708427  6259 net.cpp:91] Creating Layer pool2
I0314 15:30:47.708436  6259 net.cpp:435] pool2 <- conv2
I0314 15:30:47.708441  6259 net.cpp:409] pool2 -> pool2
I0314 15:30:47.708477  6259 net.cpp:141] Setting up pool2
I0314 15:30:47.708483  6259 net.cpp:148] Top shape: 100 50 4 4 (80000)
I0314 15:30:47.708499  6259 net.cpp:156] Memory required for data: 7674800
I0314 15:30:47.708515  6259 layer_factory.hpp:77] Creating layer ip1
I0314 15:30:47.708549  6259 net.cpp:91] Creating Layer ip1
I0314 15:30:47.708564  6259 net.cpp:435] ip1 <- pool2
I0314 15:30:47.708569  6259 net.cpp:409] ip1 -> ip1
I0314 15:30:47.712383  6259 net.cpp:141] Setting up ip1
I0314 15:30:47.712407  6259 net.cpp:148] Top shape: 100 500 (50000)
I0314 15:30:47.712410  6259 net.cpp:156] Memory required for data: 7874800
I0314 15:30:47.712419  6259 layer_factory.hpp:77] Creating layer relu1
I0314 15:30:47.712426  6259 net.cpp:91] Creating Layer relu1
I0314 15:30:47.712441  6259 net.cpp:435] relu1 <- ip1
I0314 15:30:47.712446  6259 net.cpp:396] relu1 -> ip1 (in-place)
I0314 15:30:47.712612  6259 net.cpp:141] Setting up relu1
I0314 15:30:47.712622  6259 net.cpp:148] Top shape: 100 500 (50000)
I0314 15:30:47.712636  6259 net.cpp:156] Memory required for data: 8074800
I0314 15:30:47.712640  6259 layer_factory.hpp:77] Creating layer ip_add
I0314 15:30:47.712649  6259 net.cpp:91] Creating Layer ip_add
I0314 15:30:47.712652  6259 net.cpp:435] ip_add <- ip1
I0314 15:30:47.712657  6259 net.cpp:409] ip_add -> ip_add
I0314 15:30:47.715391  6259 net.cpp:141] Setting up ip_add
I0314 15:30:47.715421  6259 net.cpp:148] Top shape: 100 500 (50000)
I0314 15:30:47.715425  6259 net.cpp:156] Memory required for data: 8274800
I0314 15:30:47.715433  6259 layer_factory.hpp:77] Creating layer relu1
I0314 15:30:47.715440  6259 net.cpp:91] Creating Layer relu1
I0314 15:30:47.715445  6259 net.cpp:435] relu1 <- ip_add
I0314 15:30:47.715451  6259 net.cpp:396] relu1 -> ip_add (in-place)
I0314 15:30:47.715643  6259 net.cpp:141] Setting up relu1
I0314 15:30:47.715653  6259 net.cpp:148] Top shape: 100 500 (50000)
I0314 15:30:47.715665  6259 net.cpp:156] Memory required for data: 8474800
I0314 15:30:47.715668  6259 layer_factory.hpp:77] Creating layer ip2
I0314 15:30:47.715675  6259 net.cpp:91] Creating Layer ip2
I0314 15:30:47.715679  6259 net.cpp:435] ip2 <- ip_add
I0314 15:30:47.715683  6259 net.cpp:409] ip2 -> ip2
I0314 15:30:47.715833  6259 net.cpp:141] Setting up ip2
I0314 15:30:47.715840  6259 net.cpp:148] Top shape: 100 10 (1000)
I0314 15:30:47.715853  6259 net.cpp:156] Memory required for data: 8478800
I0314 15:30:47.715860  6259 layer_factory.hpp:77] Creating layer ip2_ip2_0_split
I0314 15:30:47.715873  6259 net.cpp:91] Creating Layer ip2_ip2_0_split
I0314 15:30:47.715878  6259 net.cpp:435] ip2_ip2_0_split <- ip2
I0314 15:30:47.715883  6259 net.cpp:409] ip2_ip2_0_split -> ip2_ip2_0_split_0
I0314 15:30:47.715888  6259 net.cpp:409] ip2_ip2_0_split -> ip2_ip2_0_split_1
I0314 15:30:47.715924  6259 net.cpp:141] Setting up ip2_ip2_0_split
I0314 15:30:47.715930  6259 net.cpp:148] Top shape: 100 10 (1000)
I0314 15:30:47.715934  6259 net.cpp:148] Top shape: 100 10 (1000)
I0314 15:30:47.715936  6259 net.cpp:156] Memory required for data: 8486800
I0314 15:30:47.715939  6259 layer_factory.hpp:77] Creating layer accuracy
I0314 15:30:47.715945  6259 net.cpp:91] Creating Layer accuracy
I0314 15:30:47.715948  6259 net.cpp:435] accuracy <- ip2_ip2_0_split_0
I0314 15:30:47.715952  6259 net.cpp:435] accuracy <- label_data_1_split_0
I0314 15:30:47.715955  6259 net.cpp:409] accuracy -> accuracy
…
