…
I0329 17:11:36.373422 15920 net.cpp:323] The NetState phase (0) differed from the phase (1) specified by a rule in layer mnist
I0329 17:11:36.373446 15920 net.cpp:323] The NetState phase (0) differed from the phase (1) specified by a rule in layer accuracy
I0329 17:11:36.373551 15920 net.cpp:49] Initializing net from parameters: 
name: "LeNet"
state {
  phase: TRAIN
}
layer {
  name: "mnist"
  type: "Data"
  top: "data"
  top: "label"
  include {
    phase: TRAIN
  }
  transform_param {
    scale: 0.00390625
  }
  data_param {
    source: "/home/nikoong/Algorithm_test/handwritting/data/lmdb/newfour/train_withnewfour_lmdb"
    batch_size: 20000
    backend: LMDB
  }
}
layer {
  name: "conv1"
  type: "Convolution"
  bottom: "data"
  top: "conv1"
  param {
    lr_mult: 1
  }
  param {
    lr_mult: 2
  }
  convolution_param {
    num_output: 20
    kernel_size: 5
    stride: 1
    weight_filler {
      type: "xavier"
    }
    bias_filler {
      type: "constant"
    }
  }
}
layer {
  name: "pool1"
  type: "Pooling"
  bottom: "conv1"
  top: "pool1"
  pooling_param {
    pool: MAX
    kernel_size: 2
    stride: 2
  }
}
layer {
  name: "conv2"
  type: "Convolution"
  bottom: "pool1"
  top: "conv2"
  param {
    lr_mult: 1
  }
  param {
    lr_mult: 2
  }
  convolution_param {
    num_output: 50
    kernel_size: 5
    stride: 1
    weight_filler {
      type: "xavier"
    }
    bias_filler {
      type: "constant"
    }
  }
}
layer {
  name: "pool2"
  type: "Pooling"
  bottom: "conv2"
  top: "pool2"
  pooling_param {
    pool: MAX
    kernel_size: 2
    stride: 2
  }
}
layer {
  name: "ip1"
  type: "InnerProduct"
  bottom: "pool2"
  top: "ip1"
  param {
    lr_mult: 1
  }
  param {
    lr_mult: 2
  }
  inner_product_param {
    num_output: 500
    weight_filler {
      type: "xavier"
    }
    bias_filler {
      type: "constant"
    }
  }
}
layer {
  name: "relu1"
  type: "ReLU"
  bottom: "ip1"
  top: "ip1"
}
layer {
  name: "ip2"
  type: "InnerProduct"
  bottom: "ip1"
  top: "ip2"
  param {
    lr_mult: 1
  }
  param {
    lr_mult: 2
  }
  inner_product_param {
    num_output: 10
    weight_filler {
      type: "xavier"
    }
    bias_filler {
      type: "constant"
    }
  }
}
layer {
  name: "loss"
  type: "WeightedSoftmaxWithLoss"
  bottom: "ip2"
  bottom: "label"
  top: "loss"
}
I0329 17:11:36.373615 15920 layer_factory.hpp:77] Creating layer mnist
I0329 17:11:36.381762 15920 net.cpp:91] Creating Layer mnist
I0329 17:11:36.381790 15920 net.cpp:409] mnist -> data
I0329 17:11:36.381844 15920 net.cpp:409] mnist -> label
I0329 17:11:36.382565 15928 db_lmdb.cpp:40] Opened lmdb /home/nikoong/Algorithm_test/handwritting/data/lmdb/newfour/train_withnewfour_lmdb
I0329 17:11:36.406569 15920 data_layer.cpp:41] output data size: 20000,1,28,28
I0329 17:11:36.576711 15920 net.cpp:141] Setting up mnist
I0329 17:11:36.576755 15920 net.cpp:148] Top shape: 20000 1 28 28 (15680000)
I0329 17:11:36.576759 15920 net.cpp:148] Top shape: 20000 (20000)
I0329 17:11:36.576762 15920 net.cpp:156] Memory required for data: 62800000
I0329 17:11:36.576779 15920 layer_factory.hpp:77] Creating layer conv1
I0329 17:11:36.576800 15920 net.cpp:91] Creating Layer conv1
I0329 17:11:36.576807 15920 net.cpp:435] conv1 <- data
I0329 17:11:36.576818 15920 net.cpp:409] conv1 -> conv1
I0329 17:11:37.079094 15920 net.cpp:141] Setting up conv1
I0329 17:11:37.079129 15920 net.cpp:148] Top shape: 20000 20 24 24 (230400000)
I0329 17:11:37.079156 15920 net.cpp:156] Memory required for data: 984400000
I0329 17:11:37.079174 15920 layer_factory.hpp:77] Creating layer pool1
I0329 17:11:37.079188 15920 net.cpp:91] Creating Layer pool1
I0329 17:11:37.079192 15920 net.cpp:435] pool1 <- conv1
I0329 17:11:37.079198 15920 net.cpp:409] pool1 -> pool1
I0329 17:11:37.079241 15920 net.cpp:141] Setting up pool1
I0329 17:11:37.079247 15920 net.cpp:148] Top shape: 20000 20 12 12 (57600000)
I0329 17:11:37.079267 15920 net.cpp:156] Memory required for data: 1214800000
I0329 17:11:37.079313 15920 layer_factory.hpp:77] Creating layer conv2
I0329 17:11:37.079334 15920 net.cpp:91] Creating Layer conv2
I0329 17:11:37.079339 15920 net.cpp:435] conv2 <- pool1
I0329 17:11:37.079344 15920 net.cpp:409] conv2 -> conv2
I0329 17:11:37.080898 15920 net.cpp:141] Setting up conv2
I0329 17:11:37.080920 15920 net.cpp:148] Top shape: 20000 50 8 8 (64000000)
I0329 17:11:37.080924 15920 net.cpp:156] Memory required for data: 1470800000
I0329 17:11:37.080931 15920 layer_factory.hpp:77] Creating layer pool2
I0329 17:11:37.080938 15920 net.cpp:91] Creating Layer pool2
I0329 17:11:37.080941 15920 net.cpp:435] pool2 <- conv2
I0329 17:11:37.080945 15920 net.cpp:409] pool2 -> pool2
I0329 17:11:37.080976 15920 net.cpp:141] Setting up pool2
I0329 17:11:37.080983 15920 net.cpp:148] Top shape: 20000 50 4 4 (16000000)
I0329 17:11:37.080986 15920 net.cpp:156] Memory required for data: 1534800000
I0329 17:11:37.080987 15920 layer_factory.hpp:77] Creating layer ip1
I0329 17:11:37.080993 15920 net.cpp:91] Creating Layer ip1
I0329 17:11:37.080996 15920 net.cpp:435] ip1 <- pool2
I0329 17:11:37.081001 15920 net.cpp:409] ip1 -> ip1
I0329 17:11:37.087992 15920 net.cpp:141] Setting up ip1
I0329 17:11:37.088004 15920 net.cpp:148] Top shape: 20000 500 (10000000)
I0329 17:11:37.088016 15920 net.cpp:156] Memory required for data: 1574800000
I0329 17:11:37.088023 15920 layer_factory.hpp:77] Creating layer relu1
I0329 17:11:37.088039 15920 net.cpp:91] Creating Layer relu1
I0329 17:11:37.088042 15920 net.cpp:435] relu1 <- ip1
I0329 17:11:37.088047 15920 net.cpp:396] relu1 -> ip1 (in-place)
I0329 17:11:37.088207 15920 net.cpp:141] Setting up relu1
I0329 17:11:37.088214 15920 net.cpp:148] Top shape: 20000 500 (10000000)
I0329 17:11:37.088227 15920 net.cpp:156] Memory required for data: 1614800000
I0329 17:11:37.088229 15920 layer_factory.hpp:77] Creating layer ip2
I0329 17:11:37.088235 15920 net.cpp:91] Creating Layer ip2
I0329 17:11:37.088238 15920 net.cpp:435] ip2 <- ip1
I0329 17:11:37.088243 15920 net.cpp:409] ip2 -> ip2
I0329 17:11:37.092973 15920 net.cpp:141] Setting up ip2
I0329 17:11:37.093003 15920 net.cpp:148] Top shape: 20000 10 (200000)
I0329 17:11:37.093005 15920 net.cpp:156] Memory required for data: 1615600000
I0329 17:11:37.093014 15920 layer_factory.hpp:77] Creating layer loss
I0329 17:11:37.093027 15920 net.cpp:91] Creating Layer loss
I0329 17:11:37.093031 15920 net.cpp:435] loss <- ip2
I0329 17:11:37.093035 15920 net.cpp:435] loss <- label
I0329 17:11:37.093041 15920 net.cpp:409] loss -> loss
I0329 17:11:37.093060 15920 layer_factory.hpp:77] Creating layer loss
…
I0329 17:11:37.098707 15920 solver.cpp:181] Creating test net (#0) specified by net file: /home/nikoong/Algorithm_test/handwritting/lenet/lenet_lmdb.prototxt
I0329 17:11:37.098738 15920 net.cpp:323] The NetState phase (1) differed from the phase (0) specified by a rule in layer mnist
I0329 17:11:37.098850 15920 net.cpp:49] Initializing net from parameters: 
name: "LeNet"
state {
  phase: TEST
}
layer {
  name: "mnist"
  type: "Data"
  top: "data"
  top: "label"
  include {
    phase: TEST
  }
  transform_param {
    scale: 0.00390625
  }
  data_param {
    source: "/home/nikoong/Algorithm_test/handwritting/data/lmdb/newfour/val_withnewfour_lmdb"
    batch_size: 500
    backend: LMDB
  }
}
layer {
  name: "conv1"
  type: "Convolution"
  bottom: "data"
  top: "conv1"
  param {
    lr_mult: 1
  }
  param {
    lr_mult: 2
  }
  convolution_param {
    num_output: 20
    kernel_size: 5
    stride: 1
    weight_filler {
      type: "xavier"
    }
    bias_filler {
      type: "constant"
    }
  }
}
layer {
  name: "pool1"
  type: "Pooling"
  bottom: "conv1"
  top: "pool1"
  pooling_param {
    pool: MAX
    kernel_size: 2
    stride: 2
  }
}
layer {
  name: "conv2"
  type: "Convolution"
  bottom: "pool1"
  top: "conv2"
  param {
    lr_mult: 1
  }
  param {
    lr_mult: 2
  }
  convolution_param {
    num_output: 50
    kernel_size: 5
    stride: 1
    weight_filler {
      type: "xavier"
    }
    bias_filler {
      type: "constant"
    }
  }
}
layer {
  name: "pool2"
  type: "Pooling"
  bottom: "conv2"
  top: "pool2"
  pooling_param {
    pool: MAX
    kernel_size: 2
    stride: 2
  }
}
layer {
  name: "ip1"
  type: "InnerProduct"
  bottom: "pool2"
  top: "ip1"
  param {
    lr_mult: 1
  }
  param {
    lr_mult: 2
  }
  inner_product_param {
    num_output: 500
    weight_filler {
      type: "xavier"
    }
    bias_filler {
      type: "constant"
    }
  }
}
layer {
  name: "relu1"
  type: "ReLU"
  bottom: "ip1"
  top: "ip1"
}
layer {
  name: "ip2"
  type: "InnerProduct"
  bottom: "ip1"
  top: "ip2"
  param {
    lr_mult: 1
  }
  param {
    lr_mult: 2
  }
  inner_product_param {
    num_output: 10
    weight_filler {
      type: "xavier"
    }
    bias_filler {
      type: "constant"
    }
  }
}
layer {
  name: "accuracy"
  type: "Accuracy"
  bottom: "ip2"
  bottom: "label"
  top: "accuracy"
  include {
    phase: TEST
  }
}
layer {
  name: "loss"
  type: "WeightedSoftmaxWithLoss"
  bottom: "ip2"
  bottom: "label"
  top: "loss"
}
I0329 17:11:37.098917 15920 layer_factory.hpp:77] Creating layer mnist
I0329 17:11:37.099148 15920 net.cpp:91] Creating Layer mnist
I0329 17:11:37.099154 15920 net.cpp:409] mnist -> data
I0329 17:11:37.099161 15920 net.cpp:409] mnist -> label
I0329 17:11:37.100051 15930 db_lmdb.cpp:40] Opened lmdb /home/nikoong/Algorithm_test/handwritting/data/lmdb/newfour/val_withnewfour_lmdb
I0329 17:11:37.100172 15920 data_layer.cpp:41] output data size: 500,1,28,28
I0329 17:11:37.127261 15920 net.cpp:141] Setting up mnist
I0329 17:11:37.127292 15920 net.cpp:148] Top shape: 500 1 28 28 (392000)
I0329 17:11:37.127297 15920 net.cpp:148] Top shape: 500 (500)
I0329 17:11:37.127300 15920 net.cpp:156] Memory required for data: 1570000
I0329 17:11:37.127305 15920 layer_factory.hpp:77] Creating layer label_mnist_1_split
I0329 17:11:37.127326 15920 net.cpp:91] Creating Layer label_mnist_1_split
I0329 17:11:37.127328 15920 net.cpp:435] label_mnist_1_split <- label
I0329 17:11:37.127334 15920 net.cpp:409] label_mnist_1_split -> label_mnist_1_split_0
I0329 17:11:37.127343 15920 net.cpp:409] label_mnist_1_split -> label_mnist_1_split_1
I0329 17:11:37.127400 15920 net.cpp:141] Setting up label_mnist_1_split
I0329 17:11:37.127406 15920 net.cpp:148] Top shape: 500 (500)
I0329 17:11:37.127418 15920 net.cpp:148] Top shape: 500 (500)
I0329 17:11:37.127421 15920 net.cpp:156] Memory required for data: 1574000
I0329 17:11:37.127424 15920 layer_factory.hpp:77] Creating layer conv1
I0329 17:11:37.127444 15920 net.cpp:91] Creating Layer conv1
I0329 17:11:37.127460 15920 net.cpp:435] conv1 <- data
I0329 17:11:37.127465 15920 net.cpp:409] conv1 -> conv1
I0329 17:11:37.129614 15920 net.cpp:141] Setting up conv1
I0329 17:11:37.129628 15920 net.cpp:148] Top shape: 500 20 24 24 (5760000)
I0329 17:11:37.129631 15920 net.cpp:156] Memory required for data: 24614000
I0329 17:11:37.129643 15920 layer_factory.hpp:77] Creating layer pool1
I0329 17:11:37.129650 15920 net.cpp:91] Creating Layer pool1
I0329 17:11:37.129653 15920 net.cpp:435] pool1 <- conv1
I0329 17:11:37.129657 15920 net.cpp:409] pool1 -> pool1
I0329 17:11:37.129691 15920 net.cpp:141] Setting up pool1
I0329 17:11:37.129706 15920 net.cpp:148] Top shape: 500 20 12 12 (1440000)
I0329 17:11:37.129709 15920 net.cpp:156] Memory required for data: 30374000
I0329 17:11:37.129712 15920 layer_factory.hpp:77] Creating layer conv2
I0329 17:11:37.129720 15920 net.cpp:91] Creating Layer conv2
I0329 17:11:37.129724 15920 net.cpp:435] conv2 <- pool1
I0329 17:11:37.129729 15920 net.cpp:409] conv2 -> conv2
I0329 17:11:37.130903 15920 net.cpp:141] Setting up conv2
I0329 17:11:37.130925 15920 net.cpp:148] Top shape: 500 50 8 8 (1600000)
I0329 17:11:37.130929 15920 net.cpp:156] Memory required for data: 36774000
I0329 17:11:37.130946 15920 layer_factory.hpp:77] Creating layer pool2
I0329 17:11:37.130952 15920 net.cpp:91] Creating Layer pool2
I0329 17:11:37.130955 15920 net.cpp:435] pool2 <- conv2
I0329 17:11:37.130961 15920 net.cpp:409] pool2 -> pool2
I0329 17:11:37.130991 15920 net.cpp:141] Setting up pool2
I0329 17:11:37.130998 15920 net.cpp:148] Top shape: 500 50 4 4 (400000)
I0329 17:11:37.131000 15920 net.cpp:156] Memory required for data: 38374000
I0329 17:11:37.131003 15920 layer_factory.hpp:77] Creating layer ip1
I0329 17:11:37.131011 15920 net.cpp:91] Creating Layer ip1
I0329 17:11:37.131016 15920 net.cpp:435] ip1 <- pool2
I0329 17:11:37.131021 15920 net.cpp:409] ip1 -> ip1
I0329 17:11:37.134485 15920 net.cpp:141] Setting up ip1
I0329 17:11:37.134512 15920 net.cpp:148] Top shape: 500 500 (250000)
I0329 17:11:37.134521 15920 net.cpp:156] Memory required for data: 39374000
I0329 17:11:37.134532 15920 layer_factory.hpp:77] Creating layer relu1
I0329 17:11:37.134542 15920 net.cpp:91] Creating Layer relu1
I0329 17:11:37.134546 15920 net.cpp:435] relu1 <- ip1
I0329 17:11:37.134551 15920 net.cpp:396] relu1 -> ip1 (in-place)
I0329 17:11:37.135145 15920 net.cpp:141] Setting up relu1
I0329 17:11:37.135159 15920 net.cpp:148] Top shape: 500 500 (250000)
I0329 17:11:37.135174 15920 net.cpp:156] Memory required for data: 40374000
I0329 17:11:37.135176 15920 layer_factory.hpp:77] Creating layer ip2
I0329 17:11:37.135185 15920 net.cpp:91] Creating Layer ip2
I0329 17:11:37.135187 15920 net.cpp:435] ip2 <- ip1
I0329 17:11:37.135192 15920 net.cpp:409] ip2 -> ip2
I0329 17:11:37.135344 15920 net.cpp:141] Setting up ip2
I0329 17:11:37.135349 15920 net.cpp:148] Top shape: 500 10 (5000)
I0329 17:11:37.135363 15920 net.cpp:156] Memory required for data: 40394000
I0329 17:11:37.135368 15920 layer_factory.hpp:77] Creating layer ip2_ip2_0_split
I0329 17:11:37.135373 15920 net.cpp:91] Creating Layer ip2_ip2_0_split
I0329 17:11:37.135382 15920 net.cpp:435] ip2_ip2_0_split <- ip2
I0329 17:11:37.135386 15920 net.cpp:409] ip2_ip2_0_split -> ip2_ip2_0_split_0
I0329 17:11:37.135393 15920 net.cpp:409] ip2_ip2_0_split -> ip2_ip2_0_split_1
I0329 17:11:37.135421 15920 net.cpp:141] Setting up ip2_ip2_0_split
I0329 17:11:37.135426 15920 net.cpp:148] Top shape: 500 10 (5000)
I0329 17:11:37.135429 15920 net.cpp:148] Top shape: 500 10 (5000)
I0329 17:11:37.135432 15920 net.cpp:156] Memory required for data: 40434000
I0329 17:11:37.135439 15920 layer_factory.hpp:77] Creating layer accuracy
I0329 17:11:37.135443 15920 net.cpp:91] Creating Layer accuracy
I0329 17:11:37.135447 15920 net.cpp:435] accuracy <- ip2_ip2_0_split_0
I0329 17:11:37.135450 15920 net.cpp:435] accuracy <- label_mnist_1_split_0
I0329 17:11:37.135454 15920 net.cpp:409] accuracy -> accuracy
…
