…
I0328 22:21:29.780174  1951 net.cpp:323] The NetState phase (0) differed from the phase (1) specified by a rule in layer mnist
I0328 22:21:29.780187  1951 net.cpp:323] The NetState phase (0) differed from the phase (1) specified by a rule in layer accuracy
I0328 22:21:29.780282  1951 net.cpp:49] Initializing net from parameters: 
name: "LeNet"
state {
  phase: TRAIN
}
layer {
  name: "mnist"
  type: "Data"
  top: "data"
  top: "label"
  include {
    phase: TRAIN
  }
  transform_param {
    scale: 0.00390625
  }
  data_param {
    source: "/home/nikoong/Algorithm_test/handwritting/data/lmdb/newfour/train_withnewfour_lmdb"
    batch_size: 20000
    backend: LMDB
  }
}
layer {
  name: "conv1"
  type: "Convolution"
  bottom: "data"
  top: "conv1"
  param {
    lr_mult: 1
  }
  param {
    lr_mult: 2
  }
  convolution_param {
    num_output: 20
    kernel_size: 5
    stride: 1
    weight_filler {
      type: "xavier"
    }
    bias_filler {
      type: "constant"
    }
  }
}
layer {
  name: "pool1"
  type: "Pooling"
  bottom: "conv1"
  top: "pool1"
  pooling_param {
    pool: MAX
    kernel_size: 2
    stride: 2
  }
}
layer {
  name: "conv2"
  type: "Convolution"
  bottom: "pool1"
  top: "conv2"
  param {
    lr_mult: 1
  }
  param {
    lr_mult: 2
  }
  convolution_param {
    num_output: 50
    kernel_size: 5
    stride: 1
    weight_filler {
      type: "xavier"
    }
    bias_filler {
      type: "constant"
    }
  }
}
layer {
  name: "pool2"
  type: "Pooling"
  bottom: "conv2"
  top: "pool2"
  pooling_param {
    pool: MAX
    kernel_size: 2
    stride: 2
  }
}
layer {
  name: "ip1"
  type: "InnerProduct"
  bottom: "pool2"
  top: "ip1"
  param {
    lr_mult: 1
  }
  param {
    lr_mult: 2
  }
  inner_product_param {
    num_output: 500
    weight_filler {
      type: "xavier"
    }
    bias_filler {
      type: "constant"
    }
  }
}
layer {
  name: "relu1"
  type: "ReLU"
  bottom: "ip1"
  top: "ip1"
}
layer {
  name: "ip2"
  type: "InnerProduct"
  bottom: "ip1"
  top: "ip2"
  param {
    lr_mult: 1
  }
  param {
    lr_mult: 2
  }
  inner_product_param {
    num_output: 10
    weight_filler {
      type: "xavier"
    }
    bias_filler {
      type: "constant"
    }
  }
}
layer {
  name: "loss"
  type: "WeightedSoftmaxWithLoss"
  bottom: "ip2"
  bottom: "label"
  top: "loss"
}
I0328 22:21:29.780335  1951 layer_factory.hpp:77] Creating layer mnist
I0328 22:21:29.788693  1951 net.cpp:91] Creating Layer mnist
I0328 22:21:29.788722  1951 net.cpp:409] mnist -> data
I0328 22:21:29.788772  1951 net.cpp:409] mnist -> label
I0328 22:21:29.789463  1958 db_lmdb.cpp:40] Opened lmdb /home/nikoong/Algorithm_test/handwritting/data/lmdb/newfour/train_withnewfour_lmdb
I0328 22:21:29.813451  1951 data_layer.cpp:41] output data size: 20000,1,28,28
I0328 22:21:29.983892  1951 net.cpp:141] Setting up mnist
I0328 22:21:29.983937  1951 net.cpp:148] Top shape: 20000 1 28 28 (15680000)
I0328 22:21:29.983942  1951 net.cpp:148] Top shape: 20000 (20000)
I0328 22:21:29.983954  1951 net.cpp:156] Memory required for data: 62800000
I0328 22:21:29.983964  1951 layer_factory.hpp:77] Creating layer conv1
I0328 22:21:29.983989  1951 net.cpp:91] Creating Layer conv1
I0328 22:21:29.983995  1951 net.cpp:435] conv1 <- data
I0328 22:21:29.984007  1951 net.cpp:409] conv1 -> conv1
I0328 22:21:30.532747  1951 net.cpp:141] Setting up conv1
I0328 22:21:30.532771  1951 net.cpp:148] Top shape: 20000 20 24 24 (230400000)
I0328 22:21:30.532801  1951 net.cpp:156] Memory required for data: 984400000
I0328 22:21:30.532829  1951 layer_factory.hpp:77] Creating layer pool1
I0328 22:21:30.532845  1951 net.cpp:91] Creating Layer pool1
I0328 22:21:30.532848  1951 net.cpp:435] pool1 <- conv1
I0328 22:21:30.532855  1951 net.cpp:409] pool1 -> pool1
I0328 22:21:30.532915  1951 net.cpp:141] Setting up pool1
I0328 22:21:30.532922  1951 net.cpp:148] Top shape: 20000 20 12 12 (57600000)
I0328 22:21:30.532923  1951 net.cpp:156] Memory required for data: 1214800000
I0328 22:21:30.532925  1951 layer_factory.hpp:77] Creating layer conv2
I0328 22:21:30.532935  1951 net.cpp:91] Creating Layer conv2
I0328 22:21:30.532938  1951 net.cpp:435] conv2 <- pool1
I0328 22:21:30.532941  1951 net.cpp:409] conv2 -> conv2
I0328 22:21:30.534456  1951 net.cpp:141] Setting up conv2
I0328 22:21:30.534467  1951 net.cpp:148] Top shape: 20000 50 8 8 (64000000)
I0328 22:21:30.534471  1951 net.cpp:156] Memory required for data: 1470800000
I0328 22:21:30.534477  1951 layer_factory.hpp:77] Creating layer pool2
I0328 22:21:30.534483  1951 net.cpp:91] Creating Layer pool2
I0328 22:21:30.534485  1951 net.cpp:435] pool2 <- conv2
I0328 22:21:30.534499  1951 net.cpp:409] pool2 -> pool2
I0328 22:21:30.534529  1951 net.cpp:141] Setting up pool2
I0328 22:21:30.534534  1951 net.cpp:148] Top shape: 20000 50 4 4 (16000000)
I0328 22:21:30.534546  1951 net.cpp:156] Memory required for data: 1534800000
I0328 22:21:30.534548  1951 layer_factory.hpp:77] Creating layer ip1
I0328 22:21:30.534554  1951 net.cpp:91] Creating Layer ip1
I0328 22:21:30.534556  1951 net.cpp:435] ip1 <- pool2
I0328 22:21:30.534560  1951 net.cpp:409] ip1 -> ip1
I0328 22:21:30.537863  1951 net.cpp:141] Setting up ip1
I0328 22:21:30.537875  1951 net.cpp:148] Top shape: 20000 500 (10000000)
I0328 22:21:30.537878  1951 net.cpp:156] Memory required for data: 1574800000
I0328 22:21:30.537884  1951 layer_factory.hpp:77] Creating layer relu1
I0328 22:21:30.537890  1951 net.cpp:91] Creating Layer relu1
I0328 22:21:30.537894  1951 net.cpp:435] relu1 <- ip1
I0328 22:21:30.537906  1951 net.cpp:396] relu1 -> ip1 (in-place)
I0328 22:21:30.538053  1951 net.cpp:141] Setting up relu1
I0328 22:21:30.538061  1951 net.cpp:148] Top shape: 20000 500 (10000000)
I0328 22:21:30.538064  1951 net.cpp:156] Memory required for data: 1614800000
I0328 22:21:30.538066  1951 layer_factory.hpp:77] Creating layer ip2
I0328 22:21:30.538071  1951 net.cpp:91] Creating Layer ip2
I0328 22:21:30.538074  1951 net.cpp:435] ip2 <- ip1
I0328 22:21:30.538079  1951 net.cpp:409] ip2 -> ip2
I0328 22:21:30.538815  1951 net.cpp:141] Setting up ip2
I0328 22:21:30.538826  1951 net.cpp:148] Top shape: 20000 10 (200000)
I0328 22:21:30.538830  1951 net.cpp:156] Memory required for data: 1615600000
I0328 22:21:30.538835  1951 layer_factory.hpp:77] Creating layer loss
I0328 22:21:30.538844  1951 net.cpp:91] Creating Layer loss
I0328 22:21:30.538847  1951 net.cpp:435] loss <- ip2
I0328 22:21:30.538861  1951 net.cpp:435] loss <- label
I0328 22:21:30.538866  1951 net.cpp:409] loss -> loss
I0328 22:21:30.538877  1951 layer_factory.hpp:77] Creating layer loss
…
I0328 22:21:30.540060  1951 solver.cpp:181] Creating test net (#0) specified by net file: /home/nikoong/Algorithm_test/handwritting/lenet/lenet_lmdb.prototxt
I0328 22:21:30.540081  1951 net.cpp:323] The NetState phase (1) differed from the phase (0) specified by a rule in layer mnist
I0328 22:21:30.540185  1951 net.cpp:49] Initializing net from parameters: 
name: "LeNet"
state {
  phase: TEST
}
layer {
  name: "mnist"
  type: "Data"
  top: "data"
  top: "label"
  include {
    phase: TEST
  }
  transform_param {
    scale: 0.00390625
  }
  data_param {
    source: "/home/nikoong/Algorithm_test/handwritting/data/lmdb/newfour/val_withnewfour_lmdb"
    batch_size: 500
    backend: LMDB
  }
}
layer {
  name: "conv1"
  type: "Convolution"
  bottom: "data"
  top: "conv1"
  param {
    lr_mult: 1
  }
  param {
    lr_mult: 2
  }
  convolution_param {
    num_output: 20
    kernel_size: 5
    stride: 1
    weight_filler {
      type: "xavier"
    }
    bias_filler {
      type: "constant"
    }
  }
}
layer {
  name: "pool1"
  type: "Pooling"
  bottom: "conv1"
  top: "pool1"
  pooling_param {
    pool: MAX
    kernel_size: 2
    stride: 2
  }
}
layer {
  name: "conv2"
  type: "Convolution"
  bottom: "pool1"
  top: "conv2"
  param {
    lr_mult: 1
  }
  param {
    lr_mult: 2
  }
  convolution_param {
    num_output: 50
    kernel_size: 5
    stride: 1
    weight_filler {
      type: "xavier"
    }
    bias_filler {
      type: "constant"
    }
  }
}
layer {
  name: "pool2"
  type: "Pooling"
  bottom: "conv2"
  top: "pool2"
  pooling_param {
    pool: MAX
    kernel_size: 2
    stride: 2
  }
}
layer {
  name: "ip1"
  type: "InnerProduct"
  bottom: "pool2"
  top: "ip1"
  param {
    lr_mult: 1
  }
  param {
    lr_mult: 2
  }
  inner_product_param {
    num_output: 500
    weight_filler {
      type: "xavier"
    }
    bias_filler {
      type: "constant"
    }
  }
}
layer {
  name: "relu1"
  type: "ReLU"
  bottom: "ip1"
  top: "ip1"
}
layer {
  name: "ip2"
  type: "InnerProduct"
  bottom: "ip1"
  top: "ip2"
  param {
    lr_mult: 1
  }
  param {
    lr_mult: 2
  }
  inner_product_param {
    num_output: 10
    weight_filler {
      type: "xavier"
    }
    bias_filler {
      type: "constant"
    }
  }
}
layer {
  name: "accuracy"
  type: "Accuracy"
  bottom: "ip2"
  bottom: "label"
  top: "accuracy"
  include {
    phase: TEST
  }
}
layer {
  name: "loss"
  type: "WeightedSoftmaxWithLoss"
  bottom: "ip2"
  bottom: "label"
  top: "loss"
}
I0328 22:21:30.540241  1951 layer_factory.hpp:77] Creating layer mnist
I0328 22:21:30.540458  1951 net.cpp:91] Creating Layer mnist
I0328 22:21:30.540474  1951 net.cpp:409] mnist -> data
I0328 22:21:30.540482  1951 net.cpp:409] mnist -> label
I0328 22:21:30.541208  1960 db_lmdb.cpp:40] Opened lmdb /home/nikoong/Algorithm_test/handwritting/data/lmdb/newfour/val_withnewfour_lmdb
I0328 22:21:30.541317  1951 data_layer.cpp:41] output data size: 500,1,28,28
I0328 22:21:30.549140  1951 net.cpp:141] Setting up mnist
I0328 22:21:30.549162  1951 net.cpp:148] Top shape: 500 1 28 28 (392000)
I0328 22:21:30.549166  1951 net.cpp:148] Top shape: 500 (500)
I0328 22:21:30.549170  1951 net.cpp:156] Memory required for data: 1570000
I0328 22:21:30.549185  1951 layer_factory.hpp:77] Creating layer label_mnist_1_split
I0328 22:21:30.549196  1951 net.cpp:91] Creating Layer label_mnist_1_split
I0328 22:21:30.549198  1951 net.cpp:435] label_mnist_1_split <- label
I0328 22:21:30.549204  1951 net.cpp:409] label_mnist_1_split -> label_mnist_1_split_0
I0328 22:21:30.549214  1951 net.cpp:409] label_mnist_1_split -> label_mnist_1_split_1
I0328 22:21:30.549273  1951 net.cpp:141] Setting up label_mnist_1_split
I0328 22:21:30.549288  1951 net.cpp:148] Top shape: 500 (500)
I0328 22:21:30.549291  1951 net.cpp:148] Top shape: 500 (500)
I0328 22:21:30.549293  1951 net.cpp:156] Memory required for data: 1574000
I0328 22:21:30.549296  1951 layer_factory.hpp:77] Creating layer conv1
I0328 22:21:30.549315  1951 net.cpp:91] Creating Layer conv1
I0328 22:21:30.549340  1951 net.cpp:435] conv1 <- data
I0328 22:21:30.549345  1951 net.cpp:409] conv1 -> conv1
I0328 22:21:30.551530  1951 net.cpp:141] Setting up conv1
I0328 22:21:30.551545  1951 net.cpp:148] Top shape: 500 20 24 24 (5760000)
I0328 22:21:30.551560  1951 net.cpp:156] Memory required for data: 24614000
I0328 22:21:30.551571  1951 layer_factory.hpp:77] Creating layer pool1
I0328 22:21:30.551578  1951 net.cpp:91] Creating Layer pool1
I0328 22:21:30.551584  1951 net.cpp:435] pool1 <- conv1
I0328 22:21:30.551595  1951 net.cpp:409] pool1 -> pool1
I0328 22:21:30.551626  1951 net.cpp:141] Setting up pool1
I0328 22:21:30.551632  1951 net.cpp:148] Top shape: 500 20 12 12 (1440000)
I0328 22:21:30.551640  1951 net.cpp:156] Memory required for data: 30374000
I0328 22:21:30.551646  1951 layer_factory.hpp:77] Creating layer conv2
I0328 22:21:30.551654  1951 net.cpp:91] Creating Layer conv2
I0328 22:21:30.551658  1951 net.cpp:435] conv2 <- pool1
I0328 22:21:30.551663  1951 net.cpp:409] conv2 -> conv2
I0328 22:21:30.552799  1951 net.cpp:141] Setting up conv2
I0328 22:21:30.552814  1951 net.cpp:148] Top shape: 500 50 8 8 (1600000)
I0328 22:21:30.552816  1951 net.cpp:156] Memory required for data: 36774000
I0328 22:21:30.552830  1951 layer_factory.hpp:77] Creating layer pool2
I0328 22:21:30.552839  1951 net.cpp:91] Creating Layer pool2
I0328 22:21:30.552847  1951 net.cpp:435] pool2 <- conv2
I0328 22:21:30.552852  1951 net.cpp:409] pool2 -> pool2
I0328 22:21:30.552881  1951 net.cpp:141] Setting up pool2
I0328 22:21:30.552887  1951 net.cpp:148] Top shape: 500 50 4 4 (400000)
I0328 22:21:30.552891  1951 net.cpp:156] Memory required for data: 38374000
I0328 22:21:30.552892  1951 layer_factory.hpp:77] Creating layer ip1
I0328 22:21:30.552898  1951 net.cpp:91] Creating Layer ip1
I0328 22:21:30.552903  1951 net.cpp:435] ip1 <- pool2
I0328 22:21:30.552908  1951 net.cpp:409] ip1 -> ip1
I0328 22:21:30.556386  1951 net.cpp:141] Setting up ip1
I0328 22:21:30.556404  1951 net.cpp:148] Top shape: 500 500 (250000)
I0328 22:21:30.556408  1951 net.cpp:156] Memory required for data: 39374000
I0328 22:21:30.556416  1951 layer_factory.hpp:77] Creating layer relu1
I0328 22:21:30.556426  1951 net.cpp:91] Creating Layer relu1
I0328 22:21:30.556428  1951 net.cpp:435] relu1 <- ip1
I0328 22:21:30.556433  1951 net.cpp:396] relu1 -> ip1 (in-place)
I0328 22:21:30.557032  1951 net.cpp:141] Setting up relu1
I0328 22:21:30.557044  1951 net.cpp:148] Top shape: 500 500 (250000)
I0328 22:21:30.557047  1951 net.cpp:156] Memory required for data: 40374000
I0328 22:21:30.557052  1951 layer_factory.hpp:77] Creating layer ip2
I0328 22:21:30.557060  1951 net.cpp:91] Creating Layer ip2
I0328 22:21:30.557063  1951 net.cpp:435] ip2 <- ip1
I0328 22:21:30.557068  1951 net.cpp:409] ip2 -> ip2
I0328 22:21:30.557188  1951 net.cpp:141] Setting up ip2
I0328 22:21:30.557195  1951 net.cpp:148] Top shape: 500 10 (5000)
I0328 22:21:30.557199  1951 net.cpp:156] Memory required for data: 40394000
I0328 22:21:30.557204  1951 layer_factory.hpp:77] Creating layer ip2_ip2_0_split
I0328 22:21:30.557209  1951 net.cpp:91] Creating Layer ip2_ip2_0_split
I0328 22:21:30.557211  1951 net.cpp:435] ip2_ip2_0_split <- ip2
I0328 22:21:30.557217  1951 net.cpp:409] ip2_ip2_0_split -> ip2_ip2_0_split_0
I0328 22:21:30.557222  1951 net.cpp:409] ip2_ip2_0_split -> ip2_ip2_0_split_1
I0328 22:21:30.557247  1951 net.cpp:141] Setting up ip2_ip2_0_split
I0328 22:21:30.557252  1951 net.cpp:148] Top shape: 500 10 (5000)
I0328 22:21:30.557257  1951 net.cpp:148] Top shape: 500 10 (5000)
I0328 22:21:30.557260  1951 net.cpp:156] Memory required for data: 40434000
I0328 22:21:30.557262  1951 layer_factory.hpp:77] Creating layer accuracy
I0328 22:21:30.557268  1951 net.cpp:91] Creating Layer accuracy
I0328 22:21:30.557273  1951 net.cpp:435] accuracy <- ip2_ip2_0_split_0
I0328 22:21:30.557277  1951 net.cpp:435] accuracy <- label_mnist_1_split_0
I0328 22:21:30.557281  1951 net.cpp:409] accuracy -> accuracy
…
