…
I0328 19:52:15.497714 30872 net.cpp:323] The NetState phase (0) differed from the phase (1) specified by a rule in layer mnist
I0328 19:52:15.497727 30872 net.cpp:323] The NetState phase (0) differed from the phase (1) specified by a rule in layer accuracy
I0328 19:52:15.497829 30872 net.cpp:49] Initializing net from parameters: 
name: "LeNet"
state {
  phase: TRAIN
}
layer {
  name: "mnist"
  type: "Data"
  top: "data"
  top: "label"
  include {
    phase: TRAIN
  }
  transform_param {
    scale: 0.00390625
  }
  data_param {
    source: "/home/nikoong/Algorithm_test/handwritting/data/lmdb/newfour/train_withnewfour_lmdb"
    batch_size: 20000
    backend: LMDB
  }
}
layer {
  name: "conv1"
  type: "Convolution"
  bottom: "data"
  top: "conv1"
  param {
    lr_mult: 1
  }
  param {
    lr_mult: 2
  }
  convolution_param {
    num_output: 20
    kernel_size: 5
    stride: 1
    weight_filler {
      type: "xavier"
    }
    bias_filler {
      type: "constant"
    }
  }
}
layer {
  name: "pool1"
  type: "Pooling"
  bottom: "conv1"
  top: "pool1"
  pooling_param {
    pool: MAX
    kernel_size: 2
    stride: 2
  }
}
layer {
  name: "conv2"
  type: "Convolution"
  bottom: "pool1"
  top: "conv2"
  param {
    lr_mult: 1
  }
  param {
    lr_mult: 2
  }
  convolution_param {
    num_output: 50
    kernel_size: 5
    stride: 1
    weight_filler {
      type: "xavier"
    }
    bias_filler {
      type: "constant"
    }
  }
}
layer {
  name: "pool2"
  type: "Pooling"
  bottom: "conv2"
  top: "pool2"
  pooling_param {
    pool: MAX
    kernel_size: 2
    stride: 2
  }
}
layer {
  name: "ip1"
  type: "InnerProduct"
  bottom: "pool2"
  top: "ip1"
  param {
    lr_mult: 1
  }
  param {
    lr_mult: 2
  }
  inner_product_param {
    num_output: 500
    weight_filler {
      type: "xavier"
    }
    bias_filler {
      type: "constant"
    }
  }
}
layer {
  name: "relu1"
  type: "ReLU"
  bottom: "ip1"
  top: "ip1"
}
layer {
  name: "ip2"
  type: "InnerProduct"
  bottom: "ip1"
  top: "ip2"
  param {
    lr_mult: 1
  }
  param {
    lr_mult: 2
  }
  inner_product_param {
    num_output: 10
    weight_filler {
      type: "xavier"
    }
    bias_filler {
      type: "constant"
    }
  }
}
layer {
  name: "loss"
  type: "WeightedSoftmaxWithLoss"
  bottom: "ip2"
  bottom: "label"
  top: "loss"
}
I0328 19:52:15.497886 30872 layer_factory.hpp:77] Creating layer mnist
I0328 19:52:15.506042 30872 net.cpp:91] Creating Layer mnist
I0328 19:52:15.506072 30872 net.cpp:409] mnist -> data
I0328 19:52:15.506124 30872 net.cpp:409] mnist -> label
I0328 19:52:15.506850 30879 db_lmdb.cpp:40] Opened lmdb /home/nikoong/Algorithm_test/handwritting/data/lmdb/newfour/train_withnewfour_lmdb
I0328 19:52:15.530519 30872 data_layer.cpp:41] output data size: 20000,1,28,28
I0328 19:52:15.701366 30872 net.cpp:141] Setting up mnist
I0328 19:52:15.701411 30872 net.cpp:148] Top shape: 20000 1 28 28 (15680000)
I0328 19:52:15.701416 30872 net.cpp:148] Top shape: 20000 (20000)
I0328 19:52:15.701429 30872 net.cpp:156] Memory required for data: 62800000
I0328 19:52:15.701437 30872 layer_factory.hpp:77] Creating layer conv1
I0328 19:52:15.701459 30872 net.cpp:91] Creating Layer conv1
I0328 19:52:15.701465 30872 net.cpp:435] conv1 <- data
I0328 19:52:15.701477 30872 net.cpp:409] conv1 -> conv1
I0328 19:52:16.332643 30872 net.cpp:141] Setting up conv1
I0328 19:52:16.332666 30872 net.cpp:148] Top shape: 20000 20 24 24 (230400000)
I0328 19:52:16.332684 30872 net.cpp:156] Memory required for data: 984400000
I0328 19:52:16.332710 30872 layer_factory.hpp:77] Creating layer pool1
I0328 19:52:16.332723 30872 net.cpp:91] Creating Layer pool1
I0328 19:52:16.332736 30872 net.cpp:435] pool1 <- conv1
I0328 19:52:16.332742 30872 net.cpp:409] pool1 -> pool1
I0328 19:52:16.332803 30872 net.cpp:141] Setting up pool1
I0328 19:52:16.332808 30872 net.cpp:148] Top shape: 20000 20 12 12 (57600000)
I0328 19:52:16.332811 30872 net.cpp:156] Memory required for data: 1214800000
I0328 19:52:16.332813 30872 layer_factory.hpp:77] Creating layer conv2
I0328 19:52:16.332823 30872 net.cpp:91] Creating Layer conv2
I0328 19:52:16.332824 30872 net.cpp:435] conv2 <- pool1
I0328 19:52:16.332828 30872 net.cpp:409] conv2 -> conv2
I0328 19:52:16.334357 30872 net.cpp:141] Setting up conv2
I0328 19:52:16.334368 30872 net.cpp:148] Top shape: 20000 50 8 8 (64000000)
I0328 19:52:16.334372 30872 net.cpp:156] Memory required for data: 1470800000
I0328 19:52:16.334378 30872 layer_factory.hpp:77] Creating layer pool2
I0328 19:52:16.334384 30872 net.cpp:91] Creating Layer pool2
I0328 19:52:16.334386 30872 net.cpp:435] pool2 <- conv2
I0328 19:52:16.334400 30872 net.cpp:409] pool2 -> pool2
I0328 19:52:16.334429 30872 net.cpp:141] Setting up pool2
I0328 19:52:16.334435 30872 net.cpp:148] Top shape: 20000 50 4 4 (16000000)
I0328 19:52:16.334437 30872 net.cpp:156] Memory required for data: 1534800000
I0328 19:52:16.334448 30872 layer_factory.hpp:77] Creating layer ip1
I0328 19:52:16.334455 30872 net.cpp:91] Creating Layer ip1
I0328 19:52:16.334466 30872 net.cpp:435] ip1 <- pool2
I0328 19:52:16.334470 30872 net.cpp:409] ip1 -> ip1
I0328 19:52:16.337769 30872 net.cpp:141] Setting up ip1
I0328 19:52:16.337781 30872 net.cpp:148] Top shape: 20000 500 (10000000)
I0328 19:52:16.337783 30872 net.cpp:156] Memory required for data: 1574800000
I0328 19:52:16.337790 30872 layer_factory.hpp:77] Creating layer relu1
I0328 19:52:16.337797 30872 net.cpp:91] Creating Layer relu1
I0328 19:52:16.337800 30872 net.cpp:435] relu1 <- ip1
I0328 19:52:16.337818 30872 net.cpp:396] relu1 -> ip1 (in-place)
I0328 19:52:16.337991 30872 net.cpp:141] Setting up relu1
I0328 19:52:16.337999 30872 net.cpp:148] Top shape: 20000 500 (10000000)
I0328 19:52:16.338001 30872 net.cpp:156] Memory required for data: 1614800000
I0328 19:52:16.338004 30872 layer_factory.hpp:77] Creating layer ip2
I0328 19:52:16.338009 30872 net.cpp:91] Creating Layer ip2
I0328 19:52:16.338012 30872 net.cpp:435] ip2 <- ip1
I0328 19:52:16.338016 30872 net.cpp:409] ip2 -> ip2
I0328 19:52:16.338835 30872 net.cpp:141] Setting up ip2
I0328 19:52:16.338847 30872 net.cpp:148] Top shape: 20000 10 (200000)
I0328 19:52:16.338850 30872 net.cpp:156] Memory required for data: 1615600000
I0328 19:52:16.338855 30872 layer_factory.hpp:77] Creating layer loss
I0328 19:52:16.338866 30872 net.cpp:91] Creating Layer loss
I0328 19:52:16.338870 30872 net.cpp:435] loss <- ip2
I0328 19:52:16.338882 30872 net.cpp:435] loss <- label
I0328 19:52:16.338888 30872 net.cpp:409] loss -> loss
I0328 19:52:16.338902 30872 layer_factory.hpp:77] Creating layer loss
…
I0328 19:52:16.340164 30872 solver.cpp:181] Creating test net (#0) specified by net file: /home/nikoong/Algorithm_test/handwritting/lenet/lenet_lmdb.prototxt
I0328 19:52:16.340185 30872 net.cpp:323] The NetState phase (1) differed from the phase (0) specified by a rule in layer mnist
I0328 19:52:16.340289 30872 net.cpp:49] Initializing net from parameters: 
name: "LeNet"
state {
  phase: TEST
}
layer {
  name: "mnist"
  type: "Data"
  top: "data"
  top: "label"
  include {
    phase: TEST
  }
  transform_param {
    scale: 0.00390625
  }
  data_param {
    source: "/home/nikoong/Algorithm_test/handwritting/data/lmdb/newfour/val_withnewfour_lmdb"
    batch_size: 500
    backend: LMDB
  }
}
layer {
  name: "conv1"
  type: "Convolution"
  bottom: "data"
  top: "conv1"
  param {
    lr_mult: 1
  }
  param {
    lr_mult: 2
  }
  convolution_param {
    num_output: 20
    kernel_size: 5
    stride: 1
    weight_filler {
      type: "xavier"
    }
    bias_filler {
      type: "constant"
    }
  }
}
layer {
  name: "pool1"
  type: "Pooling"
  bottom: "conv1"
  top: "pool1"
  pooling_param {
    pool: MAX
    kernel_size: 2
    stride: 2
  }
}
layer {
  name: "conv2"
  type: "Convolution"
  bottom: "pool1"
  top: "conv2"
  param {
    lr_mult: 1
  }
  param {
    lr_mult: 2
  }
  convolution_param {
    num_output: 50
    kernel_size: 5
    stride: 1
    weight_filler {
      type: "xavier"
    }
    bias_filler {
      type: "constant"
    }
  }
}
layer {
  name: "pool2"
  type: "Pooling"
  bottom: "conv2"
  top: "pool2"
  pooling_param {
    pool: MAX
    kernel_size: 2
    stride: 2
  }
}
layer {
  name: "ip1"
  type: "InnerProduct"
  bottom: "pool2"
  top: "ip1"
  param {
    lr_mult: 1
  }
  param {
    lr_mult: 2
  }
  inner_product_param {
    num_output: 500
    weight_filler {
      type: "xavier"
    }
    bias_filler {
      type: "constant"
    }
  }
}
layer {
  name: "relu1"
  type: "ReLU"
  bottom: "ip1"
  top: "ip1"
}
layer {
  name: "ip2"
  type: "InnerProduct"
  bottom: "ip1"
  top: "ip2"
  param {
    lr_mult: 1
  }
  param {
    lr_mult: 2
  }
  inner_product_param {
    num_output: 10
    weight_filler {
      type: "xavier"
    }
    bias_filler {
      type: "constant"
    }
  }
}
layer {
  name: "accuracy"
  type: "Accuracy"
  bottom: "ip2"
  bottom: "label"
  top: "accuracy"
  include {
    phase: TEST
  }
}
layer {
  name: "loss"
  type: "WeightedSoftmaxWithLoss"
  bottom: "ip2"
  bottom: "label"
  top: "loss"
}
I0328 19:52:16.340345 30872 layer_factory.hpp:77] Creating layer mnist
I0328 19:52:16.340564 30872 net.cpp:91] Creating Layer mnist
I0328 19:52:16.340580 30872 net.cpp:409] mnist -> data
I0328 19:52:16.340587 30872 net.cpp:409] mnist -> label
I0328 19:52:16.341295 30881 db_lmdb.cpp:40] Opened lmdb /home/nikoong/Algorithm_test/handwritting/data/lmdb/newfour/val_withnewfour_lmdb
I0328 19:52:16.341408 30872 data_layer.cpp:41] output data size: 500,1,28,28
I0328 19:52:16.349244 30872 net.cpp:141] Setting up mnist
I0328 19:52:16.349274 30872 net.cpp:148] Top shape: 500 1 28 28 (392000)
I0328 19:52:16.349278 30872 net.cpp:148] Top shape: 500 (500)
I0328 19:52:16.349282 30872 net.cpp:156] Memory required for data: 1570000
I0328 19:52:16.349287 30872 layer_factory.hpp:77] Creating layer label_mnist_1_split
I0328 19:52:16.349306 30872 net.cpp:91] Creating Layer label_mnist_1_split
I0328 19:52:16.349309 30872 net.cpp:435] label_mnist_1_split <- label
I0328 19:52:16.349315 30872 net.cpp:409] label_mnist_1_split -> label_mnist_1_split_0
I0328 19:52:16.349323 30872 net.cpp:409] label_mnist_1_split -> label_mnist_1_split_1
I0328 19:52:16.349411 30872 net.cpp:141] Setting up label_mnist_1_split
I0328 19:52:16.349429 30872 net.cpp:148] Top shape: 500 (500)
I0328 19:52:16.349432 30872 net.cpp:148] Top shape: 500 (500)
I0328 19:52:16.349434 30872 net.cpp:156] Memory required for data: 1574000
I0328 19:52:16.349437 30872 layer_factory.hpp:77] Creating layer conv1
I0328 19:52:16.349447 30872 net.cpp:91] Creating Layer conv1
I0328 19:52:16.349462 30872 net.cpp:435] conv1 <- data
I0328 19:52:16.349467 30872 net.cpp:409] conv1 -> conv1
I0328 19:52:16.351502 30872 net.cpp:141] Setting up conv1
I0328 19:52:16.351516 30872 net.cpp:148] Top shape: 500 20 24 24 (5760000)
I0328 19:52:16.351528 30872 net.cpp:156] Memory required for data: 24614000
I0328 19:52:16.351539 30872 layer_factory.hpp:77] Creating layer pool1
I0328 19:52:16.351547 30872 net.cpp:91] Creating Layer pool1
I0328 19:52:16.351550 30872 net.cpp:435] pool1 <- conv1
I0328 19:52:16.351554 30872 net.cpp:409] pool1 -> pool1
I0328 19:52:16.351593 30872 net.cpp:141] Setting up pool1
I0328 19:52:16.351598 30872 net.cpp:148] Top shape: 500 20 12 12 (1440000)
I0328 19:52:16.351600 30872 net.cpp:156] Memory required for data: 30374000
I0328 19:52:16.351613 30872 layer_factory.hpp:77] Creating layer conv2
I0328 19:52:16.351619 30872 net.cpp:91] Creating Layer conv2
I0328 19:52:16.351622 30872 net.cpp:435] conv2 <- pool1
I0328 19:52:16.351626 30872 net.cpp:409] conv2 -> conv2
I0328 19:52:16.352741 30872 net.cpp:141] Setting up conv2
I0328 19:52:16.352753 30872 net.cpp:148] Top shape: 500 50 8 8 (1600000)
I0328 19:52:16.352773 30872 net.cpp:156] Memory required for data: 36774000
I0328 19:52:16.352782 30872 layer_factory.hpp:77] Creating layer pool2
I0328 19:52:16.352788 30872 net.cpp:91] Creating Layer pool2
I0328 19:52:16.352793 30872 net.cpp:435] pool2 <- conv2
I0328 19:52:16.352797 30872 net.cpp:409] pool2 -> pool2
I0328 19:52:16.352835 30872 net.cpp:141] Setting up pool2
I0328 19:52:16.352841 30872 net.cpp:148] Top shape: 500 50 4 4 (400000)
I0328 19:52:16.352854 30872 net.cpp:156] Memory required for data: 38374000
I0328 19:52:16.352869 30872 layer_factory.hpp:77] Creating layer ip1
I0328 19:52:16.352875 30872 net.cpp:91] Creating Layer ip1
I0328 19:52:16.352881 30872 net.cpp:435] ip1 <- pool2
I0328 19:52:16.352887 30872 net.cpp:409] ip1 -> ip1
I0328 19:52:16.356353 30872 net.cpp:141] Setting up ip1
I0328 19:52:16.356379 30872 net.cpp:148] Top shape: 500 500 (250000)
I0328 19:52:16.356382 30872 net.cpp:156] Memory required for data: 39374000
I0328 19:52:16.356395 30872 layer_factory.hpp:77] Creating layer relu1
I0328 19:52:16.356402 30872 net.cpp:91] Creating Layer relu1
I0328 19:52:16.356405 30872 net.cpp:435] relu1 <- ip1
I0328 19:52:16.356411 30872 net.cpp:396] relu1 -> ip1 (in-place)
I0328 19:52:16.357044 30872 net.cpp:141] Setting up relu1
I0328 19:52:16.357055 30872 net.cpp:148] Top shape: 500 500 (250000)
I0328 19:52:16.357075 30872 net.cpp:156] Memory required for data: 40374000
I0328 19:52:16.357080 30872 layer_factory.hpp:77] Creating layer ip2
I0328 19:52:16.357087 30872 net.cpp:91] Creating Layer ip2
I0328 19:52:16.357095 30872 net.cpp:435] ip2 <- ip1
I0328 19:52:16.357100 30872 net.cpp:409] ip2 -> ip2
I0328 19:52:16.357233 30872 net.cpp:141] Setting up ip2
I0328 19:52:16.357239 30872 net.cpp:148] Top shape: 500 10 (5000)
I0328 19:52:16.357252 30872 net.cpp:156] Memory required for data: 40394000
I0328 19:52:16.357259 30872 layer_factory.hpp:77] Creating layer ip2_ip2_0_split
I0328 19:52:16.357265 30872 net.cpp:91] Creating Layer ip2_ip2_0_split
I0328 19:52:16.357270 30872 net.cpp:435] ip2_ip2_0_split <- ip2
I0328 19:52:16.357273 30872 net.cpp:409] ip2_ip2_0_split -> ip2_ip2_0_split_0
I0328 19:52:16.357280 30872 net.cpp:409] ip2_ip2_0_split -> ip2_ip2_0_split_1
I0328 19:52:16.357305 30872 net.cpp:141] Setting up ip2_ip2_0_split
I0328 19:52:16.357312 30872 net.cpp:148] Top shape: 500 10 (5000)
I0328 19:52:16.357316 30872 net.cpp:148] Top shape: 500 10 (5000)
I0328 19:52:16.357318 30872 net.cpp:156] Memory required for data: 40434000
I0328 19:52:16.357326 30872 layer_factory.hpp:77] Creating layer accuracy
I0328 19:52:16.357331 30872 net.cpp:91] Creating Layer accuracy
I0328 19:52:16.357334 30872 net.cpp:435] accuracy <- ip2_ip2_0_split_0
I0328 19:52:16.357342 30872 net.cpp:435] accuracy <- label_mnist_1_split_0
I0328 19:52:16.357345 30872 net.cpp:409] accuracy -> accuracy
…
