…
I0330 22:34:04.356708  4674 net.cpp:323] The NetState phase (0) differed from the phase (1) specified by a rule in layer mnist
I0330 22:34:04.356721  4674 net.cpp:323] The NetState phase (0) differed from the phase (1) specified by a rule in layer accuracy
I0330 22:34:04.356818  4674 net.cpp:49] Initializing net from parameters: 
name: "LeNet"
state {
  phase: TRAIN
}
layer {
  name: "mnist"
  type: "Data"
  top: "data"
  top: "label"
  include {
    phase: TRAIN
  }
  transform_param {
    scale: 0.00390625
  }
  data_param {
    source: "/home/nikoong/Algorithm_test/handwritting/data/lmdb/newfour/train_withnewfour_lmdb"
    batch_size: 20000
    backend: LMDB
  }
}
layer {
  name: "conv1"
  type: "Convolution"
  bottom: "data"
  top: "conv1"
  param {
    lr_mult: 1
  }
  param {
    lr_mult: 2
  }
  convolution_param {
    num_output: 20
    kernel_size: 5
    stride: 1
    weight_filler {
      type: "xavier"
    }
    bias_filler {
      type: "constant"
    }
  }
}
layer {
  name: "pool1"
  type: "Pooling"
  bottom: "conv1"
  top: "pool1"
  pooling_param {
    pool: MAX
    kernel_size: 2
    stride: 2
  }
}
layer {
  name: "conv2"
  type: "Convolution"
  bottom: "pool1"
  top: "conv2"
  param {
    lr_mult: 1
  }
  param {
    lr_mult: 2
  }
  convolution_param {
    num_output: 50
    kernel_size: 5
    stride: 1
    weight_filler {
      type: "xavier"
    }
    bias_filler {
      type: "constant"
    }
  }
}
layer {
  name: "pool2"
  type: "Pooling"
  bottom: "conv2"
  top: "pool2"
  pooling_param {
    pool: MAX
    kernel_size: 2
    stride: 2
  }
}
layer {
  name: "ip1"
  type: "InnerProduct"
  bottom: "pool2"
  top: "ip1"
  param {
    lr_mult: 1
  }
  param {
    lr_mult: 2
  }
  inner_product_param {
    num_output: 500
    weight_filler {
      type: "xavier"
    }
    bias_filler {
      type: "constant"
    }
  }
}
layer {
  name: "relu1"
  type: "ReLU"
  bottom: "ip1"
  top: "ip1"
}
layer {
  name: "drop"
  type: "Dropout"
  bottom: "ip1"
  top: "ip1"
  dropout_param {
    dropout_ratio: 0.5
  }
}
layer {
  name: "ip2"
  type: "InnerProduct"
  bottom: "ip1"
  top: "ip2"
  param {
    lr_mult: 1
  }
  param {
    lr_mult: 2
  }
  inner_product_param {
    num_output: 10
    weight_filler {
      type: "xavier"
    }
    bias_filler {
      type: "constant"
    }
  }
}
layer {
  name: "loss"
  type: "WeightedSoftmaxWithLoss"
  bottom: "ip2"
  bottom: "label"
  top: "loss"
}
I0330 22:34:04.356873  4674 layer_factory.hpp:77] Creating layer mnist
I0330 22:34:04.365164  4674 net.cpp:91] Creating Layer mnist
I0330 22:34:04.365195  4674 net.cpp:409] mnist -> data
I0330 22:34:04.365247  4674 net.cpp:409] mnist -> label
I0330 22:34:04.365984  4681 db_lmdb.cpp:40] Opened lmdb /home/nikoong/Algorithm_test/handwritting/data/lmdb/newfour/train_withnewfour_lmdb
I0330 22:34:04.390447  4674 data_layer.cpp:41] output data size: 20000,1,28,28
I0330 22:34:04.562582  4674 net.cpp:141] Setting up mnist
I0330 22:34:04.562626  4674 net.cpp:148] Top shape: 20000 1 28 28 (15680000)
I0330 22:34:04.562631  4674 net.cpp:148] Top shape: 20000 (20000)
I0330 22:34:04.562644  4674 net.cpp:156] Memory required for data: 62800000
I0330 22:34:04.562654  4674 layer_factory.hpp:77] Creating layer conv1
I0330 22:34:04.562677  4674 net.cpp:91] Creating Layer conv1
I0330 22:34:04.562685  4674 net.cpp:435] conv1 <- data
I0330 22:34:04.562703  4674 net.cpp:409] conv1 -> conv1
I0330 22:34:05.119452  4674 net.cpp:141] Setting up conv1
I0330 22:34:05.119489  4674 net.cpp:148] Top shape: 20000 20 24 24 (230400000)
I0330 22:34:05.119493  4674 net.cpp:156] Memory required for data: 984400000
I0330 22:34:05.119508  4674 layer_factory.hpp:77] Creating layer pool1
I0330 22:34:05.119530  4674 net.cpp:91] Creating Layer pool1
I0330 22:34:05.119534  4674 net.cpp:435] pool1 <- conv1
I0330 22:34:05.119539  4674 net.cpp:409] pool1 -> pool1
I0330 22:34:05.119585  4674 net.cpp:141] Setting up pool1
I0330 22:34:05.119590  4674 net.cpp:148] Top shape: 20000 20 12 12 (57600000)
I0330 22:34:05.119593  4674 net.cpp:156] Memory required for data: 1214800000
I0330 22:34:05.119596  4674 layer_factory.hpp:77] Creating layer conv2
I0330 22:34:05.119604  4674 net.cpp:91] Creating Layer conv2
I0330 22:34:05.119607  4674 net.cpp:435] conv2 <- pool1
I0330 22:34:05.119611  4674 net.cpp:409] conv2 -> conv2
I0330 22:34:05.121070  4674 net.cpp:141] Setting up conv2
I0330 22:34:05.121083  4674 net.cpp:148] Top shape: 20000 50 8 8 (64000000)
I0330 22:34:05.121085  4674 net.cpp:156] Memory required for data: 1470800000
I0330 22:34:05.121091  4674 layer_factory.hpp:77] Creating layer pool2
I0330 22:34:05.121098  4674 net.cpp:91] Creating Layer pool2
I0330 22:34:05.121100  4674 net.cpp:435] pool2 <- conv2
I0330 22:34:05.121114  4674 net.cpp:409] pool2 -> pool2
I0330 22:34:05.121142  4674 net.cpp:141] Setting up pool2
I0330 22:34:05.121157  4674 net.cpp:148] Top shape: 20000 50 4 4 (16000000)
I0330 22:34:05.121160  4674 net.cpp:156] Memory required for data: 1534800000
I0330 22:34:05.121161  4674 layer_factory.hpp:77] Creating layer ip1
I0330 22:34:05.121167  4674 net.cpp:91] Creating Layer ip1
I0330 22:34:05.121170  4674 net.cpp:435] ip1 <- pool2
I0330 22:34:05.121173  4674 net.cpp:409] ip1 -> ip1
I0330 22:34:05.124500  4674 net.cpp:141] Setting up ip1
I0330 22:34:05.124512  4674 net.cpp:148] Top shape: 20000 500 (10000000)
I0330 22:34:05.124516  4674 net.cpp:156] Memory required for data: 1574800000
I0330 22:34:05.124522  4674 layer_factory.hpp:77] Creating layer relu1
I0330 22:34:05.124527  4674 net.cpp:91] Creating Layer relu1
I0330 22:34:05.124531  4674 net.cpp:435] relu1 <- ip1
I0330 22:34:05.124544  4674 net.cpp:396] relu1 -> ip1 (in-place)
I0330 22:34:05.124689  4674 net.cpp:141] Setting up relu1
I0330 22:34:05.124697  4674 net.cpp:148] Top shape: 20000 500 (10000000)
I0330 22:34:05.124699  4674 net.cpp:156] Memory required for data: 1614800000
I0330 22:34:05.124702  4674 layer_factory.hpp:77] Creating layer drop
I0330 22:34:05.124706  4674 net.cpp:91] Creating Layer drop
I0330 22:34:05.124709  4674 net.cpp:435] drop <- ip1
I0330 22:34:05.124712  4674 net.cpp:396] drop -> ip1 (in-place)
I0330 22:34:05.124743  4674 net.cpp:141] Setting up drop
I0330 22:34:05.124748  4674 net.cpp:148] Top shape: 20000 500 (10000000)
I0330 22:34:05.124752  4674 net.cpp:156] Memory required for data: 1654800000
I0330 22:34:05.124753  4674 layer_factory.hpp:77] Creating layer ip2
I0330 22:34:05.124759  4674 net.cpp:91] Creating Layer ip2
I0330 22:34:05.124761  4674 net.cpp:435] ip2 <- ip1
I0330 22:34:05.124765  4674 net.cpp:409] ip2 -> ip2
I0330 22:34:05.125529  4674 net.cpp:141] Setting up ip2
I0330 22:34:05.125540  4674 net.cpp:148] Top shape: 20000 10 (200000)
I0330 22:34:05.125542  4674 net.cpp:156] Memory required for data: 1655600000
I0330 22:34:05.125547  4674 layer_factory.hpp:77] Creating layer loss
I0330 22:34:05.125557  4674 net.cpp:91] Creating Layer loss
I0330 22:34:05.125560  4674 net.cpp:435] loss <- ip2
I0330 22:34:05.125573  4674 net.cpp:435] loss <- label
I0330 22:34:05.125578  4674 net.cpp:409] loss -> loss
I0330 22:34:05.125591  4674 layer_factory.hpp:77] Creating layer loss
…
I0330 22:34:05.126898  4674 solver.cpp:181] Creating test net (#0) specified by net file: /home/nikoong/Algorithm_test/handwritting/lenet/net/lenet_doupout.prototxt
I0330 22:34:05.126919  4674 net.cpp:323] The NetState phase (1) differed from the phase (0) specified by a rule in layer mnist
I0330 22:34:05.127032  4674 net.cpp:49] Initializing net from parameters: 
name: "LeNet"
state {
  phase: TEST
}
layer {
  name: "mnist"
  type: "Data"
  top: "data"
  top: "label"
  include {
    phase: TEST
  }
  transform_param {
    scale: 0.00390625
  }
  data_param {
    source: "/home/nikoong/Algorithm_test/handwritting/data/lmdb/newfour/val_withnewfour_lmdb"
    batch_size: 500
    backend: LMDB
  }
}
layer {
  name: "conv1"
  type: "Convolution"
  bottom: "data"
  top: "conv1"
  param {
    lr_mult: 1
  }
  param {
    lr_mult: 2
  }
  convolution_param {
    num_output: 20
    kernel_size: 5
    stride: 1
    weight_filler {
      type: "xavier"
    }
    bias_filler {
      type: "constant"
    }
  }
}
layer {
  name: "pool1"
  type: "Pooling"
  bottom: "conv1"
  top: "pool1"
  pooling_param {
    pool: MAX
    kernel_size: 2
    stride: 2
  }
}
layer {
  name: "conv2"
  type: "Convolution"
  bottom: "pool1"
  top: "conv2"
  param {
    lr_mult: 1
  }
  param {
    lr_mult: 2
  }
  convolution_param {
    num_output: 50
    kernel_size: 5
    stride: 1
    weight_filler {
      type: "xavier"
    }
    bias_filler {
      type: "constant"
    }
  }
}
layer {
  name: "pool2"
  type: "Pooling"
  bottom: "conv2"
  top: "pool2"
  pooling_param {
    pool: MAX
    kernel_size: 2
    stride: 2
  }
}
layer {
  name: "ip1"
  type: "InnerProduct"
  bottom: "pool2"
  top: "ip1"
  param {
    lr_mult: 1
  }
  param {
    lr_mult: 2
  }
  inner_product_param {
    num_output: 500
    weight_filler {
      type: "xavier"
    }
    bias_filler {
      type: "constant"
    }
  }
}
layer {
  name: "relu1"
  type: "ReLU"
  bottom: "ip1"
  top: "ip1"
}
layer {
  name: "drop"
  type: "Dropout"
  bottom: "ip1"
  top: "ip1"
  dropout_param {
    dropout_ratio: 0.5
  }
}
layer {
  name: "ip2"
  type: "InnerProduct"
  bottom: "ip1"
  top: "ip2"
  param {
    lr_mult: 1
  }
  param {
    lr_mult: 2
  }
  inner_product_param {
    num_output: 10
    weight_filler {
      type: "xavier"
    }
    bias_filler {
      type: "constant"
    }
  }
}
layer {
  name: "accuracy"
  type: "Accuracy"
  bottom: "ip2"
  bottom: "label"
  top: "accuracy"
  include {
    phase: TEST
  }
}
layer {
  name: "loss"
  type: "WeightedSoftmaxWithLoss"
  bottom: "ip2"
  bottom: "label"
  top: "loss"
}
I0330 22:34:05.127089  4674 layer_factory.hpp:77] Creating layer mnist
I0330 22:34:05.127324  4674 net.cpp:91] Creating Layer mnist
I0330 22:34:05.127331  4674 net.cpp:409] mnist -> data
I0330 22:34:05.127338  4674 net.cpp:409] mnist -> label
I0330 22:34:05.128342  4683 db_lmdb.cpp:40] Opened lmdb /home/nikoong/Algorithm_test/handwritting/data/lmdb/newfour/val_withnewfour_lmdb
I0330 22:34:05.128458  4674 data_layer.cpp:41] output data size: 500,1,28,28
I0330 22:34:05.136323  4674 net.cpp:141] Setting up mnist
I0330 22:34:05.136353  4674 net.cpp:148] Top shape: 500 1 28 28 (392000)
I0330 22:34:05.136358  4674 net.cpp:148] Top shape: 500 (500)
I0330 22:34:05.136360  4674 net.cpp:156] Memory required for data: 1570000
I0330 22:34:05.136390  4674 layer_factory.hpp:77] Creating layer label_mnist_1_split
I0330 22:34:05.136401  4674 net.cpp:91] Creating Layer label_mnist_1_split
I0330 22:34:05.136404  4674 net.cpp:435] label_mnist_1_split <- label
I0330 22:34:05.136410  4674 net.cpp:409] label_mnist_1_split -> label_mnist_1_split_0
I0330 22:34:05.136418  4674 net.cpp:409] label_mnist_1_split -> label_mnist_1_split_1
I0330 22:34:05.136494  4674 net.cpp:141] Setting up label_mnist_1_split
I0330 22:34:05.136500  4674 net.cpp:148] Top shape: 500 (500)
I0330 22:34:05.136512  4674 net.cpp:148] Top shape: 500 (500)
I0330 22:34:05.136515  4674 net.cpp:156] Memory required for data: 1574000
I0330 22:34:05.136518  4674 layer_factory.hpp:77] Creating layer conv1
I0330 22:34:05.136538  4674 net.cpp:91] Creating Layer conv1
I0330 22:34:05.136541  4674 net.cpp:435] conv1 <- data
I0330 22:34:05.136546  4674 net.cpp:409] conv1 -> conv1
I0330 22:34:05.138638  4674 net.cpp:141] Setting up conv1
I0330 22:34:05.138662  4674 net.cpp:148] Top shape: 500 20 24 24 (5760000)
I0330 22:34:05.138669  4674 net.cpp:156] Memory required for data: 24614000
I0330 22:34:05.138679  4674 layer_factory.hpp:77] Creating layer pool1
I0330 22:34:05.138685  4674 net.cpp:91] Creating Layer pool1
I0330 22:34:05.138696  4674 net.cpp:435] pool1 <- conv1
I0330 22:34:05.138701  4674 net.cpp:409] pool1 -> pool1
I0330 22:34:05.138742  4674 net.cpp:141] Setting up pool1
I0330 22:34:05.138747  4674 net.cpp:148] Top shape: 500 20 12 12 (1440000)
I0330 22:34:05.138761  4674 net.cpp:156] Memory required for data: 30374000
I0330 22:34:05.138766  4674 layer_factory.hpp:77] Creating layer conv2
I0330 22:34:05.138773  4674 net.cpp:91] Creating Layer conv2
I0330 22:34:05.138783  4674 net.cpp:435] conv2 <- pool1
I0330 22:34:05.138788  4674 net.cpp:409] conv2 -> conv2
I0330 22:34:05.139922  4674 net.cpp:141] Setting up conv2
I0330 22:34:05.139940  4674 net.cpp:148] Top shape: 500 50 8 8 (1600000)
I0330 22:34:05.139957  4674 net.cpp:156] Memory required for data: 36774000
I0330 22:34:05.139966  4674 layer_factory.hpp:77] Creating layer pool2
I0330 22:34:05.139976  4674 net.cpp:91] Creating Layer pool2
I0330 22:34:05.139979  4674 net.cpp:435] pool2 <- conv2
I0330 22:34:05.139986  4674 net.cpp:409] pool2 -> pool2
I0330 22:34:05.140018  4674 net.cpp:141] Setting up pool2
I0330 22:34:05.140023  4674 net.cpp:148] Top shape: 500 50 4 4 (400000)
I0330 22:34:05.140027  4674 net.cpp:156] Memory required for data: 38374000
I0330 22:34:05.140028  4674 layer_factory.hpp:77] Creating layer ip1
I0330 22:34:05.140034  4674 net.cpp:91] Creating Layer ip1
I0330 22:34:05.140039  4674 net.cpp:435] ip1 <- pool2
I0330 22:34:05.140043  4674 net.cpp:409] ip1 -> ip1
I0330 22:34:05.143482  4674 net.cpp:141] Setting up ip1
I0330 22:34:05.143509  4674 net.cpp:148] Top shape: 500 500 (250000)
I0330 22:34:05.143518  4674 net.cpp:156] Memory required for data: 39374000
I0330 22:34:05.143532  4674 layer_factory.hpp:77] Creating layer relu1
I0330 22:34:05.143537  4674 net.cpp:91] Creating Layer relu1
I0330 22:34:05.143542  4674 net.cpp:435] relu1 <- ip1
I0330 22:34:05.143545  4674 net.cpp:396] relu1 -> ip1 (in-place)
I0330 22:34:05.144140  4674 net.cpp:141] Setting up relu1
I0330 22:34:05.144152  4674 net.cpp:148] Top shape: 500 500 (250000)
I0330 22:34:05.144165  4674 net.cpp:156] Memory required for data: 40374000
I0330 22:34:05.144170  4674 layer_factory.hpp:77] Creating layer drop
I0330 22:34:05.144181  4674 net.cpp:91] Creating Layer drop
I0330 22:34:05.144186  4674 net.cpp:435] drop <- ip1
I0330 22:34:05.144191  4674 net.cpp:396] drop -> ip1 (in-place)
I0330 22:34:05.144213  4674 net.cpp:141] Setting up drop
I0330 22:34:05.144220  4674 net.cpp:148] Top shape: 500 500 (250000)
I0330 22:34:05.144222  4674 net.cpp:156] Memory required for data: 41374000
I0330 22:34:05.144227  4674 layer_factory.hpp:77] Creating layer ip2
I0330 22:34:05.144243  4674 net.cpp:91] Creating Layer ip2
I0330 22:34:05.144246  4674 net.cpp:435] ip2 <- ip1
I0330 22:34:05.144253  4674 net.cpp:409] ip2 -> ip2
I0330 22:34:05.144379  4674 net.cpp:141] Setting up ip2
I0330 22:34:05.144397  4674 net.cpp:148] Top shape: 500 10 (5000)
I0330 22:34:05.144410  4674 net.cpp:156] Memory required for data: 41394000
I0330 22:34:05.144417  4674 layer_factory.hpp:77] Creating layer ip2_ip2_0_split
I0330 22:34:05.144421  4674 net.cpp:91] Creating Layer ip2_ip2_0_split
I0330 22:34:05.144424  4674 net.cpp:435] ip2_ip2_0_split <- ip2
I0330 22:34:05.144428  4674 net.cpp:409] ip2_ip2_0_split -> ip2_ip2_0_split_0
I0330 22:34:05.144433  4674 net.cpp:409] ip2_ip2_0_split -> ip2_ip2_0_split_1
I0330 22:34:05.144459  4674 net.cpp:141] Setting up ip2_ip2_0_split
I0330 22:34:05.144465  4674 net.cpp:148] Top shape: 500 10 (5000)
I0330 22:34:05.144470  4674 net.cpp:148] Top shape: 500 10 (5000)
I0330 22:34:05.144474  4674 net.cpp:156] Memory required for data: 41434000
I0330 22:34:05.144476  4674 layer_factory.hpp:77] Creating layer accuracy
I0330 22:34:05.144490  4674 net.cpp:91] Creating Layer accuracy
I0330 22:34:05.144495  4674 net.cpp:435] accuracy <- ip2_ip2_0_split_0
I0330 22:34:05.144500  4674 net.cpp:435] accuracy <- label_mnist_1_split_0
I0330 22:34:05.144503  4674 net.cpp:409] accuracy -> accuracy
…
