…
I0317 16:29:34.642351  6212 net.cpp:323] The NetState phase (0) differed from the phase (1) specified by a rule in layer accuracy
I0317 16:29:34.642447  6212 net.cpp:49] Initializing net from parameters: 
state {
  phase: TRAIN
}
layer {
  name: "data"
  type: "ImageData"
  top: "data"
  top: "label"
  include {
    phase: TRAIN
  }
  image_data_param {
    source: "/home/nikoong/Algorithm_test/handwritting/data/txt/finish/train.txt"
    scale: 0.00390625
    batch_size: 100
    shuffle: true
    new_height: 28
    new_width: 28
    is_color: false
  }
}
layer {
  name: "conv1"
  type: "Convolution"
  bottom: "data"
  top: "conv1"
  param {
    lr_mult: 1
  }
  param {
    lr_mult: 2
  }
  convolution_param {
    num_output: 20
    kernel_size: 5
    stride: 1
    weight_filler {
      type: "xavier"
    }
    bias_filler {
      type: "constant"
    }
  }
}
layer {
  name: "pool1"
  type: "Pooling"
  bottom: "conv1"
  top: "pool1"
  pooling_param {
    pool: MAX
    kernel_size: 2
    stride: 2
  }
}
layer {
  name: "conv2"
  type: "Convolution"
  bottom: "pool1"
  top: "conv2"
  param {
    lr_mult: 1
  }
  param {
    lr_mult: 2
  }
  convolution_param {
    num_output: 50
    kernel_size: 5
    stride: 1
    weight_filler {
      type: "xavier"
    }
    bias_filler {
      type: "constant"
    }
  }
}
layer {
  name: "pool2"
  type: "Pooling"
  bottom: "conv2"
  top: "pool2"
  pooling_param {
    pool: MAX
    kernel_size: 2
    stride: 2
  }
}
layer {
  name: "ip1"
  type: "InnerProduct"
  bottom: "pool2"
  top: "ip1"
  param {
    lr_mult: 1
  }
  param {
    lr_mult: 2
  }
  inner_product_param {
    num_output: 500
    weight_filler {
      type: "xavier"
    }
    bias_filler {
      type: "constant"
    }
  }
}
layer {
  name: "relu1"
  type: "ReLU"
  bottom: "ip1"
  top: "ip1"
}
layer {
  name: "ip2"
  type: "InnerProduct"
  bottom: "ip1"
  top: "ip2"
  param {
    lr_mult: 1
  }
  param {
    lr_mult: 2
  }
  inner_product_param {
    num_output: 10
    weight_filler {
      type: "xavier"
    }
    bias_filler {
      type: "constant"
    }
  }
}
layer {
  name: "loss"
  type: "SoftmaxWithLoss"
  bottom: "ip2"
  bottom: "label"
  top: "loss"
}
I0317 16:29:34.642503  6212 layer_factory.hpp:77] Creating layer data
I0317 16:29:34.642531  6212 net.cpp:91] Creating Layer data
I0317 16:29:34.642537  6212 net.cpp:409] data -> data
I0317 16:29:34.642568  6212 net.cpp:409] data -> label
I0317 16:29:34.642581  6212 image_data_layer.cpp:37] Opening file /home/nikoong/Algorithm_test/handwritting/data/txt/finish/train.txt
I0317 16:29:34.667114  6212 image_data_layer.cpp:47] Shuffling data
I0317 16:29:34.681779  6212 image_data_layer.cpp:52] A total of 83067 images.
I0317 16:29:34.800974  6212 image_data_layer.cpp:79] output data size: 100,1,28,28
I0317 16:29:34.802992  6212 net.cpp:141] Setting up data
I0317 16:29:34.803027  6212 net.cpp:148] Top shape: 100 1 28 28 (78400)
I0317 16:29:34.803032  6212 net.cpp:148] Top shape: 100 (100)
I0317 16:29:34.803035  6212 net.cpp:156] Memory required for data: 314000
I0317 16:29:34.803050  6212 layer_factory.hpp:77] Creating layer conv1
I0317 16:29:34.803072  6212 net.cpp:91] Creating Layer conv1
I0317 16:29:34.803078  6212 net.cpp:435] conv1 <- data
I0317 16:29:34.803089  6212 net.cpp:409] conv1 -> conv1
I0317 16:29:35.108248  6212 net.cpp:141] Setting up conv1
I0317 16:29:35.108289  6212 net.cpp:148] Top shape: 100 20 24 24 (1152000)
I0317 16:29:35.108294  6212 net.cpp:156] Memory required for data: 4922000
I0317 16:29:35.108309  6212 layer_factory.hpp:77] Creating layer pool1
I0317 16:29:35.108321  6212 net.cpp:91] Creating Layer pool1
I0317 16:29:35.108325  6212 net.cpp:435] pool1 <- conv1
I0317 16:29:35.108330  6212 net.cpp:409] pool1 -> pool1
I0317 16:29:35.108391  6212 net.cpp:141] Setting up pool1
I0317 16:29:35.108397  6212 net.cpp:148] Top shape: 100 20 12 12 (288000)
I0317 16:29:35.108398  6212 net.cpp:156] Memory required for data: 6074000
I0317 16:29:35.108400  6212 layer_factory.hpp:77] Creating layer conv2
I0317 16:29:35.108410  6212 net.cpp:91] Creating Layer conv2
I0317 16:29:35.108413  6212 net.cpp:435] conv2 <- pool1
I0317 16:29:35.108417  6212 net.cpp:409] conv2 -> conv2
I0317 16:29:35.110591  6212 net.cpp:141] Setting up conv2
I0317 16:29:35.110604  6212 net.cpp:148] Top shape: 100 50 8 8 (320000)
I0317 16:29:35.110606  6212 net.cpp:156] Memory required for data: 7354000
I0317 16:29:35.110613  6212 layer_factory.hpp:77] Creating layer pool2
I0317 16:29:35.110620  6212 net.cpp:91] Creating Layer pool2
I0317 16:29:35.110622  6212 net.cpp:435] pool2 <- conv2
I0317 16:29:35.110636  6212 net.cpp:409] pool2 -> pool2
I0317 16:29:35.110664  6212 net.cpp:141] Setting up pool2
I0317 16:29:35.110669  6212 net.cpp:148] Top shape: 100 50 4 4 (80000)
I0317 16:29:35.110682  6212 net.cpp:156] Memory required for data: 7674000
I0317 16:29:35.110684  6212 layer_factory.hpp:77] Creating layer ip1
I0317 16:29:35.110689  6212 net.cpp:91] Creating Layer ip1
I0317 16:29:35.110692  6212 net.cpp:435] ip1 <- pool2
I0317 16:29:35.110695  6212 net.cpp:409] ip1 -> ip1
I0317 16:29:35.114053  6212 net.cpp:141] Setting up ip1
I0317 16:29:35.114063  6212 net.cpp:148] Top shape: 100 500 (50000)
I0317 16:29:35.114066  6212 net.cpp:156] Memory required for data: 7874000
I0317 16:29:35.114073  6212 layer_factory.hpp:77] Creating layer relu1
I0317 16:29:35.114078  6212 net.cpp:91] Creating Layer relu1
I0317 16:29:35.114081  6212 net.cpp:435] relu1 <- ip1
I0317 16:29:35.114095  6212 net.cpp:396] relu1 -> ip1 (in-place)
I0317 16:29:35.114239  6212 net.cpp:141] Setting up relu1
I0317 16:29:35.114248  6212 net.cpp:148] Top shape: 100 500 (50000)
I0317 16:29:35.114249  6212 net.cpp:156] Memory required for data: 8074000
I0317 16:29:35.114253  6212 layer_factory.hpp:77] Creating layer ip2
I0317 16:29:35.114258  6212 net.cpp:91] Creating Layer ip2
I0317 16:29:35.114259  6212 net.cpp:435] ip2 <- ip1
I0317 16:29:35.114264  6212 net.cpp:409] ip2 -> ip2
I0317 16:29:35.115027  6212 net.cpp:141] Setting up ip2
I0317 16:29:35.115038  6212 net.cpp:148] Top shape: 100 10 (1000)
I0317 16:29:35.115041  6212 net.cpp:156] Memory required for data: 8078000
I0317 16:29:35.115046  6212 layer_factory.hpp:77] Creating layer loss
I0317 16:29:35.115051  6212 net.cpp:91] Creating Layer loss
I0317 16:29:35.115054  6212 net.cpp:435] loss <- ip2
I0317 16:29:35.115057  6212 net.cpp:435] loss <- label
I0317 16:29:35.115072  6212 net.cpp:409] loss -> loss
I0317 16:29:35.115083  6212 layer_factory.hpp:77] Creating layer loss
…
I0317 16:29:35.115576  6212 solver.cpp:181] Creating test net (#0) specified by net file: /home/nikoong/Algorithm_test/handwritting/lenet/lenet_my.prototxt
I0317 16:29:35.115597  6212 net.cpp:323] The NetState phase (1) differed from the phase (0) specified by a rule in layer data
I0317 16:29:35.115698  6212 net.cpp:49] Initializing net from parameters: 
state {
  phase: TEST
}
layer {
  name: "data"
  type: "ImageData"
  top: "data"
  top: "label"
  include {
    phase: TEST
  }
  image_data_param {
    source: "/home/nikoong/Algorithm_test/handwritting/data/txt/finish/val.txt"
    batch_size: 300
    new_height: 28
    new_width: 28
    is_color: false
  }
}
layer {
  name: "conv1"
  type: "Convolution"
  bottom: "data"
  top: "conv1"
  param {
    lr_mult: 1
  }
  param {
    lr_mult: 2
  }
  convolution_param {
    num_output: 20
    kernel_size: 5
    stride: 1
    weight_filler {
      type: "xavier"
    }
    bias_filler {
      type: "constant"
    }
  }
}
layer {
  name: "pool1"
  type: "Pooling"
  bottom: "conv1"
  top: "pool1"
  pooling_param {
    pool: MAX
    kernel_size: 2
    stride: 2
  }
}
layer {
  name: "conv2"
  type: "Convolution"
  bottom: "pool1"
  top: "conv2"
  param {
    lr_mult: 1
  }
  param {
    lr_mult: 2
  }
  convolution_param {
    num_output: 50
    kernel_size: 5
    stride: 1
    weight_filler {
      type: "xavier"
    }
    bias_filler {
      type: "constant"
    }
  }
}
layer {
  name: "pool2"
  type: "Pooling"
  bottom: "conv2"
  top: "pool2"
  pooling_param {
    pool: MAX
    kernel_size: 2
    stride: 2
  }
}
layer {
  name: "ip1"
  type: "InnerProduct"
  bottom: "pool2"
  top: "ip1"
  param {
    lr_mult: 1
  }
  param {
    lr_mult: 2
  }
  inner_product_param {
    num_output: 500
    weight_filler {
      type: "xavier"
    }
    bias_filler {
      type: "constant"
    }
  }
}
layer {
  name: "relu1"
  type: "ReLU"
  bottom: "ip1"
  top: "ip1"
}
layer {
  name: "ip2"
  type: "InnerProduct"
  bottom: "ip1"
  top: "ip2"
  param {
    lr_mult: 1
  }
  param {
    lr_mult: 2
  }
  inner_product_param {
    num_output: 10
    weight_filler {
      type: "xavier"
    }
    bias_filler {
      type: "constant"
    }
  }
}
layer {
  name: "accuracy"
  type: "Accuracy"
  bottom: "ip2"
  bottom: "label"
  top: "accuracy"
  include {
    phase: TEST
  }
}
layer {
  name: "loss"
  type: "SoftmaxWithLoss"
  bottom: "ip2"
  bottom: "label"
  top: "loss"
}
I0317 16:29:35.115752  6212 layer_factory.hpp:77] Creating layer data
I0317 16:29:35.115763  6212 net.cpp:91] Creating Layer data
I0317 16:29:35.115767  6212 net.cpp:409] data -> data
I0317 16:29:35.115772  6212 net.cpp:409] data -> label
I0317 16:29:35.115778  6212 image_data_layer.cpp:37] Opening file /home/nikoong/Algorithm_test/handwritting/data/txt/finish/val.txt
I0317 16:29:35.129698  6212 image_data_layer.cpp:52] A total of 49840 images.
I0317 16:29:35.129917  6212 image_data_layer.cpp:79] output data size: 300,1,28,28
I0317 16:29:35.133707  6212 net.cpp:141] Setting up data
I0317 16:29:35.133731  6212 net.cpp:148] Top shape: 300 1 28 28 (235200)
I0317 16:29:35.133736  6212 net.cpp:148] Top shape: 300 (300)
I0317 16:29:35.133738  6212 net.cpp:156] Memory required for data: 942000
I0317 16:29:35.133744  6212 layer_factory.hpp:77] Creating layer label_data_1_split
I0317 16:29:35.133762  6212 net.cpp:91] Creating Layer label_data_1_split
I0317 16:29:35.133765  6212 net.cpp:435] label_data_1_split <- label
I0317 16:29:35.133772  6212 net.cpp:409] label_data_1_split -> label_data_1_split_0
I0317 16:29:35.133780  6212 net.cpp:409] label_data_1_split -> label_data_1_split_1
I0317 16:29:35.133853  6212 net.cpp:141] Setting up label_data_1_split
I0317 16:29:35.133860  6212 net.cpp:148] Top shape: 300 (300)
I0317 16:29:35.133873  6212 net.cpp:148] Top shape: 300 (300)
I0317 16:29:35.133875  6212 net.cpp:156] Memory required for data: 944400
I0317 16:29:35.133898  6212 layer_factory.hpp:77] Creating layer conv1
I0317 16:29:35.133909  6212 net.cpp:91] Creating Layer conv1
I0317 16:29:35.133911  6212 net.cpp:435] conv1 <- data
I0317 16:29:35.133918  6212 net.cpp:409] conv1 -> conv1
I0317 16:29:35.135669  6212 net.cpp:141] Setting up conv1
I0317 16:29:35.135682  6212 net.cpp:148] Top shape: 300 20 24 24 (3456000)
I0317 16:29:35.135685  6212 net.cpp:156] Memory required for data: 14768400
I0317 16:29:35.135694  6212 layer_factory.hpp:77] Creating layer pool1
I0317 16:29:35.135699  6212 net.cpp:91] Creating Layer pool1
I0317 16:29:35.135702  6212 net.cpp:435] pool1 <- conv1
I0317 16:29:35.135707  6212 net.cpp:409] pool1 -> pool1
I0317 16:29:35.135738  6212 net.cpp:141] Setting up pool1
I0317 16:29:35.135742  6212 net.cpp:148] Top shape: 300 20 12 12 (864000)
I0317 16:29:35.135746  6212 net.cpp:156] Memory required for data: 18224400
I0317 16:29:35.135747  6212 layer_factory.hpp:77] Creating layer conv2
I0317 16:29:35.135756  6212 net.cpp:91] Creating Layer conv2
I0317 16:29:35.135759  6212 net.cpp:435] conv2 <- pool1
I0317 16:29:35.135764  6212 net.cpp:409] conv2 -> conv2
I0317 16:29:35.137053  6212 net.cpp:141] Setting up conv2
I0317 16:29:35.137063  6212 net.cpp:148] Top shape: 300 50 8 8 (960000)
I0317 16:29:35.137078  6212 net.cpp:156] Memory required for data: 22064400
I0317 16:29:35.137084  6212 layer_factory.hpp:77] Creating layer pool2
I0317 16:29:35.137100  6212 net.cpp:91] Creating Layer pool2
I0317 16:29:35.137104  6212 net.cpp:435] pool2 <- conv2
I0317 16:29:35.137109  6212 net.cpp:409] pool2 -> pool2
I0317 16:29:35.137150  6212 net.cpp:141] Setting up pool2
I0317 16:29:35.137156  6212 net.cpp:148] Top shape: 300 50 4 4 (240000)
I0317 16:29:35.137166  6212 net.cpp:156] Memory required for data: 23024400
I0317 16:29:35.137168  6212 layer_factory.hpp:77] Creating layer ip1
I0317 16:29:35.137187  6212 net.cpp:91] Creating Layer ip1
I0317 16:29:35.137190  6212 net.cpp:435] ip1 <- pool2
I0317 16:29:35.137212  6212 net.cpp:409] ip1 -> ip1
I0317 16:29:35.140967  6212 net.cpp:141] Setting up ip1
I0317 16:29:35.140993  6212 net.cpp:148] Top shape: 300 500 (150000)
I0317 16:29:35.140996  6212 net.cpp:156] Memory required for data: 23624400
I0317 16:29:35.141006  6212 layer_factory.hpp:77] Creating layer relu1
I0317 16:29:35.141023  6212 net.cpp:91] Creating Layer relu1
I0317 16:29:35.141026  6212 net.cpp:435] relu1 <- ip1
I0317 16:29:35.141036  6212 net.cpp:396] relu1 -> ip1 (in-place)
I0317 16:29:35.141767  6212 net.cpp:141] Setting up relu1
I0317 16:29:35.141777  6212 net.cpp:148] Top shape: 300 500 (150000)
I0317 16:29:35.141790  6212 net.cpp:156] Memory required for data: 24224400
I0317 16:29:35.141793  6212 layer_factory.hpp:77] Creating layer ip2
I0317 16:29:35.141820  6212 net.cpp:91] Creating Layer ip2
I0317 16:29:35.141824  6212 net.cpp:435] ip2 <- ip1
I0317 16:29:35.141829  6212 net.cpp:409] ip2 -> ip2
I0317 16:29:35.141964  6212 net.cpp:141] Setting up ip2
I0317 16:29:35.141973  6212 net.cpp:148] Top shape: 300 10 (3000)
I0317 16:29:35.141985  6212 net.cpp:156] Memory required for data: 24236400
I0317 16:29:35.141991  6212 layer_factory.hpp:77] Creating layer ip2_ip2_0_split
I0317 16:29:35.141997  6212 net.cpp:91] Creating Layer ip2_ip2_0_split
I0317 16:29:35.141999  6212 net.cpp:435] ip2_ip2_0_split <- ip2
I0317 16:29:35.142004  6212 net.cpp:409] ip2_ip2_0_split -> ip2_ip2_0_split_0
I0317 16:29:35.142009  6212 net.cpp:409] ip2_ip2_0_split -> ip2_ip2_0_split_1
I0317 16:29:35.142035  6212 net.cpp:141] Setting up ip2_ip2_0_split
I0317 16:29:35.142041  6212 net.cpp:148] Top shape: 300 10 (3000)
I0317 16:29:35.142053  6212 net.cpp:148] Top shape: 300 10 (3000)
I0317 16:29:35.142055  6212 net.cpp:156] Memory required for data: 24260400
I0317 16:29:35.142061  6212 layer_factory.hpp:77] Creating layer accuracy
I0317 16:29:35.142068  6212 net.cpp:91] Creating Layer accuracy
I0317 16:29:35.142071  6212 net.cpp:435] accuracy <- ip2_ip2_0_split_0
I0317 16:29:35.142074  6212 net.cpp:435] accuracy <- label_data_1_split_0
I0317 16:29:35.142092  6212 net.cpp:409] accuracy -> accuracy
…
