…
I0317 17:13:02.610303 14531 net.cpp:323] The NetState phase (0) differed from the phase (1) specified by a rule in layer accuracy
I0317 17:13:02.610397 14531 net.cpp:49] Initializing net from parameters: 
state {
  phase: TRAIN
}
layer {
  name: "data"
  type: "ImageData"
  top: "data"
  top: "label"
  include {
    phase: TRAIN
  }
  image_data_param {
    source: "/home/nikoong/Algorithm_test/handwritting/data/txt/finish/train.txt"
    scale: 0.00390625
    batch_size: 20000
    shuffle: true
    new_height: 28
    new_width: 28
    is_color: false
  }
}
layer {
  name: "conv1"
  type: "Convolution"
  bottom: "data"
  top: "conv1"
  param {
    lr_mult: 1
  }
  param {
    lr_mult: 2
  }
  convolution_param {
    num_output: 20
    kernel_size: 5
    stride: 1
    weight_filler {
      type: "xavier"
    }
    bias_filler {
      type: "constant"
    }
  }
}
layer {
  name: "pool1"
  type: "Pooling"
  bottom: "conv1"
  top: "pool1"
  pooling_param {
    pool: MAX
    kernel_size: 2
    stride: 2
  }
}
layer {
  name: "conv2"
  type: "Convolution"
  bottom: "pool1"
  top: "conv2"
  param {
    lr_mult: 1
  }
  param {
    lr_mult: 2
  }
  convolution_param {
    num_output: 50
    kernel_size: 5
    stride: 1
    weight_filler {
      type: "xavier"
    }
    bias_filler {
      type: "constant"
    }
  }
}
layer {
  name: "pool2"
  type: "Pooling"
  bottom: "conv2"
  top: "pool2"
  pooling_param {
    pool: MAX
    kernel_size: 2
    stride: 2
  }
}
layer {
  name: "ip1"
  type: "InnerProduct"
  bottom: "pool2"
  top: "ip1"
  param {
    lr_mult: 1
  }
  param {
    lr_mult: 2
  }
  inner_product_param {
    num_output: 500
    weight_filler {
      type: "xavier"
    }
    bias_filler {
      type: "constant"
    }
  }
}
layer {
  name: "relu1"
  type: "ReLU"
  bottom: "ip1"
  top: "ip1"
}
layer {
  name: "ip2"
  type: "InnerProduct"
  bottom: "ip1"
  top: "ip2"
  param {
    lr_mult: 1
  }
  param {
    lr_mult: 2
  }
  inner_product_param {
    num_output: 10
    weight_filler {
      type: "xavier"
    }
    bias_filler {
      type: "constant"
    }
  }
}
layer {
  name: "loss"
  type: "SoftmaxWithLoss"
  bottom: "ip2"
  bottom: "label"
  top: "loss"
}
I0317 17:13:02.610452 14531 layer_factory.hpp:77] Creating layer data
I0317 17:13:02.610482 14531 net.cpp:91] Creating Layer data
I0317 17:13:02.610488 14531 net.cpp:409] data -> data
I0317 17:13:02.610518 14531 net.cpp:409] data -> label
I0317 17:13:02.610532 14531 image_data_layer.cpp:37] Opening file /home/nikoong/Algorithm_test/handwritting/data/txt/finish/train.txt
I0317 17:13:02.635265 14531 image_data_layer.cpp:47] Shuffling data
I0317 17:13:02.649577 14531 image_data_layer.cpp:52] A total of 83067 images.
I0317 17:13:02.768170 14531 image_data_layer.cpp:79] output data size: 20000,1,28,28
I0317 17:13:02.936879 14531 net.cpp:141] Setting up data
I0317 17:13:02.936923 14531 net.cpp:148] Top shape: 20000 1 28 28 (15680000)
I0317 17:13:02.936928 14531 net.cpp:148] Top shape: 20000 (20000)
I0317 17:13:02.936940 14531 net.cpp:156] Memory required for data: 62800000
I0317 17:13:02.936947 14531 layer_factory.hpp:77] Creating layer conv1
I0317 17:13:02.936969 14531 net.cpp:91] Creating Layer conv1
I0317 17:13:02.936976 14531 net.cpp:435] conv1 <- data
I0317 17:13:02.936985 14531 net.cpp:409] conv1 -> conv1
I0317 17:13:03.309495 14531 net.cpp:141] Setting up conv1
I0317 17:13:03.309527 14531 net.cpp:148] Top shape: 20000 20 24 24 (230400000)
I0317 17:13:03.309531 14531 net.cpp:156] Memory required for data: 984400000
I0317 17:13:03.309558 14531 layer_factory.hpp:77] Creating layer pool1
I0317 17:13:03.309571 14531 net.cpp:91] Creating Layer pool1
I0317 17:13:03.309574 14531 net.cpp:435] pool1 <- conv1
I0317 17:13:03.309581 14531 net.cpp:409] pool1 -> pool1
I0317 17:13:03.309628 14531 net.cpp:141] Setting up pool1
I0317 17:13:03.309634 14531 net.cpp:148] Top shape: 20000 20 12 12 (57600000)
I0317 17:13:03.309646 14531 net.cpp:156] Memory required for data: 1214800000
I0317 17:13:03.309648 14531 layer_factory.hpp:77] Creating layer conv2
I0317 17:13:03.309659 14531 net.cpp:91] Creating Layer conv2
I0317 17:13:03.309660 14531 net.cpp:435] conv2 <- pool1
I0317 17:13:03.309665 14531 net.cpp:409] conv2 -> conv2
I0317 17:13:03.311342 14531 net.cpp:141] Setting up conv2
I0317 17:13:03.311364 14531 net.cpp:148] Top shape: 20000 50 8 8 (64000000)
I0317 17:13:03.311368 14531 net.cpp:156] Memory required for data: 1470800000
I0317 17:13:03.311375 14531 layer_factory.hpp:77] Creating layer pool2
I0317 17:13:03.311391 14531 net.cpp:91] Creating Layer pool2
I0317 17:13:03.311398 14531 net.cpp:435] pool2 <- conv2
I0317 17:13:03.311403 14531 net.cpp:409] pool2 -> pool2
I0317 17:13:03.311441 14531 net.cpp:141] Setting up pool2
I0317 17:13:03.311447 14531 net.cpp:148] Top shape: 20000 50 4 4 (16000000)
I0317 17:13:03.311460 14531 net.cpp:156] Memory required for data: 1534800000
I0317 17:13:03.311462 14531 layer_factory.hpp:77] Creating layer ip1
I0317 17:13:03.311467 14531 net.cpp:91] Creating Layer ip1
I0317 17:13:03.311480 14531 net.cpp:435] ip1 <- pool2
I0317 17:13:03.311484 14531 net.cpp:409] ip1 -> ip1
I0317 17:13:03.314981 14531 net.cpp:141] Setting up ip1
I0317 17:13:03.315011 14531 net.cpp:148] Top shape: 20000 500 (10000000)
I0317 17:13:03.315016 14531 net.cpp:156] Memory required for data: 1574800000
I0317 17:13:03.315022 14531 layer_factory.hpp:77] Creating layer relu1
I0317 17:13:03.315039 14531 net.cpp:91] Creating Layer relu1
I0317 17:13:03.315042 14531 net.cpp:435] relu1 <- ip1
I0317 17:13:03.315047 14531 net.cpp:396] relu1 -> ip1 (in-place)
I0317 17:13:03.315208 14531 net.cpp:141] Setting up relu1
I0317 17:13:03.315217 14531 net.cpp:148] Top shape: 20000 500 (10000000)
I0317 17:13:03.315229 14531 net.cpp:156] Memory required for data: 1614800000
I0317 17:13:03.315232 14531 layer_factory.hpp:77] Creating layer ip2
I0317 17:13:03.315237 14531 net.cpp:91] Creating Layer ip2
I0317 17:13:03.315240 14531 net.cpp:435] ip2 <- ip1
I0317 17:13:03.315254 14531 net.cpp:409] ip2 -> ip2
I0317 17:13:03.316058 14531 net.cpp:141] Setting up ip2
I0317 17:13:03.316069 14531 net.cpp:148] Top shape: 20000 10 (200000)
I0317 17:13:03.316082 14531 net.cpp:156] Memory required for data: 1615600000
I0317 17:13:03.316088 14531 layer_factory.hpp:77] Creating layer loss
I0317 17:13:03.316095 14531 net.cpp:91] Creating Layer loss
I0317 17:13:03.316108 14531 net.cpp:435] loss <- ip2
I0317 17:13:03.316112 14531 net.cpp:435] loss <- label
I0317 17:13:03.316118 14531 net.cpp:409] loss -> loss
I0317 17:13:03.316129 14531 layer_factory.hpp:77] Creating layer loss
…
I0317 17:13:03.316674 14531 solver.cpp:181] Creating test net (#0) specified by net file: /home/nikoong/Algorithm_test/handwritting/lenet/lenet_my.prototxt
I0317 17:13:03.316705 14531 net.cpp:323] The NetState phase (1) differed from the phase (0) specified by a rule in layer data
I0317 17:13:03.316819 14531 net.cpp:49] Initializing net from parameters: 
state {
  phase: TEST
}
layer {
  name: "data"
  type: "ImageData"
  top: "data"
  top: "label"
  include {
    phase: TEST
  }
  image_data_param {
    source: "/home/nikoong/Algorithm_test/handwritting/data/txt/finish/val.txt"
    batch_size: 500
    new_height: 28
    new_width: 28
    is_color: false
  }
}
layer {
  name: "conv1"
  type: "Convolution"
  bottom: "data"
  top: "conv1"
  param {
    lr_mult: 1
  }
  param {
    lr_mult: 2
  }
  convolution_param {
    num_output: 20
    kernel_size: 5
    stride: 1
    weight_filler {
      type: "xavier"
    }
    bias_filler {
      type: "constant"
    }
  }
}
layer {
  name: "pool1"
  type: "Pooling"
  bottom: "conv1"
  top: "pool1"
  pooling_param {
    pool: MAX
    kernel_size: 2
    stride: 2
  }
}
layer {
  name: "conv2"
  type: "Convolution"
  bottom: "pool1"
  top: "conv2"
  param {
    lr_mult: 1
  }
  param {
    lr_mult: 2
  }
  convolution_param {
    num_output: 50
    kernel_size: 5
    stride: 1
    weight_filler {
      type: "xavier"
    }
    bias_filler {
      type: "constant"
    }
  }
}
layer {
  name: "pool2"
  type: "Pooling"
  bottom: "conv2"
  top: "pool2"
  pooling_param {
    pool: MAX
    kernel_size: 2
    stride: 2
  }
}
layer {
  name: "ip1"
  type: "InnerProduct"
  bottom: "pool2"
  top: "ip1"
  param {
    lr_mult: 1
  }
  param {
    lr_mult: 2
  }
  inner_product_param {
    num_output: 500
    weight_filler {
      type: "xavier"
    }
    bias_filler {
      type: "constant"
    }
  }
}
layer {
  name: "relu1"
  type: "ReLU"
  bottom: "ip1"
  top: "ip1"
}
layer {
  name: "ip2"
  type: "InnerProduct"
  bottom: "ip1"
  top: "ip2"
  param {
    lr_mult: 1
  }
  param {
    lr_mult: 2
  }
  inner_product_param {
    num_output: 10
    weight_filler {
      type: "xavier"
    }
    bias_filler {
      type: "constant"
    }
  }
}
layer {
  name: "accuracy"
  type: "Accuracy"
  bottom: "ip2"
  bottom: "label"
  top: "accuracy"
  include {
    phase: TEST
  }
}
layer {
  name: "loss"
  type: "SoftmaxWithLoss"
  bottom: "ip2"
  bottom: "label"
  top: "loss"
}
I0317 17:13:03.316887 14531 layer_factory.hpp:77] Creating layer data
I0317 17:13:03.316898 14531 net.cpp:91] Creating Layer data
I0317 17:13:03.316901 14531 net.cpp:409] data -> data
I0317 17:13:03.316907 14531 net.cpp:409] data -> label
I0317 17:13:03.316915 14531 image_data_layer.cpp:37] Opening file /home/nikoong/Algorithm_test/handwritting/data/txt/finish/val.txt
I0317 17:13:03.331694 14531 image_data_layer.cpp:52] A total of 49840 images.
I0317 17:13:03.331905 14531 image_data_layer.cpp:79] output data size: 500,1,28,28
I0317 17:13:03.339947 14531 net.cpp:141] Setting up data
I0317 17:13:03.339998 14531 net.cpp:148] Top shape: 500 1 28 28 (392000)
I0317 17:13:03.340015 14531 net.cpp:148] Top shape: 500 (500)
I0317 17:13:03.340029 14531 net.cpp:156] Memory required for data: 1570000
I0317 17:13:03.340042 14531 layer_factory.hpp:77] Creating layer label_data_1_split
I0317 17:13:03.340062 14531 net.cpp:91] Creating Layer label_data_1_split
I0317 17:13:03.340076 14531 net.cpp:435] label_data_1_split <- label
I0317 17:13:03.340095 14531 net.cpp:409] label_data_1_split -> label_data_1_split_0
I0317 17:13:03.340116 14531 net.cpp:409] label_data_1_split -> label_data_1_split_1
I0317 17:13:03.340207 14531 net.cpp:141] Setting up label_data_1_split
I0317 17:13:03.340237 14531 net.cpp:148] Top shape: 500 (500)
I0317 17:13:03.340257 14531 net.cpp:148] Top shape: 500 (500)
I0317 17:13:03.340276 14531 net.cpp:156] Memory required for data: 1574000
I0317 17:13:03.340288 14531 layer_factory.hpp:77] Creating layer conv1
I0317 17:13:03.340309 14531 net.cpp:91] Creating Layer conv1
I0317 17:13:03.340322 14531 net.cpp:435] conv1 <- data
I0317 17:13:03.340337 14531 net.cpp:409] conv1 -> conv1
I0317 17:13:03.342743 14531 net.cpp:141] Setting up conv1
I0317 17:13:03.342767 14531 net.cpp:148] Top shape: 500 20 24 24 (5760000)
I0317 17:13:03.342769 14531 net.cpp:156] Memory required for data: 24614000
I0317 17:13:03.342777 14531 layer_factory.hpp:77] Creating layer pool1
I0317 17:13:03.342784 14531 net.cpp:91] Creating Layer pool1
I0317 17:13:03.342788 14531 net.cpp:435] pool1 <- conv1
I0317 17:13:03.342793 14531 net.cpp:409] pool1 -> pool1
I0317 17:13:03.342828 14531 net.cpp:141] Setting up pool1
I0317 17:13:03.342834 14531 net.cpp:148] Top shape: 500 20 12 12 (1440000)
I0317 17:13:03.342836 14531 net.cpp:156] Memory required for data: 30374000
I0317 17:13:03.342839 14531 layer_factory.hpp:77] Creating layer conv2
I0317 17:13:03.342849 14531 net.cpp:91] Creating Layer conv2
I0317 17:13:03.342852 14531 net.cpp:435] conv2 <- pool1
I0317 17:13:03.342856 14531 net.cpp:409] conv2 -> conv2
I0317 17:13:03.344254 14531 net.cpp:141] Setting up conv2
I0317 17:13:03.344266 14531 net.cpp:148] Top shape: 500 50 8 8 (1600000)
I0317 17:13:03.344280 14531 net.cpp:156] Memory required for data: 36774000
I0317 17:13:03.344286 14531 layer_factory.hpp:77] Creating layer pool2
I0317 17:13:03.344292 14531 net.cpp:91] Creating Layer pool2
I0317 17:13:03.344295 14531 net.cpp:435] pool2 <- conv2
I0317 17:13:03.344301 14531 net.cpp:409] pool2 -> pool2
I0317 17:13:03.344336 14531 net.cpp:141] Setting up pool2
I0317 17:13:03.344341 14531 net.cpp:148] Top shape: 500 50 4 4 (400000)
I0317 17:13:03.344342 14531 net.cpp:156] Memory required for data: 38374000
I0317 17:13:03.344346 14531 layer_factory.hpp:77] Creating layer ip1
I0317 17:13:03.344352 14531 net.cpp:91] Creating Layer ip1
I0317 17:13:03.344355 14531 net.cpp:435] ip1 <- pool2
I0317 17:13:03.344360 14531 net.cpp:409] ip1 -> ip1
I0317 17:13:03.348024 14531 net.cpp:141] Setting up ip1
I0317 17:13:03.348047 14531 net.cpp:148] Top shape: 500 500 (250000)
I0317 17:13:03.348050 14531 net.cpp:156] Memory required for data: 39374000
I0317 17:13:03.348059 14531 layer_factory.hpp:77] Creating layer relu1
I0317 17:13:03.348070 14531 net.cpp:91] Creating Layer relu1
I0317 17:13:03.348075 14531 net.cpp:435] relu1 <- ip1
I0317 17:13:03.348081 14531 net.cpp:396] relu1 -> ip1 (in-place)
I0317 17:13:03.348780 14531 net.cpp:141] Setting up relu1
I0317 17:13:03.348790 14531 net.cpp:148] Top shape: 500 500 (250000)
I0317 17:13:03.348803 14531 net.cpp:156] Memory required for data: 40374000
I0317 17:13:03.348808 14531 layer_factory.hpp:77] Creating layer ip2
I0317 17:13:03.348816 14531 net.cpp:91] Creating Layer ip2
I0317 17:13:03.348820 14531 net.cpp:435] ip2 <- ip1
I0317 17:13:03.348825 14531 net.cpp:409] ip2 -> ip2
I0317 17:13:03.348968 14531 net.cpp:141] Setting up ip2
I0317 17:13:03.348976 14531 net.cpp:148] Top shape: 500 10 (5000)
I0317 17:13:03.348989 14531 net.cpp:156] Memory required for data: 40394000
I0317 17:13:03.348994 14531 layer_factory.hpp:77] Creating layer ip2_ip2_0_split
I0317 17:13:03.348999 14531 net.cpp:91] Creating Layer ip2_ip2_0_split
I0317 17:13:03.349002 14531 net.cpp:435] ip2_ip2_0_split <- ip2
I0317 17:13:03.349006 14531 net.cpp:409] ip2_ip2_0_split -> ip2_ip2_0_split_0
I0317 17:13:03.349011 14531 net.cpp:409] ip2_ip2_0_split -> ip2_ip2_0_split_1
I0317 17:13:03.349052 14531 net.cpp:141] Setting up ip2_ip2_0_split
I0317 17:13:03.349058 14531 net.cpp:148] Top shape: 500 10 (5000)
I0317 17:13:03.349061 14531 net.cpp:148] Top shape: 500 10 (5000)
I0317 17:13:03.349068 14531 net.cpp:156] Memory required for data: 40434000
I0317 17:13:03.349072 14531 layer_factory.hpp:77] Creating layer accuracy
I0317 17:13:03.349113 14531 net.cpp:91] Creating Layer accuracy
I0317 17:13:03.349131 14531 net.cpp:435] accuracy <- ip2_ip2_0_split_0
I0317 17:13:03.349135 14531 net.cpp:435] accuracy <- label_data_1_split_0
I0317 17:13:03.349160 14531 net.cpp:409] accuracy -> accuracy
…
