…
I0317 00:53:36.843513  4036 net.cpp:323] The NetState phase (0) differed from the phase (1) specified by a rule in layer accuracy
I0317 00:53:36.843605  4036 net.cpp:49] Initializing net from parameters: 
state {
  phase: TRAIN
}
layer {
  name: "data"
  type: "ImageData"
  top: "data"
  top: "label"
  include {
    phase: TRAIN
  }
  image_data_param {
    source: "/home/nikoong/Algorithm_test/handwritting/data_crop/txt/finish2.txt"
    scale: 0.00390625
    batch_size: 30000
    shuffle: true
    new_height: 28
    new_width: 28
    is_color: false
  }
}
layer {
  name: "conv1"
  type: "Convolution"
  bottom: "data"
  top: "conv1"
  param {
    lr_mult: 1
  }
  param {
    lr_mult: 2
  }
  convolution_param {
    num_output: 20
    kernel_size: 5
    stride: 1
    weight_filler {
      type: "xavier"
    }
    bias_filler {
      type: "constant"
    }
  }
}
layer {
  name: "pool1"
  type: "Pooling"
  bottom: "conv1"
  top: "pool1"
  pooling_param {
    pool: MAX
    kernel_size: 2
    stride: 2
  }
}
layer {
  name: "conv2"
  type: "Convolution"
  bottom: "pool1"
  top: "conv2"
  param {
    lr_mult: 1
  }
  param {
    lr_mult: 2
  }
  convolution_param {
    num_output: 50
    kernel_size: 5
    stride: 1
    weight_filler {
      type: "xavier"
    }
    bias_filler {
      type: "constant"
    }
  }
}
layer {
  name: "pool2"
  type: "Pooling"
  bottom: "conv2"
  top: "pool2"
  pooling_param {
    pool: MAX
    kernel_size: 2
    stride: 2
  }
}
layer {
  name: "ip1"
  type: "InnerProduct"
  bottom: "pool2"
  top: "ip1"
  param {
    lr_mult: 1
  }
  param {
    lr_mult: 2
  }
  inner_product_param {
    num_output: 500
    weight_filler {
      type: "xavier"
    }
    bias_filler {
      type: "constant"
    }
  }
}
layer {
  name: "relu1"
  type: "ReLU"
  bottom: "ip1"
  top: "ip1"
}
layer {
  name: "ip2"
  type: "InnerProduct"
  bottom: "ip1"
  top: "ip2"
  param {
    lr_mult: 1
  }
  param {
    lr_mult: 2
  }
  inner_product_param {
    num_output: 10
    weight_filler {
      type: "xavier"
    }
    bias_filler {
      type: "constant"
    }
  }
}
layer {
  name: "loss"
  type: "SoftmaxWithLoss"
  bottom: "ip2"
  bottom: "label"
  top: "loss"
}
I0317 00:53:36.843655  4036 layer_factory.hpp:77] Creating layer data
I0317 00:53:36.843688  4036 net.cpp:91] Creating Layer data
I0317 00:53:36.843693  4036 net.cpp:409] data -> data
I0317 00:53:36.843722  4036 net.cpp:409] data -> label
I0317 00:53:36.843739  4036 image_data_layer.cpp:37] Opening file /home/nikoong/Algorithm_test/handwritting/data_crop/txt/finish2.txt
I0317 00:53:36.847334  4036 image_data_layer.cpp:47] Shuffling data
I0317 00:53:36.848891  4036 image_data_layer.cpp:52] A total of 11993 images.
I0317 00:53:36.967903  4036 image_data_layer.cpp:79] output data size: 30000,1,28,28
I0317 00:53:37.219990  4036 net.cpp:141] Setting up data
I0317 00:53:37.220048  4036 net.cpp:148] Top shape: 30000 1 28 28 (23520000)
I0317 00:53:37.220057  4036 net.cpp:148] Top shape: 30000 (30000)
I0317 00:53:37.220060  4036 net.cpp:156] Memory required for data: 94200000
I0317 00:53:37.220067  4036 layer_factory.hpp:77] Creating layer conv1
I0317 00:53:37.220093  4036 net.cpp:91] Creating Layer conv1
I0317 00:53:37.220106  4036 net.cpp:435] conv1 <- data
I0317 00:53:37.220118  4036 net.cpp:409] conv1 -> conv1
I0317 00:53:37.610924  4036 net.cpp:141] Setting up conv1
I0317 00:53:37.610954  4036 net.cpp:148] Top shape: 30000 20 24 24 (345600000)
I0317 00:53:37.610958  4036 net.cpp:156] Memory required for data: 1476600000
I0317 00:53:37.610985  4036 layer_factory.hpp:77] Creating layer pool1
I0317 00:53:37.610997  4036 net.cpp:91] Creating Layer pool1
I0317 00:53:37.611001  4036 net.cpp:435] pool1 <- conv1
I0317 00:53:37.611008  4036 net.cpp:409] pool1 -> pool1
I0317 00:53:37.611069  4036 net.cpp:141] Setting up pool1
I0317 00:53:37.611075  4036 net.cpp:148] Top shape: 30000 20 12 12 (86400000)
I0317 00:53:37.611088  4036 net.cpp:156] Memory required for data: 1822200000
I0317 00:53:37.611090  4036 layer_factory.hpp:77] Creating layer conv2
I0317 00:53:37.611100  4036 net.cpp:91] Creating Layer conv2
I0317 00:53:37.611112  4036 net.cpp:435] conv2 <- pool1
I0317 00:53:37.611117  4036 net.cpp:409] conv2 -> conv2
I0317 00:53:37.612738  4036 net.cpp:141] Setting up conv2
I0317 00:53:37.612749  4036 net.cpp:148] Top shape: 30000 50 8 8 (96000000)
I0317 00:53:37.612762  4036 net.cpp:156] Memory required for data: 2206200000
I0317 00:53:37.612771  4036 layer_factory.hpp:77] Creating layer pool2
I0317 00:53:37.612787  4036 net.cpp:91] Creating Layer pool2
I0317 00:53:37.612789  4036 net.cpp:435] pool2 <- conv2
I0317 00:53:37.612794  4036 net.cpp:409] pool2 -> pool2
I0317 00:53:37.612825  4036 net.cpp:141] Setting up pool2
I0317 00:53:37.612840  4036 net.cpp:148] Top shape: 30000 50 4 4 (24000000)
I0317 00:53:37.612843  4036 net.cpp:156] Memory required for data: 2302200000
I0317 00:53:37.612857  4036 layer_factory.hpp:77] Creating layer ip1
I0317 00:53:37.612864  4036 net.cpp:91] Creating Layer ip1
I0317 00:53:37.612866  4036 net.cpp:435] ip1 <- pool2
I0317 00:53:37.612880  4036 net.cpp:409] ip1 -> ip1
I0317 00:53:37.616345  4036 net.cpp:141] Setting up ip1
I0317 00:53:37.616369  4036 net.cpp:148] Top shape: 30000 500 (15000000)
I0317 00:53:37.616371  4036 net.cpp:156] Memory required for data: 2362200000
I0317 00:53:37.616379  4036 layer_factory.hpp:77] Creating layer relu1
I0317 00:53:37.616395  4036 net.cpp:91] Creating Layer relu1
I0317 00:53:37.616399  4036 net.cpp:435] relu1 <- ip1
I0317 00:53:37.616402  4036 net.cpp:396] relu1 -> ip1 (in-place)
I0317 00:53:37.616566  4036 net.cpp:141] Setting up relu1
I0317 00:53:37.616575  4036 net.cpp:148] Top shape: 30000 500 (15000000)
I0317 00:53:37.616587  4036 net.cpp:156] Memory required for data: 2422200000
I0317 00:53:37.616590  4036 layer_factory.hpp:77] Creating layer ip2
I0317 00:53:37.616596  4036 net.cpp:91] Creating Layer ip2
I0317 00:53:37.616598  4036 net.cpp:435] ip2 <- ip1
I0317 00:53:37.616612  4036 net.cpp:409] ip2 -> ip2
I0317 00:53:37.617456  4036 net.cpp:141] Setting up ip2
I0317 00:53:37.617478  4036 net.cpp:148] Top shape: 30000 10 (300000)
I0317 00:53:37.617481  4036 net.cpp:156] Memory required for data: 2423400000
I0317 00:53:37.617488  4036 layer_factory.hpp:77] Creating layer loss
I0317 00:53:37.617506  4036 net.cpp:91] Creating Layer loss
I0317 00:53:37.617508  4036 net.cpp:435] loss <- ip2
I0317 00:53:37.617512  4036 net.cpp:435] loss <- label
I0317 00:53:37.617517  4036 net.cpp:409] loss -> loss
I0317 00:53:37.617530  4036 layer_factory.hpp:77] Creating layer loss
…
I0317 00:53:37.618073  4036 solver.cpp:181] Creating test net (#0) specified by net file: /home/nikoong/Algorithm_test/handwritting/lenet/lenet_my.prototxt
I0317 00:53:37.618110  4036 net.cpp:323] The NetState phase (1) differed from the phase (0) specified by a rule in layer data
I0317 00:53:37.618214  4036 net.cpp:49] Initializing net from parameters: 
state {
  phase: TEST
}
layer {
  name: "data"
  type: "ImageData"
  top: "data"
  top: "label"
  include {
    phase: TEST
  }
  image_data_param {
    source: "/home/nikoong/Algorithm_test/handwritting/data_crop/txt/finish1.txt"
    batch_size: 100
    new_height: 28
    new_width: 28
    is_color: false
  }
}
layer {
  name: "conv1"
  type: "Convolution"
  bottom: "data"
  top: "conv1"
  param {
    lr_mult: 1
  }
  param {
    lr_mult: 2
  }
  convolution_param {
    num_output: 20
    kernel_size: 5
    stride: 1
    weight_filler {
      type: "xavier"
    }
    bias_filler {
      type: "constant"
    }
  }
}
layer {
  name: "pool1"
  type: "Pooling"
  bottom: "conv1"
  top: "pool1"
  pooling_param {
    pool: MAX
    kernel_size: 2
    stride: 2
  }
}
layer {
  name: "conv2"
  type: "Convolution"
  bottom: "pool1"
  top: "conv2"
  param {
    lr_mult: 1
  }
  param {
    lr_mult: 2
  }
  convolution_param {
    num_output: 50
    kernel_size: 5
    stride: 1
    weight_filler {
      type: "xavier"
    }
    bias_filler {
      type: "constant"
    }
  }
}
layer {
  name: "pool2"
  type: "Pooling"
  bottom: "conv2"
  top: "pool2"
  pooling_param {
    pool: MAX
    kernel_size: 2
    stride: 2
  }
}
layer {
  name: "ip1"
  type: "InnerProduct"
  bottom: "pool2"
  top: "ip1"
  param {
    lr_mult: 1
  }
  param {
    lr_mult: 2
  }
  inner_product_param {
    num_output: 500
    weight_filler {
      type: "xavier"
    }
    bias_filler {
      type: "constant"
    }
  }
}
layer {
  name: "relu1"
  type: "ReLU"
  bottom: "ip1"
  top: "ip1"
}
layer {
  name: "ip2"
  type: "InnerProduct"
  bottom: "ip1"
  top: "ip2"
  param {
    lr_mult: 1
  }
  param {
    lr_mult: 2
  }
  inner_product_param {
    num_output: 10
    weight_filler {
      type: "xavier"
    }
    bias_filler {
      type: "constant"
    }
  }
}
layer {
  name: "accuracy"
  type: "Accuracy"
  bottom: "ip2"
  bottom: "label"
  top: "accuracy"
  include {
    phase: TEST
  }
}
layer {
  name: "loss"
  type: "SoftmaxWithLoss"
  bottom: "ip2"
  bottom: "label"
  top: "loss"
}
I0317 00:53:37.618281  4036 layer_factory.hpp:77] Creating layer data
I0317 00:53:37.618294  4036 net.cpp:91] Creating Layer data
I0317 00:53:37.618297  4036 net.cpp:409] data -> data
I0317 00:53:37.618304  4036 net.cpp:409] data -> label
I0317 00:53:37.618310  4036 image_data_layer.cpp:37] Opening file /home/nikoong/Algorithm_test/handwritting/data_crop/txt/finish1.txt
I0317 00:53:37.643813  4036 image_data_layer.cpp:52] A total of 78112 images.
I0317 00:53:37.644027  4036 image_data_layer.cpp:79] output data size: 100,1,28,28
I0317 00:53:37.646245  4036 net.cpp:141] Setting up data
I0317 00:53:37.646261  4036 net.cpp:148] Top shape: 100 1 28 28 (78400)
I0317 00:53:37.646265  4036 net.cpp:148] Top shape: 100 (100)
I0317 00:53:37.646267  4036 net.cpp:156] Memory required for data: 314000
I0317 00:53:37.646282  4036 layer_factory.hpp:77] Creating layer label_data_1_split
I0317 00:53:37.646301  4036 net.cpp:91] Creating Layer label_data_1_split
I0317 00:53:37.646304  4036 net.cpp:435] label_data_1_split <- label
I0317 00:53:37.646311  4036 net.cpp:409] label_data_1_split -> label_data_1_split_0
I0317 00:53:37.646318  4036 net.cpp:409] label_data_1_split -> label_data_1_split_1
I0317 00:53:37.646358  4036 net.cpp:141] Setting up label_data_1_split
I0317 00:53:37.646363  4036 net.cpp:148] Top shape: 100 (100)
I0317 00:53:37.646366  4036 net.cpp:148] Top shape: 100 (100)
I0317 00:53:37.646368  4036 net.cpp:156] Memory required for data: 314800
I0317 00:53:37.646381  4036 layer_factory.hpp:77] Creating layer conv1
I0317 00:53:37.646394  4036 net.cpp:91] Creating Layer conv1
I0317 00:53:37.646397  4036 net.cpp:435] conv1 <- data
I0317 00:53:37.646401  4036 net.cpp:409] conv1 -> conv1
I0317 00:53:37.647934  4036 net.cpp:141] Setting up conv1
I0317 00:53:37.647956  4036 net.cpp:148] Top shape: 100 20 24 24 (1152000)
I0317 00:53:37.647960  4036 net.cpp:156] Memory required for data: 4922800
I0317 00:53:37.647969  4036 layer_factory.hpp:77] Creating layer pool1
I0317 00:53:37.647984  4036 net.cpp:91] Creating Layer pool1
I0317 00:53:37.647989  4036 net.cpp:435] pool1 <- conv1
I0317 00:53:37.647994  4036 net.cpp:409] pool1 -> pool1
I0317 00:53:37.648030  4036 net.cpp:141] Setting up pool1
I0317 00:53:37.648035  4036 net.cpp:148] Top shape: 100 20 12 12 (288000)
I0317 00:53:37.648036  4036 net.cpp:156] Memory required for data: 6074800
I0317 00:53:37.648039  4036 layer_factory.hpp:77] Creating layer conv2
I0317 00:53:37.648048  4036 net.cpp:91] Creating Layer conv2
I0317 00:53:37.648051  4036 net.cpp:435] conv2 <- pool1
I0317 00:53:37.648056  4036 net.cpp:409] conv2 -> conv2
I0317 00:53:37.649425  4036 net.cpp:141] Setting up conv2
I0317 00:53:37.649436  4036 net.cpp:148] Top shape: 100 50 8 8 (320000)
I0317 00:53:37.649449  4036 net.cpp:156] Memory required for data: 7354800
I0317 00:53:37.649457  4036 layer_factory.hpp:77] Creating layer pool2
I0317 00:53:37.649466  4036 net.cpp:91] Creating Layer pool2
I0317 00:53:37.649469  4036 net.cpp:435] pool2 <- conv2
I0317 00:53:37.649477  4036 net.cpp:409] pool2 -> pool2
I0317 00:53:37.649509  4036 net.cpp:141] Setting up pool2
I0317 00:53:37.649519  4036 net.cpp:148] Top shape: 100 50 4 4 (80000)
I0317 00:53:37.649521  4036 net.cpp:156] Memory required for data: 7674800
I0317 00:53:37.649524  4036 layer_factory.hpp:77] Creating layer ip1
I0317 00:53:37.649530  4036 net.cpp:91] Creating Layer ip1
I0317 00:53:37.649533  4036 net.cpp:435] ip1 <- pool2
I0317 00:53:37.649556  4036 net.cpp:409] ip1 -> ip1
I0317 00:53:37.653260  4036 net.cpp:141] Setting up ip1
I0317 00:53:37.653283  4036 net.cpp:148] Top shape: 100 500 (50000)
I0317 00:53:37.653286  4036 net.cpp:156] Memory required for data: 7874800
I0317 00:53:37.653295  4036 layer_factory.hpp:77] Creating layer relu1
I0317 00:53:37.653301  4036 net.cpp:91] Creating Layer relu1
I0317 00:53:37.653306  4036 net.cpp:435] relu1 <- ip1
I0317 00:53:37.653312  4036 net.cpp:396] relu1 -> ip1 (in-place)
I0317 00:53:37.654147  4036 net.cpp:141] Setting up relu1
I0317 00:53:37.654160  4036 net.cpp:148] Top shape: 100 500 (50000)
I0317 00:53:37.654172  4036 net.cpp:156] Memory required for data: 8074800
I0317 00:53:37.654175  4036 layer_factory.hpp:77] Creating layer ip2
I0317 00:53:37.654184  4036 net.cpp:91] Creating Layer ip2
I0317 00:53:37.654188  4036 net.cpp:435] ip2 <- ip1
I0317 00:53:37.654193  4036 net.cpp:409] ip2 -> ip2
I0317 00:53:37.654330  4036 net.cpp:141] Setting up ip2
I0317 00:53:37.654335  4036 net.cpp:148] Top shape: 100 10 (1000)
I0317 00:53:37.654348  4036 net.cpp:156] Memory required for data: 8078800
I0317 00:53:37.654353  4036 layer_factory.hpp:77] Creating layer ip2_ip2_0_split
I0317 00:53:37.654361  4036 net.cpp:91] Creating Layer ip2_ip2_0_split
I0317 00:53:37.654363  4036 net.cpp:435] ip2_ip2_0_split <- ip2
I0317 00:53:37.654369  4036 net.cpp:409] ip2_ip2_0_split -> ip2_ip2_0_split_0
I0317 00:53:37.654376  4036 net.cpp:409] ip2_ip2_0_split -> ip2_ip2_0_split_1
I0317 00:53:37.654407  4036 net.cpp:141] Setting up ip2_ip2_0_split
I0317 00:53:37.654412  4036 net.cpp:148] Top shape: 100 10 (1000)
I0317 00:53:37.654420  4036 net.cpp:148] Top shape: 100 10 (1000)
I0317 00:53:37.654422  4036 net.cpp:156] Memory required for data: 8086800
I0317 00:53:37.654425  4036 layer_factory.hpp:77] Creating layer accuracy
I0317 00:53:37.654430  4036 net.cpp:91] Creating Layer accuracy
I0317 00:53:37.654433  4036 net.cpp:435] accuracy <- ip2_ip2_0_split_0
I0317 00:53:37.654436  4036 net.cpp:435] accuracy <- label_data_1_split_0
I0317 00:53:37.654508  4036 net.cpp:409] accuracy -> accuracy
…
