…
I0320 15:48:12.033908  6251 net.cpp:323] The NetState phase (0) differed from the phase (1) specified by a rule in layer mnist
I0320 15:48:12.033923  6251 net.cpp:323] The NetState phase (0) differed from the phase (1) specified by a rule in layer accuracy
I0320 15:48:12.034018  6251 net.cpp:49] Initializing net from parameters: 
name: "LeNet"
state {
  phase: TRAIN
}
layer {
  name: "mnist"
  type: "Data"
  top: "data"
  top: "label"
  include {
    phase: TRAIN
  }
  transform_param {
    scale: 0.00390625
  }
  data_param {
    source: "/home/nikoong/Algorithm_test/handwritting/data/lmdb/finish/train_lmdb"
    batch_size: 20000
    backend: LMDB
  }
}
layer {
  name: "conv1"
  type: "Convolution"
  bottom: "data"
  top: "conv1"
  param {
    lr_mult: 1
  }
  param {
    lr_mult: 2
  }
  convolution_param {
    num_output: 20
    kernel_size: 5
    stride: 1
    weight_filler {
      type: "xavier"
    }
    bias_filler {
      type: "constant"
    }
  }
}
layer {
  name: "pool1"
  type: "Pooling"
  bottom: "conv1"
  top: "pool1"
  pooling_param {
    pool: MAX
    kernel_size: 2
    stride: 2
  }
}
layer {
  name: "conv2"
  type: "Convolution"
  bottom: "pool1"
  top: "conv2"
  param {
    lr_mult: 1
  }
  param {
    lr_mult: 2
  }
  convolution_param {
    num_output: 50
    kernel_size: 5
    stride: 1
    weight_filler {
      type: "xavier"
    }
    bias_filler {
      type: "constant"
    }
  }
}
layer {
  name: "pool2"
  type: "Pooling"
  bottom: "conv2"
  top: "pool2"
  pooling_param {
    pool: MAX
    kernel_size: 2
    stride: 2
  }
}
layer {
  name: "ip1"
  type: "InnerProduct"
  bottom: "pool2"
  top: "ip1"
  param {
    lr_mult: 1
  }
  param {
    lr_mult: 2
  }
  inner_product_param {
    num_output: 500
    weight_filler {
      type: "xavier"
    }
    bias_filler {
      type: "constant"
    }
  }
}
layer {
  name: "relu1"
  type: "ReLU"
  bottom: "ip1"
  top: "ip1"
}
layer {
  name: "ip2"
  type: "InnerProduct"
  bottom: "ip1"
  top: "ip2"
  param {
    lr_mult: 1
  }
  param {
    lr_mult: 2
  }
  inner_product_param {
    num_output: 10
    weight_filler {
      type: "xavier"
    }
    bias_filler {
      type: "constant"
    }
  }
}
layer {
  name: "loss"
  type: "SoftmaxWithLoss"
  bottom: "ip2"
  bottom: "label"
  top: "loss"
}
I0320 15:48:12.034076  6251 layer_factory.hpp:77] Creating layer mnist
I0320 15:48:12.042253  6251 net.cpp:91] Creating Layer mnist
I0320 15:48:12.042284  6251 net.cpp:409] mnist -> data
I0320 15:48:12.042333  6251 net.cpp:409] mnist -> label
I0320 15:48:12.043107  6258 db_lmdb.cpp:40] Opened lmdb /home/nikoong/Algorithm_test/handwritting/data/lmdb/finish/train_lmdb
I0320 15:48:12.066877  6251 data_layer.cpp:41] output data size: 20000,1,28,28
I0320 15:48:12.237210  6251 net.cpp:141] Setting up mnist
I0320 15:48:12.237254  6251 net.cpp:148] Top shape: 20000 1 28 28 (15680000)
I0320 15:48:12.237270  6251 net.cpp:148] Top shape: 20000 (20000)
I0320 15:48:12.237273  6251 net.cpp:156] Memory required for data: 62800000
I0320 15:48:12.237282  6251 layer_factory.hpp:77] Creating layer conv1
I0320 15:48:12.237308  6251 net.cpp:91] Creating Layer conv1
I0320 15:48:12.237313  6251 net.cpp:435] conv1 <- data
I0320 15:48:12.237324  6251 net.cpp:409] conv1 -> conv1
I0320 15:48:12.748149  6251 net.cpp:141] Setting up conv1
I0320 15:48:12.748177  6251 net.cpp:148] Top shape: 20000 20 24 24 (230400000)
I0320 15:48:12.748183  6251 net.cpp:156] Memory required for data: 984400000
I0320 15:48:12.748217  6251 layer_factory.hpp:77] Creating layer pool1
I0320 15:48:12.748230  6251 net.cpp:91] Creating Layer pool1
I0320 15:48:12.748237  6251 net.cpp:435] pool1 <- conv1
I0320 15:48:12.748242  6251 net.cpp:409] pool1 -> pool1
I0320 15:48:12.748282  6251 net.cpp:141] Setting up pool1
I0320 15:48:12.748289  6251 net.cpp:148] Top shape: 20000 20 12 12 (57600000)
I0320 15:48:12.748309  6251 net.cpp:156] Memory required for data: 1214800000
I0320 15:48:12.748312  6251 layer_factory.hpp:77] Creating layer conv2
I0320 15:48:12.748322  6251 net.cpp:91] Creating Layer conv2
I0320 15:48:12.748329  6251 net.cpp:435] conv2 <- pool1
I0320 15:48:12.748334  6251 net.cpp:409] conv2 -> conv2
I0320 15:48:12.749868  6251 net.cpp:141] Setting up conv2
I0320 15:48:12.749883  6251 net.cpp:148] Top shape: 20000 50 8 8 (64000000)
I0320 15:48:12.749886  6251 net.cpp:156] Memory required for data: 1470800000
I0320 15:48:12.749893  6251 layer_factory.hpp:77] Creating layer pool2
I0320 15:48:12.749900  6251 net.cpp:91] Creating Layer pool2
I0320 15:48:12.749912  6251 net.cpp:435] pool2 <- conv2
I0320 15:48:12.749918  6251 net.cpp:409] pool2 -> pool2
I0320 15:48:12.749958  6251 net.cpp:141] Setting up pool2
I0320 15:48:12.749974  6251 net.cpp:148] Top shape: 20000 50 4 4 (16000000)
I0320 15:48:12.750011  6251 net.cpp:156] Memory required for data: 1534800000
I0320 15:48:12.750016  6251 layer_factory.hpp:77] Creating layer ip1
I0320 15:48:12.750022  6251 net.cpp:91] Creating Layer ip1
I0320 15:48:12.750025  6251 net.cpp:435] ip1 <- pool2
I0320 15:48:12.750030  6251 net.cpp:409] ip1 -> ip1
I0320 15:48:12.753530  6251 net.cpp:141] Setting up ip1
I0320 15:48:12.753552  6251 net.cpp:148] Top shape: 20000 500 (10000000)
I0320 15:48:12.753556  6251 net.cpp:156] Memory required for data: 1574800000
I0320 15:48:12.753566  6251 layer_factory.hpp:77] Creating layer relu1
I0320 15:48:12.753574  6251 net.cpp:91] Creating Layer relu1
I0320 15:48:12.753578  6251 net.cpp:435] relu1 <- ip1
I0320 15:48:12.753584  6251 net.cpp:396] relu1 -> ip1 (in-place)
I0320 15:48:12.753775  6251 net.cpp:141] Setting up relu1
I0320 15:48:12.753820  6251 net.cpp:148] Top shape: 20000 500 (10000000)
I0320 15:48:12.753828  6251 net.cpp:156] Memory required for data: 1614800000
I0320 15:48:12.753830  6251 layer_factory.hpp:77] Creating layer ip2
I0320 15:48:12.753849  6251 net.cpp:91] Creating Layer ip2
I0320 15:48:12.753851  6251 net.cpp:435] ip2 <- ip1
I0320 15:48:12.753857  6251 net.cpp:409] ip2 -> ip2
I0320 15:48:12.754678  6251 net.cpp:141] Setting up ip2
I0320 15:48:12.754691  6251 net.cpp:148] Top shape: 20000 10 (200000)
I0320 15:48:12.754694  6251 net.cpp:156] Memory required for data: 1615600000
I0320 15:48:12.754700  6251 layer_factory.hpp:77] Creating layer loss
I0320 15:48:12.754708  6251 net.cpp:91] Creating Layer loss
I0320 15:48:12.754714  6251 net.cpp:435] loss <- ip2
I0320 15:48:12.754719  6251 net.cpp:435] loss <- label
I0320 15:48:12.754724  6251 net.cpp:409] loss -> loss
I0320 15:48:12.754742  6251 layer_factory.hpp:77] Creating layer loss
…
I0320 15:48:12.755265  6251 solver.cpp:181] Creating test net (#0) specified by net file: /home/nikoong/Algorithm_test/handwritting/lenet/lenet_lmdb.prototxt
I0320 15:48:12.755295  6251 net.cpp:323] The NetState phase (1) differed from the phase (0) specified by a rule in layer mnist
I0320 15:48:12.755389  6251 net.cpp:49] Initializing net from parameters: 
name: "LeNet"
state {
  phase: TEST
}
layer {
  name: "mnist"
  type: "Data"
  top: "data"
  top: "label"
  include {
    phase: TEST
  }
  transform_param {
    scale: 0.00390625
  }
  data_param {
    source: "/home/nikoong/Algorithm_test/handwritting/data/lmdb/finish/val_lmdb"
    batch_size: 500
    backend: LMDB
  }
}
layer {
  name: "conv1"
  type: "Convolution"
  bottom: "data"
  top: "conv1"
  param {
    lr_mult: 1
  }
  param {
    lr_mult: 2
  }
  convolution_param {
    num_output: 20
    kernel_size: 5
    stride: 1
    weight_filler {
      type: "xavier"
    }
    bias_filler {
      type: "constant"
    }
  }
}
layer {
  name: "pool1"
  type: "Pooling"
  bottom: "conv1"
  top: "pool1"
  pooling_param {
    pool: MAX
    kernel_size: 2
    stride: 2
  }
}
layer {
  name: "conv2"
  type: "Convolution"
  bottom: "pool1"
  top: "conv2"
  param {
    lr_mult: 1
  }
  param {
    lr_mult: 2
  }
  convolution_param {
    num_output: 50
    kernel_size: 5
    stride: 1
    weight_filler {
      type: "xavier"
    }
    bias_filler {
      type: "constant"
    }
  }
}
layer {
  name: "pool2"
  type: "Pooling"
  bottom: "conv2"
  top: "pool2"
  pooling_param {
    pool: MAX
    kernel_size: 2
    stride: 2
  }
}
layer {
  name: "ip1"
  type: "InnerProduct"
  bottom: "pool2"
  top: "ip1"
  param {
    lr_mult: 1
  }
  param {
    lr_mult: 2
  }
  inner_product_param {
    num_output: 500
    weight_filler {
      type: "xavier"
    }
    bias_filler {
      type: "constant"
    }
  }
}
layer {
  name: "relu1"
  type: "ReLU"
  bottom: "ip1"
  top: "ip1"
}
layer {
  name: "ip2"
  type: "InnerProduct"
  bottom: "ip1"
  top: "ip2"
  param {
    lr_mult: 1
  }
  param {
    lr_mult: 2
  }
  inner_product_param {
    num_output: 10
    weight_filler {
      type: "xavier"
    }
    bias_filler {
      type: "constant"
    }
  }
}
layer {
  name: "accuracy"
  type: "Accuracy"
  bottom: "ip2"
  bottom: "label"
  top: "accuracy"
  include {
    phase: TEST
  }
}
layer {
  name: "loss"
  type: "SoftmaxWithLoss"
  bottom: "ip2"
  bottom: "label"
  top: "loss"
}
I0320 15:48:12.755437  6251 layer_factory.hpp:77] Creating layer mnist
I0320 15:48:12.755669  6251 net.cpp:91] Creating Layer mnist
I0320 15:48:12.755677  6251 net.cpp:409] mnist -> data
I0320 15:48:12.755687  6251 net.cpp:409] mnist -> label
I0320 15:48:12.756549  6260 db_lmdb.cpp:40] Opened lmdb /home/nikoong/Algorithm_test/handwritting/data/lmdb/finish/val_lmdb
I0320 15:48:12.756664  6251 data_layer.cpp:41] output data size: 500,1,28,28
I0320 15:48:12.764122  6251 net.cpp:141] Setting up mnist
I0320 15:48:12.764153  6251 net.cpp:148] Top shape: 500 1 28 28 (392000)
I0320 15:48:12.764156  6251 net.cpp:148] Top shape: 500 (500)
I0320 15:48:12.764159  6251 net.cpp:156] Memory required for data: 1570000
I0320 15:48:12.764164  6251 layer_factory.hpp:77] Creating layer label_mnist_1_split
I0320 15:48:12.764173  6251 net.cpp:91] Creating Layer label_mnist_1_split
I0320 15:48:12.764178  6251 net.cpp:435] label_mnist_1_split <- label
I0320 15:48:12.764183  6251 net.cpp:409] label_mnist_1_split -> label_mnist_1_split_0
I0320 15:48:12.764192  6251 net.cpp:409] label_mnist_1_split -> label_mnist_1_split_1
I0320 15:48:12.764235  6251 net.cpp:141] Setting up label_mnist_1_split
I0320 15:48:12.764240  6251 net.cpp:148] Top shape: 500 (500)
I0320 15:48:12.764242  6251 net.cpp:148] Top shape: 500 (500)
I0320 15:48:12.764245  6251 net.cpp:156] Memory required for data: 1574000
I0320 15:48:12.764247  6251 layer_factory.hpp:77] Creating layer conv1
I0320 15:48:12.764257  6251 net.cpp:91] Creating Layer conv1
I0320 15:48:12.764261  6251 net.cpp:435] conv1 <- data
I0320 15:48:12.764276  6251 net.cpp:409] conv1 -> conv1
I0320 15:48:12.769284  6251 net.cpp:141] Setting up conv1
I0320 15:48:12.769300  6251 net.cpp:148] Top shape: 500 20 24 24 (5760000)
I0320 15:48:12.769305  6251 net.cpp:156] Memory required for data: 24614000
I0320 15:48:12.769321  6251 layer_factory.hpp:77] Creating layer pool1
I0320 15:48:12.769333  6251 net.cpp:91] Creating Layer pool1
I0320 15:48:12.769336  6251 net.cpp:435] pool1 <- conv1
I0320 15:48:12.769341  6251 net.cpp:409] pool1 -> pool1
I0320 15:48:12.769372  6251 net.cpp:141] Setting up pool1
I0320 15:48:12.769405  6251 net.cpp:148] Top shape: 500 20 12 12 (1440000)
I0320 15:48:12.769425  6251 net.cpp:156] Memory required for data: 30374000
I0320 15:48:12.769438  6251 layer_factory.hpp:77] Creating layer conv2
I0320 15:48:12.769459  6251 net.cpp:91] Creating Layer conv2
I0320 15:48:12.769472  6251 net.cpp:435] conv2 <- pool1
I0320 15:48:12.769479  6251 net.cpp:409] conv2 -> conv2
I0320 15:48:12.772058  6251 net.cpp:141] Setting up conv2
I0320 15:48:12.772070  6251 net.cpp:148] Top shape: 500 50 8 8 (1600000)
I0320 15:48:12.772074  6251 net.cpp:156] Memory required for data: 36774000
I0320 15:48:12.772081  6251 layer_factory.hpp:77] Creating layer pool2
I0320 15:48:12.772088  6251 net.cpp:91] Creating Layer pool2
I0320 15:48:12.772090  6251 net.cpp:435] pool2 <- conv2
I0320 15:48:12.772095  6251 net.cpp:409] pool2 -> pool2
I0320 15:48:12.772125  6251 net.cpp:141] Setting up pool2
I0320 15:48:12.772130  6251 net.cpp:148] Top shape: 500 50 4 4 (400000)
I0320 15:48:12.772132  6251 net.cpp:156] Memory required for data: 38374000
I0320 15:48:12.772135  6251 layer_factory.hpp:77] Creating layer ip1
I0320 15:48:12.772140  6251 net.cpp:91] Creating Layer ip1
I0320 15:48:12.772142  6251 net.cpp:435] ip1 <- pool2
I0320 15:48:12.772146  6251 net.cpp:409] ip1 -> ip1
I0320 15:48:12.780040  6251 net.cpp:141] Setting up ip1
I0320 15:48:12.780061  6251 net.cpp:148] Top shape: 500 500 (250000)
I0320 15:48:12.780064  6251 net.cpp:156] Memory required for data: 39374000
I0320 15:48:12.780083  6251 layer_factory.hpp:77] Creating layer relu1
I0320 15:48:12.780092  6251 net.cpp:91] Creating Layer relu1
I0320 15:48:12.780095  6251 net.cpp:435] relu1 <- ip1
I0320 15:48:12.780100  6251 net.cpp:396] relu1 -> ip1 (in-place)
I0320 15:48:12.782650  6251 net.cpp:141] Setting up relu1
I0320 15:48:12.782663  6251 net.cpp:148] Top shape: 500 500 (250000)
I0320 15:48:12.782666  6251 net.cpp:156] Memory required for data: 40374000
I0320 15:48:12.782670  6251 layer_factory.hpp:77] Creating layer ip2
I0320 15:48:12.782677  6251 net.cpp:91] Creating Layer ip2
I0320 15:48:12.782680  6251 net.cpp:435] ip2 <- ip1
I0320 15:48:12.782686  6251 net.cpp:409] ip2 -> ip2
I0320 15:48:12.782814  6251 net.cpp:141] Setting up ip2
I0320 15:48:12.782821  6251 net.cpp:148] Top shape: 500 10 (5000)
I0320 15:48:12.782824  6251 net.cpp:156] Memory required for data: 40394000
I0320 15:48:12.782829  6251 layer_factory.hpp:77] Creating layer ip2_ip2_0_split
I0320 15:48:12.782833  6251 net.cpp:91] Creating Layer ip2_ip2_0_split
I0320 15:48:12.782836  6251 net.cpp:435] ip2_ip2_0_split <- ip2
I0320 15:48:12.782840  6251 net.cpp:409] ip2_ip2_0_split -> ip2_ip2_0_split_0
I0320 15:48:12.782845  6251 net.cpp:409] ip2_ip2_0_split -> ip2_ip2_0_split_1
I0320 15:48:12.782871  6251 net.cpp:141] Setting up ip2_ip2_0_split
I0320 15:48:12.782897  6251 net.cpp:148] Top shape: 500 10 (5000)
I0320 15:48:12.782902  6251 net.cpp:148] Top shape: 500 10 (5000)
I0320 15:48:12.782905  6251 net.cpp:156] Memory required for data: 40434000
I0320 15:48:12.782907  6251 layer_factory.hpp:77] Creating layer accuracy
I0320 15:48:12.782913  6251 net.cpp:91] Creating Layer accuracy
I0320 15:48:12.782915  6251 net.cpp:435] accuracy <- ip2_ip2_0_split_0
I0320 15:48:12.782919  6251 net.cpp:435] accuracy <- label_mnist_1_split_0
I0320 15:48:12.782923  6251 net.cpp:409] accuracy -> accuracy
…
