…
I0315 15:52:51.567107 11015 net.cpp:323] The NetState phase (0) differed from the phase (1) specified by a rule in layer accuracy
I0315 15:52:51.567200 11015 net.cpp:49] Initializing net from parameters: 
state {
  phase: TRAIN
}
layer {
  name: "data"
  type: "ImageData"
  top: "data"
  top: "label"
  include {
    phase: TRAIN
  }
  image_data_param {
    source: "/home/nikoong/Algorithm_test/handwritting/data_crop/txt/data2_28*28.txt"
    scale: 0.00390625
    batch_size: 10000
    shuffle: true
    new_height: 28
    new_width: 28
    is_color: false
  }
}
layer {
  name: "conv1"
  type: "Convolution"
  bottom: "data"
  top: "conv1"
  param {
    lr_mult: 1
  }
  param {
    lr_mult: 2
  }
  convolution_param {
    num_output: 20
    kernel_size: 5
    stride: 1
    weight_filler {
      type: "xavier"
    }
    bias_filler {
      type: "constant"
    }
  }
}
layer {
  name: "pool1"
  type: "Pooling"
  bottom: "conv1"
  top: "pool1"
  pooling_param {
    pool: MAX
    kernel_size: 2
    stride: 2
  }
}
layer {
  name: "conv2"
  type: "Convolution"
  bottom: "pool1"
  top: "conv2"
  param {
    lr_mult: 1
  }
  param {
    lr_mult: 2
  }
  convolution_param {
    num_output: 50
    kernel_size: 5
    stride: 1
    weight_filler {
      type: "xavier"
    }
    bias_filler {
      type: "constant"
    }
  }
}
layer {
  name: "pool2"
  type: "Pooling"
  bottom: "conv2"
  top: "pool2"
  pooling_param {
    pool: MAX
    kernel_size: 2
    stride: 2
  }
}
layer {
  name: "ip1"
  type: "InnerProduct"
  bottom: "pool2"
  top: "ip1"
  param {
    lr_mult: 1
  }
  param {
    lr_mult: 2
  }
  inner_product_param {
    num_output: 500
    weight_filler {
      type: "xavier"
    }
    bias_filler {
      type: "constant"
    }
  }
}
layer {
  name: "relu1"
  type: "ReLU"
  bottom: "ip1"
  top: "ip1"
}
layer {
  name: "ip2"
  type: "InnerProduct"
  bottom: "ip1"
  top: "ip2"
  param {
    lr_mult: 1
  }
  param {
    lr_mult: 2
  }
  inner_product_param {
    num_output: 10
    weight_filler {
      type: "xavier"
    }
    bias_filler {
      type: "constant"
    }
  }
}
layer {
  name: "loss"
  type: "SoftmaxWithLoss"
  bottom: "ip2"
  bottom: "label"
  top: "loss"
}
I0315 15:52:51.567251 11015 layer_factory.hpp:77] Creating layer data
I0315 15:52:51.567286 11015 net.cpp:91] Creating Layer data
I0315 15:52:51.567291 11015 net.cpp:409] data -> data
I0315 15:52:51.567322 11015 net.cpp:409] data -> label
I0315 15:52:51.567335 11015 image_data_layer.cpp:37] Opening file /home/nikoong/Algorithm_test/handwritting/data_crop/txt/data2_28*28.txt
I0315 15:52:51.593663 11015 image_data_layer.cpp:47] Shuffling data
I0315 15:52:51.609315 11015 image_data_layer.cpp:52] A total of 88300 images.
I0315 15:52:51.728057 11015 image_data_layer.cpp:79] output data size: 10000,1,28,28
I0315 15:52:51.814149 11015 net.cpp:141] Setting up data
I0315 15:52:51.814196 11015 net.cpp:148] Top shape: 10000 1 28 28 (7840000)
I0315 15:52:51.814213 11015 net.cpp:148] Top shape: 10000 (10000)
I0315 15:52:51.814215 11015 net.cpp:156] Memory required for data: 31400000
I0315 15:52:51.814221 11015 layer_factory.hpp:77] Creating layer conv1
I0315 15:52:51.814244 11015 net.cpp:91] Creating Layer conv1
I0315 15:52:51.814249 11015 net.cpp:435] conv1 <- data
I0315 15:52:51.814267 11015 net.cpp:409] conv1 -> conv1
I0315 15:52:52.163759 11015 net.cpp:141] Setting up conv1
I0315 15:52:52.163790 11015 net.cpp:148] Top shape: 10000 20 24 24 (115200000)
I0315 15:52:52.163794 11015 net.cpp:156] Memory required for data: 492200000
I0315 15:52:52.163810 11015 layer_factory.hpp:77] Creating layer pool1
I0315 15:52:52.163833 11015 net.cpp:91] Creating Layer pool1
I0315 15:52:52.163837 11015 net.cpp:435] pool1 <- conv1
I0315 15:52:52.163842 11015 net.cpp:409] pool1 -> pool1
I0315 15:52:52.163892 11015 net.cpp:141] Setting up pool1
I0315 15:52:52.163908 11015 net.cpp:148] Top shape: 10000 20 12 12 (28800000)
I0315 15:52:52.163909 11015 net.cpp:156] Memory required for data: 607400000
I0315 15:52:52.163921 11015 layer_factory.hpp:77] Creating layer conv2
I0315 15:52:52.163931 11015 net.cpp:91] Creating Layer conv2
I0315 15:52:52.163934 11015 net.cpp:435] conv2 <- pool1
I0315 15:52:52.163949 11015 net.cpp:409] conv2 -> conv2
I0315 15:52:52.166312 11015 net.cpp:141] Setting up conv2
I0315 15:52:52.166335 11015 net.cpp:148] Top shape: 10000 50 8 8 (32000000)
I0315 15:52:52.166338 11015 net.cpp:156] Memory required for data: 735400000
I0315 15:52:52.166347 11015 layer_factory.hpp:77] Creating layer pool2
I0315 15:52:52.166363 11015 net.cpp:91] Creating Layer pool2
I0315 15:52:52.166366 11015 net.cpp:435] pool2 <- conv2
I0315 15:52:52.166371 11015 net.cpp:409] pool2 -> pool2
I0315 15:52:52.166414 11015 net.cpp:141] Setting up pool2
I0315 15:52:52.166427 11015 net.cpp:148] Top shape: 10000 50 4 4 (8000000)
I0315 15:52:52.166430 11015 net.cpp:156] Memory required for data: 767400000
I0315 15:52:52.166434 11015 layer_factory.hpp:77] Creating layer ip1
I0315 15:52:52.166448 11015 net.cpp:91] Creating Layer ip1
I0315 15:52:52.166451 11015 net.cpp:435] ip1 <- pool2
I0315 15:52:52.166455 11015 net.cpp:409] ip1 -> ip1
I0315 15:52:52.169944 11015 net.cpp:141] Setting up ip1
I0315 15:52:52.169966 11015 net.cpp:148] Top shape: 10000 500 (5000000)
I0315 15:52:52.169970 11015 net.cpp:156] Memory required for data: 787400000
I0315 15:52:52.169977 11015 layer_factory.hpp:77] Creating layer relu1
I0315 15:52:52.169984 11015 net.cpp:91] Creating Layer relu1
I0315 15:52:52.170001 11015 net.cpp:435] relu1 <- ip1
I0315 15:52:52.170006 11015 net.cpp:396] relu1 -> ip1 (in-place)
I0315 15:52:52.170176 11015 net.cpp:141] Setting up relu1
I0315 15:52:52.170183 11015 net.cpp:148] Top shape: 10000 500 (5000000)
I0315 15:52:52.170197 11015 net.cpp:156] Memory required for data: 807400000
I0315 15:52:52.170198 11015 layer_factory.hpp:77] Creating layer ip2
I0315 15:52:52.170204 11015 net.cpp:91] Creating Layer ip2
I0315 15:52:52.170207 11015 net.cpp:435] ip2 <- ip1
I0315 15:52:52.170222 11015 net.cpp:409] ip2 -> ip2
I0315 15:52:52.170356 11015 net.cpp:141] Setting up ip2
I0315 15:52:52.170361 11015 net.cpp:148] Top shape: 10000 10 (100000)
I0315 15:52:52.170374 11015 net.cpp:156] Memory required for data: 807800000
I0315 15:52:52.170378 11015 layer_factory.hpp:77] Creating layer loss
I0315 15:52:52.170384 11015 net.cpp:91] Creating Layer loss
I0315 15:52:52.170387 11015 net.cpp:435] loss <- ip2
I0315 15:52:52.170400 11015 net.cpp:435] loss <- label
I0315 15:52:52.170405 11015 net.cpp:409] loss -> loss
I0315 15:52:52.170416 11015 layer_factory.hpp:77] Creating layer loss
…
I0315 15:52:52.170949 11015 solver.cpp:181] Creating test net (#0) specified by net file: /home/nikoong/Algorithm_test/handwritting/lenet/lenet_my.prototxt
I0315 15:52:52.170982 11015 net.cpp:323] The NetState phase (1) differed from the phase (0) specified by a rule in layer data
I0315 15:52:52.171095 11015 net.cpp:49] Initializing net from parameters: 
state {
  phase: TEST
}
layer {
  name: "data"
  type: "ImageData"
  top: "data"
  top: "label"
  include {
    phase: TEST
  }
  image_data_param {
    source: "/home/nikoong/Algorithm_test/handwritting/data_crop/txt/data1_28*28.txt"
    batch_size: 100
    new_height: 28
    new_width: 28
    is_color: false
  }
}
layer {
  name: "conv1"
  type: "Convolution"
  bottom: "data"
  top: "conv1"
  param {
    lr_mult: 1
  }
  param {
    lr_mult: 2
  }
  convolution_param {
    num_output: 20
    kernel_size: 5
    stride: 1
    weight_filler {
      type: "xavier"
    }
    bias_filler {
      type: "constant"
    }
  }
}
layer {
  name: "pool1"
  type: "Pooling"
  bottom: "conv1"
  top: "pool1"
  pooling_param {
    pool: MAX
    kernel_size: 2
    stride: 2
  }
}
layer {
  name: "conv2"
  type: "Convolution"
  bottom: "pool1"
  top: "conv2"
  param {
    lr_mult: 1
  }
  param {
    lr_mult: 2
  }
  convolution_param {
    num_output: 50
    kernel_size: 5
    stride: 1
    weight_filler {
      type: "xavier"
    }
    bias_filler {
      type: "constant"
    }
  }
}
layer {
  name: "pool2"
  type: "Pooling"
  bottom: "conv2"
  top: "pool2"
  pooling_param {
    pool: MAX
    kernel_size: 2
    stride: 2
  }
}
layer {
  name: "ip1"
  type: "InnerProduct"
  bottom: "pool2"
  top: "ip1"
  param {
    lr_mult: 1
  }
  param {
    lr_mult: 2
  }
  inner_product_param {
    num_output: 500
    weight_filler {
      type: "xavier"
    }
    bias_filler {
      type: "constant"
    }
  }
}
layer {
  name: "relu1"
  type: "ReLU"
  bottom: "ip1"
  top: "ip1"
}
layer {
  name: "ip2"
  type: "InnerProduct"
  bottom: "ip1"
  top: "ip2"
  param {
    lr_mult: 1
  }
  param {
    lr_mult: 2
  }
  inner_product_param {
    num_output: 10
    weight_filler {
      type: "xavier"
    }
    bias_filler {
      type: "constant"
    }
  }
}
layer {
  name: "accuracy"
  type: "Accuracy"
  bottom: "ip2"
  bottom: "label"
  top: "accuracy"
  include {
    phase: TEST
  }
}
layer {
  name: "loss"
  type: "SoftmaxWithLoss"
  bottom: "ip2"
  bottom: "label"
  top: "loss"
}
I0315 15:52:52.171164 11015 layer_factory.hpp:77] Creating layer data
I0315 15:52:52.171175 11015 net.cpp:91] Creating Layer data
I0315 15:52:52.171183 11015 net.cpp:409] data -> data
I0315 15:52:52.171190 11015 net.cpp:409] data -> label
I0315 15:52:52.171196 11015 image_data_layer.cpp:37] Opening file /home/nikoong/Algorithm_test/handwritting/data_crop/txt/data1_28*28.txt
I0315 15:52:52.174451 11015 image_data_layer.cpp:52] A total of 11430 images.
I0315 15:52:52.174621 11015 image_data_layer.cpp:79] output data size: 100,1,28,28
I0315 15:52:52.177053 11015 net.cpp:141] Setting up data
I0315 15:52:52.177089 11015 net.cpp:148] Top shape: 100 1 28 28 (78400)
I0315 15:52:52.177093 11015 net.cpp:148] Top shape: 100 (100)
I0315 15:52:52.177096 11015 net.cpp:156] Memory required for data: 314000
I0315 15:52:52.177101 11015 layer_factory.hpp:77] Creating layer label_data_1_split
I0315 15:52:52.177111 11015 net.cpp:91] Creating Layer label_data_1_split
I0315 15:52:52.177115 11015 net.cpp:435] label_data_1_split <- label
I0315 15:52:52.177121 11015 net.cpp:409] label_data_1_split -> label_data_1_split_0
I0315 15:52:52.177134 11015 net.cpp:409] label_data_1_split -> label_data_1_split_1
I0315 15:52:52.177171 11015 net.cpp:141] Setting up label_data_1_split
I0315 15:52:52.177177 11015 net.cpp:148] Top shape: 100 (100)
I0315 15:52:52.177181 11015 net.cpp:148] Top shape: 100 (100)
I0315 15:52:52.177194 11015 net.cpp:156] Memory required for data: 314800
I0315 15:52:52.177197 11015 layer_factory.hpp:77] Creating layer conv1
I0315 15:52:52.177207 11015 net.cpp:91] Creating Layer conv1
I0315 15:52:52.177209 11015 net.cpp:435] conv1 <- data
I0315 15:52:52.177215 11015 net.cpp:409] conv1 -> conv1
I0315 15:52:52.178584 11015 net.cpp:141] Setting up conv1
I0315 15:52:52.178598 11015 net.cpp:148] Top shape: 100 20 24 24 (1152000)
I0315 15:52:52.178601 11015 net.cpp:156] Memory required for data: 4922800
I0315 15:52:52.178611 11015 layer_factory.hpp:77] Creating layer pool1
I0315 15:52:52.178618 11015 net.cpp:91] Creating Layer pool1
I0315 15:52:52.178622 11015 net.cpp:435] pool1 <- conv1
I0315 15:52:52.178625 11015 net.cpp:409] pool1 -> pool1
I0315 15:52:52.178656 11015 net.cpp:141] Setting up pool1
I0315 15:52:52.178660 11015 net.cpp:148] Top shape: 100 20 12 12 (288000)
I0315 15:52:52.178663 11015 net.cpp:156] Memory required for data: 6074800
I0315 15:52:52.178664 11015 layer_factory.hpp:77] Creating layer conv2
I0315 15:52:52.178673 11015 net.cpp:91] Creating Layer conv2
I0315 15:52:52.178674 11015 net.cpp:435] conv2 <- pool1
I0315 15:52:52.178679 11015 net.cpp:409] conv2 -> conv2
I0315 15:52:52.180227 11015 net.cpp:141] Setting up conv2
I0315 15:52:52.180238 11015 net.cpp:148] Top shape: 100 50 8 8 (320000)
I0315 15:52:52.180241 11015 net.cpp:156] Memory required for data: 7354800
I0315 15:52:52.180248 11015 layer_factory.hpp:77] Creating layer pool2
I0315 15:52:52.180253 11015 net.cpp:91] Creating Layer pool2
I0315 15:52:52.180259 11015 net.cpp:435] pool2 <- conv2
I0315 15:52:52.180264 11015 net.cpp:409] pool2 -> pool2
I0315 15:52:52.180301 11015 net.cpp:141] Setting up pool2
I0315 15:52:52.180306 11015 net.cpp:148] Top shape: 100 50 4 4 (80000)
I0315 15:52:52.180308 11015 net.cpp:156] Memory required for data: 7674800
I0315 15:52:52.180315 11015 layer_factory.hpp:77] Creating layer ip1
I0315 15:52:52.180325 11015 net.cpp:91] Creating Layer ip1
I0315 15:52:52.180327 11015 net.cpp:435] ip1 <- pool2
I0315 15:52:52.180332 11015 net.cpp:409] ip1 -> ip1
I0315 15:52:52.184062 11015 net.cpp:141] Setting up ip1
I0315 15:52:52.184078 11015 net.cpp:148] Top shape: 100 500 (50000)
I0315 15:52:52.184082 11015 net.cpp:156] Memory required for data: 7874800
I0315 15:52:52.184090 11015 layer_factory.hpp:77] Creating layer relu1
I0315 15:52:52.184098 11015 net.cpp:91] Creating Layer relu1
I0315 15:52:52.184101 11015 net.cpp:435] relu1 <- ip1
I0315 15:52:52.184106 11015 net.cpp:396] relu1 -> ip1 (in-place)
I0315 15:52:52.184823 11015 net.cpp:141] Setting up relu1
I0315 15:52:52.184834 11015 net.cpp:148] Top shape: 100 500 (50000)
I0315 15:52:52.184846 11015 net.cpp:156] Memory required for data: 8074800
I0315 15:52:52.184849 11015 layer_factory.hpp:77] Creating layer ip2
I0315 15:52:52.184857 11015 net.cpp:91] Creating Layer ip2
I0315 15:52:52.184861 11015 net.cpp:435] ip2 <- ip1
I0315 15:52:52.184866 11015 net.cpp:409] ip2 -> ip2
I0315 15:52:52.185004 11015 net.cpp:141] Setting up ip2
I0315 15:52:52.185012 11015 net.cpp:148] Top shape: 100 10 (1000)
I0315 15:52:52.185024 11015 net.cpp:156] Memory required for data: 8078800
I0315 15:52:52.185030 11015 layer_factory.hpp:77] Creating layer ip2_ip2_0_split
I0315 15:52:52.185035 11015 net.cpp:91] Creating Layer ip2_ip2_0_split
I0315 15:52:52.185039 11015 net.cpp:435] ip2_ip2_0_split <- ip2
I0315 15:52:52.185042 11015 net.cpp:409] ip2_ip2_0_split -> ip2_ip2_0_split_0
I0315 15:52:52.185047 11015 net.cpp:409] ip2_ip2_0_split -> ip2_ip2_0_split_1
I0315 15:52:52.185075 11015 net.cpp:141] Setting up ip2_ip2_0_split
I0315 15:52:52.185080 11015 net.cpp:148] Top shape: 100 10 (1000)
I0315 15:52:52.185091 11015 net.cpp:148] Top shape: 100 10 (1000)
I0315 15:52:52.185094 11015 net.cpp:156] Memory required for data: 8086800
I0315 15:52:52.185096 11015 layer_factory.hpp:77] Creating layer accuracy
I0315 15:52:52.185111 11015 net.cpp:91] Creating Layer accuracy
I0315 15:52:52.185113 11015 net.cpp:435] accuracy <- ip2_ip2_0_split_0
I0315 15:52:52.185117 11015 net.cpp:435] accuracy <- label_data_1_split_0
I0315 15:52:52.185133 11015 net.cpp:409] accuracy -> accuracy
…
