…
I0315 14:33:28.948267 17205 net.cpp:323] The NetState phase (0) differed from the phase (1) specified by a rule in layer accuracy
I0315 14:33:28.948362 17205 net.cpp:49] Initializing net from parameters: 
state {
  phase: TRAIN
}
layer {
  name: "data"
  type: "ImageData"
  top: "data"
  top: "label"
  include {
    phase: TRAIN
  }
  image_data_param {
    source: "/home/nikoong/Algorithm_test/handwritting/data_crop/txt/data2_28*28.txt"
    scale: 0.00390625
    batch_size: 10000
    shuffle: true
    new_height: 28
    new_width: 28
    is_color: false
  }
}
layer {
  name: "conv1"
  type: "Convolution"
  bottom: "data"
  top: "conv1"
  param {
    lr_mult: 1
  }
  param {
    lr_mult: 2
  }
  convolution_param {
    num_output: 20
    kernel_size: 5
    stride: 1
    weight_filler {
      type: "xavier"
    }
    bias_filler {
      type: "constant"
    }
  }
}
layer {
  name: "pool1"
  type: "Pooling"
  bottom: "conv1"
  top: "pool1"
  pooling_param {
    pool: MAX
    kernel_size: 2
    stride: 2
  }
}
layer {
  name: "conv2"
  type: "Convolution"
  bottom: "pool1"
  top: "conv2"
  param {
    lr_mult: 1
  }
  param {
    lr_mult: 2
  }
  convolution_param {
    num_output: 50
    kernel_size: 5
    stride: 1
    weight_filler {
      type: "xavier"
    }
    bias_filler {
      type: "constant"
    }
  }
}
layer {
  name: "pool2"
  type: "Pooling"
  bottom: "conv2"
  top: "pool2"
  pooling_param {
    pool: MAX
    kernel_size: 2
    stride: 2
  }
}
layer {
  name: "ip1"
  type: "InnerProduct"
  bottom: "pool2"
  top: "ip1"
  param {
    lr_mult: 1
  }
  param {
    lr_mult: 2
  }
  inner_product_param {
    num_output: 500
    weight_filler {
      type: "xavier"
    }
    bias_filler {
      type: "constant"
    }
  }
}
layer {
  name: "relu1"
  type: "ReLU"
  bottom: "ip1"
  top: "ip1"
}
layer {
  name: "ip2"
  type: "InnerProduct"
  bottom: "ip1"
  top: "ip2"
  param {
    lr_mult: 1
  }
  param {
    lr_mult: 2
  }
  inner_product_param {
    num_output: 10
    weight_filler {
      type: "xavier"
    }
    bias_filler {
      type: "constant"
    }
  }
}
layer {
  name: "loss"
  type: "SoftmaxWithLoss"
  bottom: "ip2"
  bottom: "label"
  top: "loss"
}
I0315 14:33:28.948417 17205 layer_factory.hpp:77] Creating layer data
I0315 14:33:28.948451 17205 net.cpp:91] Creating Layer data
I0315 14:33:28.948457 17205 net.cpp:409] data -> data
I0315 14:33:28.948487 17205 net.cpp:409] data -> label
I0315 14:33:28.948498 17205 image_data_layer.cpp:37] Opening file /home/nikoong/Algorithm_test/handwritting/data_crop/txt/data2_28*28.txt
I0315 14:33:28.975267 17205 image_data_layer.cpp:47] Shuffling data
I0315 14:33:28.991107 17205 image_data_layer.cpp:52] A total of 88301 images.
I0315 14:33:29.116825 17205 image_data_layer.cpp:79] output data size: 10000,1,28,28
I0315 14:33:29.202491 17205 net.cpp:141] Setting up data
I0315 14:33:29.202540 17205 net.cpp:148] Top shape: 10000 1 28 28 (7840000)
I0315 14:33:29.202556 17205 net.cpp:148] Top shape: 10000 (10000)
I0315 14:33:29.202559 17205 net.cpp:156] Memory required for data: 31400000
I0315 14:33:29.202567 17205 layer_factory.hpp:77] Creating layer conv1
I0315 14:33:29.202590 17205 net.cpp:91] Creating Layer conv1
I0315 14:33:29.202610 17205 net.cpp:435] conv1 <- data
I0315 14:33:29.202620 17205 net.cpp:409] conv1 -> conv1
I0315 14:33:29.566186 17205 net.cpp:141] Setting up conv1
I0315 14:33:29.566217 17205 net.cpp:148] Top shape: 10000 20 24 24 (115200000)
I0315 14:33:29.566221 17205 net.cpp:156] Memory required for data: 492200000
I0315 14:33:29.566247 17205 layer_factory.hpp:77] Creating layer pool1
I0315 14:33:29.566260 17205 net.cpp:91] Creating Layer pool1
I0315 14:33:29.566265 17205 net.cpp:435] pool1 <- conv1
I0315 14:33:29.566270 17205 net.cpp:409] pool1 -> pool1
I0315 14:33:29.566319 17205 net.cpp:141] Setting up pool1
I0315 14:33:29.566334 17205 net.cpp:148] Top shape: 10000 20 12 12 (28800000)
I0315 14:33:29.566337 17205 net.cpp:156] Memory required for data: 607400000
I0315 14:33:29.566339 17205 layer_factory.hpp:77] Creating layer conv2
I0315 14:33:29.566359 17205 net.cpp:91] Creating Layer conv2
I0315 14:33:29.566362 17205 net.cpp:435] conv2 <- pool1
I0315 14:33:29.566366 17205 net.cpp:409] conv2 -> conv2
I0315 14:33:29.568814 17205 net.cpp:141] Setting up conv2
I0315 14:33:29.568841 17205 net.cpp:148] Top shape: 10000 50 8 8 (32000000)
I0315 14:33:29.568845 17205 net.cpp:156] Memory required for data: 735400000
I0315 14:33:29.568856 17205 layer_factory.hpp:77] Creating layer pool2
I0315 14:33:29.568866 17205 net.cpp:91] Creating Layer pool2
I0315 14:33:29.568869 17205 net.cpp:435] pool2 <- conv2
I0315 14:33:29.568874 17205 net.cpp:409] pool2 -> pool2
I0315 14:33:29.568910 17205 net.cpp:141] Setting up pool2
I0315 14:33:29.568935 17205 net.cpp:148] Top shape: 10000 50 4 4 (8000000)
I0315 14:33:29.568940 17205 net.cpp:156] Memory required for data: 767400000
I0315 14:33:29.568943 17205 layer_factory.hpp:77] Creating layer ip1
I0315 14:33:29.568950 17205 net.cpp:91] Creating Layer ip1
I0315 14:33:29.568953 17205 net.cpp:435] ip1 <- pool2
I0315 14:33:29.568958 17205 net.cpp:409] ip1 -> ip1
I0315 14:33:29.572531 17205 net.cpp:141] Setting up ip1
I0315 14:33:29.572557 17205 net.cpp:148] Top shape: 10000 500 (5000000)
I0315 14:33:29.572561 17205 net.cpp:156] Memory required for data: 787400000
I0315 14:33:29.572571 17205 layer_factory.hpp:77] Creating layer relu1
I0315 14:33:29.572587 17205 net.cpp:91] Creating Layer relu1
I0315 14:33:29.572590 17205 net.cpp:435] relu1 <- ip1
I0315 14:33:29.572597 17205 net.cpp:396] relu1 -> ip1 (in-place)
I0315 14:33:29.572787 17205 net.cpp:141] Setting up relu1
I0315 14:33:29.572793 17205 net.cpp:148] Top shape: 10000 500 (5000000)
I0315 14:33:29.572805 17205 net.cpp:156] Memory required for data: 807400000
I0315 14:33:29.572814 17205 layer_factory.hpp:77] Creating layer ip2
I0315 14:33:29.572835 17205 net.cpp:91] Creating Layer ip2
I0315 14:33:29.572839 17205 net.cpp:435] ip2 <- ip1
I0315 14:33:29.572842 17205 net.cpp:409] ip2 -> ip2
I0315 14:33:29.572980 17205 net.cpp:141] Setting up ip2
I0315 14:33:29.572989 17205 net.cpp:148] Top shape: 10000 10 (100000)
I0315 14:33:29.573001 17205 net.cpp:156] Memory required for data: 807800000
I0315 14:33:29.573006 17205 layer_factory.hpp:77] Creating layer loss
I0315 14:33:29.573012 17205 net.cpp:91] Creating Layer loss
I0315 14:33:29.573015 17205 net.cpp:435] loss <- ip2
I0315 14:33:29.573029 17205 net.cpp:435] loss <- label
I0315 14:33:29.573034 17205 net.cpp:409] loss -> loss
I0315 14:33:29.573043 17205 layer_factory.hpp:77] Creating layer loss
…
I0315 14:33:29.573614 17205 solver.cpp:181] Creating test net (#0) specified by net file: /home/nikoong/Algorithm_test/handwritting/lenet/lenet_my.prototxt
I0315 14:33:29.573654 17205 net.cpp:323] The NetState phase (1) differed from the phase (0) specified by a rule in layer data
I0315 14:33:29.573770 17205 net.cpp:49] Initializing net from parameters: 
state {
  phase: TEST
}
layer {
  name: "data"
  type: "ImageData"
  top: "data"
  top: "label"
  include {
    phase: TEST
  }
  image_data_param {
    source: "/home/nikoong/Algorithm_test/handwritting/data_crop/txt/data1_28*28.txt"
    batch_size: 100
    new_height: 28
    new_width: 28
    is_color: false
  }
}
layer {
  name: "conv1"
  type: "Convolution"
  bottom: "data"
  top: "conv1"
  param {
    lr_mult: 1
  }
  param {
    lr_mult: 2
  }
  convolution_param {
    num_output: 20
    kernel_size: 5
    stride: 1
    weight_filler {
      type: "xavier"
    }
    bias_filler {
      type: "constant"
    }
  }
}
layer {
  name: "pool1"
  type: "Pooling"
  bottom: "conv1"
  top: "pool1"
  pooling_param {
    pool: MAX
    kernel_size: 2
    stride: 2
  }
}
layer {
  name: "conv2"
  type: "Convolution"
  bottom: "pool1"
  top: "conv2"
  param {
    lr_mult: 1
  }
  param {
    lr_mult: 2
  }
  convolution_param {
    num_output: 50
    kernel_size: 5
    stride: 1
    weight_filler {
      type: "xavier"
    }
    bias_filler {
      type: "constant"
    }
  }
}
layer {
  name: "pool2"
  type: "Pooling"
  bottom: "conv2"
  top: "pool2"
  pooling_param {
    pool: MAX
    kernel_size: 2
    stride: 2
  }
}
layer {
  name: "ip1"
  type: "InnerProduct"
  bottom: "pool2"
  top: "ip1"
  param {
    lr_mult: 1
  }
  param {
    lr_mult: 2
  }
  inner_product_param {
    num_output: 500
    weight_filler {
      type: "xavier"
    }
    bias_filler {
      type: "constant"
    }
  }
}
layer {
  name: "relu1"
  type: "ReLU"
  bottom: "ip1"
  top: "ip1"
}
layer {
  name: "ip2"
  type: "InnerProduct"
  bottom: "ip1"
  top: "ip2"
  param {
    lr_mult: 1
  }
  param {
    lr_mult: 2
  }
  inner_product_param {
    num_output: 10
    weight_filler {
      type: "xavier"
    }
    bias_filler {
      type: "constant"
    }
  }
}
layer {
  name: "accuracy"
  type: "Accuracy"
  bottom: "ip2"
  bottom: "label"
  top: "accuracy"
  include {
    phase: TEST
  }
}
layer {
  name: "loss"
  type: "SoftmaxWithLoss"
  bottom: "ip2"
  bottom: "label"
  top: "loss"
}
I0315 14:33:29.573840 17205 layer_factory.hpp:77] Creating layer data
I0315 14:33:29.573858 17205 net.cpp:91] Creating Layer data
I0315 14:33:29.573860 17205 net.cpp:409] data -> data
I0315 14:33:29.573868 17205 net.cpp:409] data -> label
I0315 14:33:29.573874 17205 image_data_layer.cpp:37] Opening file /home/nikoong/Algorithm_test/handwritting/data_crop/txt/data1_28*28.txt
I0315 14:33:29.577069 17205 image_data_layer.cpp:52] A total of 11430 images.
I0315 14:33:29.577229 17205 image_data_layer.cpp:79] output data size: 100,1,28,28
I0315 14:33:29.579768 17205 net.cpp:141] Setting up data
I0315 14:33:29.579809 17205 net.cpp:148] Top shape: 100 1 28 28 (78400)
I0315 14:33:29.579825 17205 net.cpp:148] Top shape: 100 (100)
I0315 14:33:29.579835 17205 net.cpp:156] Memory required for data: 314000
I0315 14:33:29.579849 17205 layer_factory.hpp:77] Creating layer label_data_1_split
I0315 14:33:29.579867 17205 net.cpp:91] Creating Layer label_data_1_split
I0315 14:33:29.579879 17205 net.cpp:435] label_data_1_split <- label
I0315 14:33:29.579892 17205 net.cpp:409] label_data_1_split -> label_data_1_split_0
I0315 14:33:29.579911 17205 net.cpp:409] label_data_1_split -> label_data_1_split_1
I0315 14:33:29.579960 17205 net.cpp:141] Setting up label_data_1_split
I0315 14:33:29.579977 17205 net.cpp:148] Top shape: 100 (100)
I0315 14:33:29.579993 17205 net.cpp:148] Top shape: 100 (100)
I0315 14:33:29.580010 17205 net.cpp:156] Memory required for data: 314800
I0315 14:33:29.580020 17205 layer_factory.hpp:77] Creating layer conv1
I0315 14:33:29.580039 17205 net.cpp:91] Creating Layer conv1
I0315 14:33:29.580051 17205 net.cpp:435] conv1 <- data
I0315 14:33:29.580063 17205 net.cpp:409] conv1 -> conv1
I0315 14:33:29.581794 17205 net.cpp:141] Setting up conv1
I0315 14:33:29.581818 17205 net.cpp:148] Top shape: 100 20 24 24 (1152000)
I0315 14:33:29.581822 17205 net.cpp:156] Memory required for data: 4922800
I0315 14:33:29.581832 17205 layer_factory.hpp:77] Creating layer pool1
I0315 14:33:29.581840 17205 net.cpp:91] Creating Layer pool1
I0315 14:33:29.581845 17205 net.cpp:435] pool1 <- conv1
I0315 14:33:29.581852 17205 net.cpp:409] pool1 -> pool1
I0315 14:33:29.581921 17205 net.cpp:141] Setting up pool1
I0315 14:33:29.581929 17205 net.cpp:148] Top shape: 100 20 12 12 (288000)
I0315 14:33:29.581933 17205 net.cpp:156] Memory required for data: 6074800
I0315 14:33:29.581934 17205 layer_factory.hpp:77] Creating layer conv2
I0315 14:33:29.581944 17205 net.cpp:91] Creating Layer conv2
I0315 14:33:29.581948 17205 net.cpp:435] conv2 <- pool1
I0315 14:33:29.581977 17205 net.cpp:409] conv2 -> conv2
I0315 14:33:29.583290 17205 net.cpp:141] Setting up conv2
I0315 14:33:29.583303 17205 net.cpp:148] Top shape: 100 50 8 8 (320000)
I0315 14:33:29.583317 17205 net.cpp:156] Memory required for data: 7354800
I0315 14:33:29.583323 17205 layer_factory.hpp:77] Creating layer pool2
I0315 14:33:29.583330 17205 net.cpp:91] Creating Layer pool2
I0315 14:33:29.583333 17205 net.cpp:435] pool2 <- conv2
I0315 14:33:29.583338 17205 net.cpp:409] pool2 -> pool2
I0315 14:33:29.583370 17205 net.cpp:141] Setting up pool2
I0315 14:33:29.583379 17205 net.cpp:148] Top shape: 100 50 4 4 (80000)
I0315 14:33:29.583381 17205 net.cpp:156] Memory required for data: 7674800
I0315 14:33:29.583384 17205 layer_factory.hpp:77] Creating layer ip1
I0315 14:33:29.583391 17205 net.cpp:91] Creating Layer ip1
I0315 14:33:29.583395 17205 net.cpp:435] ip1 <- pool2
I0315 14:33:29.583398 17205 net.cpp:409] ip1 -> ip1
I0315 14:33:29.587054 17205 net.cpp:141] Setting up ip1
I0315 14:33:29.587077 17205 net.cpp:148] Top shape: 100 500 (50000)
I0315 14:33:29.587080 17205 net.cpp:156] Memory required for data: 7874800
I0315 14:33:29.587095 17205 layer_factory.hpp:77] Creating layer relu1
I0315 14:33:29.587101 17205 net.cpp:91] Creating Layer relu1
I0315 14:33:29.587105 17205 net.cpp:435] relu1 <- ip1
I0315 14:33:29.587110 17205 net.cpp:396] relu1 -> ip1 (in-place)
I0315 14:33:29.587810 17205 net.cpp:141] Setting up relu1
I0315 14:33:29.587821 17205 net.cpp:148] Top shape: 100 500 (50000)
I0315 14:33:29.587834 17205 net.cpp:156] Memory required for data: 8074800
I0315 14:33:29.587837 17205 layer_factory.hpp:77] Creating layer ip2
I0315 14:33:29.587844 17205 net.cpp:91] Creating Layer ip2
I0315 14:33:29.587848 17205 net.cpp:435] ip2 <- ip1
I0315 14:33:29.587853 17205 net.cpp:409] ip2 -> ip2
I0315 14:33:29.587981 17205 net.cpp:141] Setting up ip2
I0315 14:33:29.587988 17205 net.cpp:148] Top shape: 100 10 (1000)
I0315 14:33:29.587991 17205 net.cpp:156] Memory required for data: 8078800
I0315 14:33:29.587996 17205 layer_factory.hpp:77] Creating layer ip2_ip2_0_split
I0315 14:33:29.588001 17205 net.cpp:91] Creating Layer ip2_ip2_0_split
I0315 14:33:29.588003 17205 net.cpp:435] ip2_ip2_0_split <- ip2
I0315 14:33:29.588007 17205 net.cpp:409] ip2_ip2_0_split -> ip2_ip2_0_split_0
I0315 14:33:29.588012 17205 net.cpp:409] ip2_ip2_0_split -> ip2_ip2_0_split_1
I0315 14:33:29.588038 17205 net.cpp:141] Setting up ip2_ip2_0_split
I0315 14:33:29.588043 17205 net.cpp:148] Top shape: 100 10 (1000)
I0315 14:33:29.588047 17205 net.cpp:148] Top shape: 100 10 (1000)
I0315 14:33:29.588054 17205 net.cpp:156] Memory required for data: 8086800
I0315 14:33:29.588060 17205 layer_factory.hpp:77] Creating layer accuracy
I0315 14:33:29.588065 17205 net.cpp:91] Creating Layer accuracy
I0315 14:33:29.588068 17205 net.cpp:435] accuracy <- ip2_ip2_0_split_0
I0315 14:33:29.588073 17205 net.cpp:435] accuracy <- label_data_1_split_0
I0315 14:33:29.588089 17205 net.cpp:409] accuracy -> accuracy
…
