…
I0320 19:02:00.866746  9184 net.cpp:323] The NetState phase (0) differed from the phase (1) specified by a rule in layer mnist
I0320 19:02:00.866760  9184 net.cpp:323] The NetState phase (0) differed from the phase (1) specified by a rule in layer accuracy
I0320 19:02:00.866853  9184 net.cpp:49] Initializing net from parameters: 
name: "LeNet"
state {
  phase: TRAIN
}
layer {
  name: "mnist"
  type: "Data"
  top: "data"
  top: "label"
  include {
    phase: TRAIN
  }
  transform_param {
    scale: 0.00390625
  }
  data_param {
    source: "/home/nikoong/Algorithm_test/handwritting/data/lmdb/finish/train_lmdb"
    batch_size: 20000
    backend: LMDB
  }
}
layer {
  name: "conv1"
  type: "Convolution"
  bottom: "data"
  top: "conv1"
  param {
    lr_mult: 1
  }
  param {
    lr_mult: 2
  }
  convolution_param {
    num_output: 20
    kernel_size: 5
    stride: 1
    weight_filler {
      type: "xavier"
    }
    bias_filler {
      type: "constant"
    }
  }
}
layer {
  name: "pool1"
  type: "Pooling"
  bottom: "conv1"
  top: "pool1"
  pooling_param {
    pool: MAX
    kernel_size: 2
    stride: 2
  }
}
layer {
  name: "conv2"
  type: "Convolution"
  bottom: "pool1"
  top: "conv2"
  param {
    lr_mult: 1
  }
  param {
    lr_mult: 2
  }
  convolution_param {
    num_output: 50
    kernel_size: 5
    stride: 1
    weight_filler {
      type: "xavier"
    }
    bias_filler {
      type: "constant"
    }
  }
}
layer {
  name: "pool2"
  type: "Pooling"
  bottom: "conv2"
  top: "pool2"
  pooling_param {
    pool: MAX
    kernel_size: 2
    stride: 2
  }
}
layer {
  name: "ip1"
  type: "InnerProduct"
  bottom: "pool2"
  top: "ip1"
  param {
    lr_mult: 1
  }
  param {
    lr_mult: 2
  }
  inner_product_param {
    num_output: 500
    weight_filler {
      type: "xavier"
    }
    bias_filler {
      type: "constant"
    }
  }
}
layer {
  name: "relu1"
  type: "ReLU"
  bottom: "ip1"
  top: "ip1"
}
layer {
  name: "ip2"
  type: "InnerProduct"
  bottom: "ip1"
  top: "ip2"
  param {
    lr_mult: 1
  }
  param {
    lr_mult: 2
  }
  inner_product_param {
    num_output: 10
    weight_filler {
      type: "xavier"
    }
    bias_filler {
      type: "constant"
    }
  }
}
layer {
  name: "loss"
  type: "SoftmaxWithLoss"
  bottom: "ip2"
  bottom: "label"
  top: "loss"
}
I0320 19:02:00.866904  9184 layer_factory.hpp:77] Creating layer mnist
I0320 19:02:00.875003  9184 net.cpp:91] Creating Layer mnist
I0320 19:02:00.875033  9184 net.cpp:409] mnist -> data
I0320 19:02:00.875082  9184 net.cpp:409] mnist -> label
I0320 19:02:00.875821  9191 db_lmdb.cpp:40] Opened lmdb /home/nikoong/Algorithm_test/handwritting/data/lmdb/finish/train_lmdb
I0320 19:02:00.899829  9184 data_layer.cpp:41] output data size: 20000,1,28,28
I0320 19:02:01.071269  9184 net.cpp:141] Setting up mnist
I0320 19:02:01.071311  9184 net.cpp:148] Top shape: 20000 1 28 28 (15680000)
I0320 19:02:01.071317  9184 net.cpp:148] Top shape: 20000 (20000)
I0320 19:02:01.071331  9184 net.cpp:156] Memory required for data: 62800000
I0320 19:02:01.071339  9184 layer_factory.hpp:77] Creating layer conv1
I0320 19:02:01.071362  9184 net.cpp:91] Creating Layer conv1
I0320 19:02:01.071368  9184 net.cpp:435] conv1 <- data
I0320 19:02:01.071399  9184 net.cpp:409] conv1 -> conv1
I0320 19:02:01.574429  9184 net.cpp:141] Setting up conv1
I0320 19:02:01.574457  9184 net.cpp:148] Top shape: 20000 20 24 24 (230400000)
I0320 19:02:01.574461  9184 net.cpp:156] Memory required for data: 984400000
I0320 19:02:01.574501  9184 layer_factory.hpp:77] Creating layer pool1
I0320 19:02:01.574514  9184 net.cpp:91] Creating Layer pool1
I0320 19:02:01.574518  9184 net.cpp:435] pool1 <- conv1
I0320 19:02:01.574524  9184 net.cpp:409] pool1 -> pool1
I0320 19:02:01.574584  9184 net.cpp:141] Setting up pool1
I0320 19:02:01.574589  9184 net.cpp:148] Top shape: 20000 20 12 12 (57600000)
I0320 19:02:01.574601  9184 net.cpp:156] Memory required for data: 1214800000
I0320 19:02:01.574604  9184 layer_factory.hpp:77] Creating layer conv2
I0320 19:02:01.574615  9184 net.cpp:91] Creating Layer conv2
I0320 19:02:01.574626  9184 net.cpp:435] conv2 <- pool1
I0320 19:02:01.574631  9184 net.cpp:409] conv2 -> conv2
I0320 19:02:01.579514  9184 net.cpp:141] Setting up conv2
I0320 19:02:01.579535  9184 net.cpp:148] Top shape: 20000 50 8 8 (64000000)
I0320 19:02:01.579540  9184 net.cpp:156] Memory required for data: 1470800000
I0320 19:02:01.579545  9184 layer_factory.hpp:77] Creating layer pool2
I0320 19:02:01.579551  9184 net.cpp:91] Creating Layer pool2
I0320 19:02:01.579565  9184 net.cpp:435] pool2 <- conv2
I0320 19:02:01.579569  9184 net.cpp:409] pool2 -> pool2
I0320 19:02:01.579599  9184 net.cpp:141] Setting up pool2
I0320 19:02:01.579614  9184 net.cpp:148] Top shape: 20000 50 4 4 (16000000)
I0320 19:02:01.579617  9184 net.cpp:156] Memory required for data: 1534800000
I0320 19:02:01.579618  9184 layer_factory.hpp:77] Creating layer ip1
I0320 19:02:01.579633  9184 net.cpp:91] Creating Layer ip1
I0320 19:02:01.579635  9184 net.cpp:435] ip1 <- pool2
I0320 19:02:01.579649  9184 net.cpp:409] ip1 -> ip1
I0320 19:02:01.586796  9184 net.cpp:141] Setting up ip1
I0320 19:02:01.586822  9184 net.cpp:148] Top shape: 20000 500 (10000000)
I0320 19:02:01.586827  9184 net.cpp:156] Memory required for data: 1574800000
I0320 19:02:01.586835  9184 layer_factory.hpp:77] Creating layer relu1
I0320 19:02:01.586843  9184 net.cpp:91] Creating Layer relu1
I0320 19:02:01.586846  9184 net.cpp:435] relu1 <- ip1
I0320 19:02:01.586851  9184 net.cpp:396] relu1 -> ip1 (in-place)
I0320 19:02:01.587044  9184 net.cpp:141] Setting up relu1
I0320 19:02:01.587052  9184 net.cpp:148] Top shape: 20000 500 (10000000)
I0320 19:02:01.587064  9184 net.cpp:156] Memory required for data: 1614800000
I0320 19:02:01.587067  9184 layer_factory.hpp:77] Creating layer ip2
I0320 19:02:01.587074  9184 net.cpp:91] Creating Layer ip2
I0320 19:02:01.587076  9184 net.cpp:435] ip2 <- ip1
I0320 19:02:01.587080  9184 net.cpp:409] ip2 -> ip2
I0320 19:02:01.591533  9184 net.cpp:141] Setting up ip2
I0320 19:02:01.591559  9184 net.cpp:148] Top shape: 20000 10 (200000)
I0320 19:02:01.591562  9184 net.cpp:156] Memory required for data: 1615600000
I0320 19:02:01.591569  9184 layer_factory.hpp:77] Creating layer loss
I0320 19:02:01.591593  9184 net.cpp:91] Creating Layer loss
I0320 19:02:01.591596  9184 net.cpp:435] loss <- ip2
I0320 19:02:01.591600  9184 net.cpp:435] loss <- label
I0320 19:02:01.591606  9184 net.cpp:409] loss -> loss
I0320 19:02:01.591621  9184 layer_factory.hpp:77] Creating layer loss
…
I0320 19:02:01.592175  9184 solver.cpp:181] Creating test net (#0) specified by net file: /home/nikoong/Algorithm_test/handwritting/lenet/lenet_lmdb.prototxt
I0320 19:02:01.592216  9184 net.cpp:323] The NetState phase (1) differed from the phase (0) specified by a rule in layer mnist
I0320 19:02:01.592319  9184 net.cpp:49] Initializing net from parameters: 
name: "LeNet"
state {
  phase: TEST
}
layer {
  name: "mnist"
  type: "Data"
  top: "data"
  top: "label"
  include {
    phase: TEST
  }
  transform_param {
    scale: 0.00390625
  }
  data_param {
    source: "/home/nikoong/Algorithm_test/handwritting/data/lmdb/finish/val_lmdb"
    batch_size: 500
    backend: LMDB
  }
}
layer {
  name: "conv1"
  type: "Convolution"
  bottom: "data"
  top: "conv1"
  param {
    lr_mult: 1
  }
  param {
    lr_mult: 2
  }
  convolution_param {
    num_output: 20
    kernel_size: 5
    stride: 1
    weight_filler {
      type: "xavier"
    }
    bias_filler {
      type: "constant"
    }
  }
}
layer {
  name: "pool1"
  type: "Pooling"
  bottom: "conv1"
  top: "pool1"
  pooling_param {
    pool: MAX
    kernel_size: 2
    stride: 2
  }
}
layer {
  name: "conv2"
  type: "Convolution"
  bottom: "pool1"
  top: "conv2"
  param {
    lr_mult: 1
  }
  param {
    lr_mult: 2
  }
  convolution_param {
    num_output: 50
    kernel_size: 5
    stride: 1
    weight_filler {
      type: "xavier"
    }
    bias_filler {
      type: "constant"
    }
  }
}
layer {
  name: "pool2"
  type: "Pooling"
  bottom: "conv2"
  top: "pool2"
  pooling_param {
    pool: MAX
    kernel_size: 2
    stride: 2
  }
}
layer {
  name: "ip1"
  type: "InnerProduct"
  bottom: "pool2"
  top: "ip1"
  param {
    lr_mult: 1
  }
  param {
    lr_mult: 2
  }
  inner_product_param {
    num_output: 500
    weight_filler {
      type: "xavier"
    }
    bias_filler {
      type: "constant"
    }
  }
}
layer {
  name: "relu1"
  type: "ReLU"
  bottom: "ip1"
  top: "ip1"
}
layer {
  name: "ip2"
  type: "InnerProduct"
  bottom: "ip1"
  top: "ip2"
  param {
    lr_mult: 1
  }
  param {
    lr_mult: 2
  }
  inner_product_param {
    num_output: 10
    weight_filler {
      type: "xavier"
    }
    bias_filler {
      type: "constant"
    }
  }
}
layer {
  name: "accuracy"
  type: "Accuracy"
  bottom: "ip2"
  bottom: "label"
  top: "accuracy"
  include {
    phase: TEST
  }
}
layer {
  name: "loss"
  type: "SoftmaxWithLoss"
  bottom: "ip2"
  bottom: "label"
  top: "loss"
}
I0320 19:02:01.592386  9184 layer_factory.hpp:77] Creating layer mnist
I0320 19:02:01.592710  9184 net.cpp:91] Creating Layer mnist
I0320 19:02:01.592715  9184 net.cpp:409] mnist -> data
I0320 19:02:01.592722  9184 net.cpp:409] mnist -> label
I0320 19:02:01.593626  9193 db_lmdb.cpp:40] Opened lmdb /home/nikoong/Algorithm_test/handwritting/data/lmdb/finish/val_lmdb
I0320 19:02:01.593747  9184 data_layer.cpp:41] output data size: 500,1,28,28
I0320 19:02:01.618583  9184 net.cpp:141] Setting up mnist
I0320 19:02:01.618615  9184 net.cpp:148] Top shape: 500 1 28 28 (392000)
I0320 19:02:01.618620  9184 net.cpp:148] Top shape: 500 (500)
I0320 19:02:01.618623  9184 net.cpp:156] Memory required for data: 1570000
I0320 19:02:01.618628  9184 layer_factory.hpp:77] Creating layer label_mnist_1_split
I0320 19:02:01.618639  9184 net.cpp:91] Creating Layer label_mnist_1_split
I0320 19:02:01.618643  9184 net.cpp:435] label_mnist_1_split <- label
I0320 19:02:01.618649  9184 net.cpp:409] label_mnist_1_split -> label_mnist_1_split_0
I0320 19:02:01.618657  9184 net.cpp:409] label_mnist_1_split -> label_mnist_1_split_1
I0320 19:02:01.618721  9184 net.cpp:141] Setting up label_mnist_1_split
I0320 19:02:01.618727  9184 net.cpp:148] Top shape: 500 (500)
I0320 19:02:01.618741  9184 net.cpp:148] Top shape: 500 (500)
I0320 19:02:01.618742  9184 net.cpp:156] Memory required for data: 1574000
I0320 19:02:01.618746  9184 layer_factory.hpp:77] Creating layer conv1
I0320 19:02:01.618757  9184 net.cpp:91] Creating Layer conv1
I0320 19:02:01.618759  9184 net.cpp:435] conv1 <- data
I0320 19:02:01.618777  9184 net.cpp:409] conv1 -> conv1
I0320 19:02:01.621557  9184 net.cpp:141] Setting up conv1
I0320 19:02:01.621578  9184 net.cpp:148] Top shape: 500 20 24 24 (5760000)
I0320 19:02:01.621583  9184 net.cpp:156] Memory required for data: 24614000
I0320 19:02:01.621597  9184 layer_factory.hpp:77] Creating layer pool1
I0320 19:02:01.621606  9184 net.cpp:91] Creating Layer pool1
I0320 19:02:01.621613  9184 net.cpp:435] pool1 <- conv1
I0320 19:02:01.621619  9184 net.cpp:409] pool1 -> pool1
I0320 19:02:01.621664  9184 net.cpp:141] Setting up pool1
I0320 19:02:01.621670  9184 net.cpp:148] Top shape: 500 20 12 12 (1440000)
I0320 19:02:01.621673  9184 net.cpp:156] Memory required for data: 30374000
I0320 19:02:01.621676  9184 layer_factory.hpp:77] Creating layer conv2
I0320 19:02:01.621686  9184 net.cpp:91] Creating Layer conv2
I0320 19:02:01.621690  9184 net.cpp:435] conv2 <- pool1
I0320 19:02:01.621695  9184 net.cpp:409] conv2 -> conv2
I0320 19:02:01.622979  9184 net.cpp:141] Setting up conv2
I0320 19:02:01.622994  9184 net.cpp:148] Top shape: 500 50 8 8 (1600000)
I0320 19:02:01.622998  9184 net.cpp:156] Memory required for data: 36774000
I0320 19:02:01.623008  9184 layer_factory.hpp:77] Creating layer pool2
I0320 19:02:01.623015  9184 net.cpp:91] Creating Layer pool2
I0320 19:02:01.623018  9184 net.cpp:435] pool2 <- conv2
I0320 19:02:01.623023  9184 net.cpp:409] pool2 -> pool2
I0320 19:02:01.623054  9184 net.cpp:141] Setting up pool2
I0320 19:02:01.623061  9184 net.cpp:148] Top shape: 500 50 4 4 (400000)
I0320 19:02:01.623070  9184 net.cpp:156] Memory required for data: 38374000
I0320 19:02:01.623073  9184 layer_factory.hpp:77] Creating layer ip1
I0320 19:02:01.623080  9184 net.cpp:91] Creating Layer ip1
I0320 19:02:01.623082  9184 net.cpp:435] ip1 <- pool2
I0320 19:02:01.623092  9184 net.cpp:409] ip1 -> ip1
I0320 19:02:01.626734  9184 net.cpp:141] Setting up ip1
I0320 19:02:01.626762  9184 net.cpp:148] Top shape: 500 500 (250000)
I0320 19:02:01.626766  9184 net.cpp:156] Memory required for data: 39374000
I0320 19:02:01.626777  9184 layer_factory.hpp:77] Creating layer relu1
I0320 19:02:01.626786  9184 net.cpp:91] Creating Layer relu1
I0320 19:02:01.626798  9184 net.cpp:435] relu1 <- ip1
I0320 19:02:01.626806  9184 net.cpp:396] relu1 -> ip1 (in-place)
I0320 19:02:01.627425  9184 net.cpp:141] Setting up relu1
I0320 19:02:01.627437  9184 net.cpp:148] Top shape: 500 500 (250000)
I0320 19:02:01.627452  9184 net.cpp:156] Memory required for data: 40374000
I0320 19:02:01.627456  9184 layer_factory.hpp:77] Creating layer ip2
I0320 19:02:01.627465  9184 net.cpp:91] Creating Layer ip2
I0320 19:02:01.627467  9184 net.cpp:435] ip2 <- ip1
I0320 19:02:01.627475  9184 net.cpp:409] ip2 -> ip2
I0320 19:02:01.627605  9184 net.cpp:141] Setting up ip2
I0320 19:02:01.627614  9184 net.cpp:148] Top shape: 500 10 (5000)
I0320 19:02:01.627626  9184 net.cpp:156] Memory required for data: 40394000
I0320 19:02:01.627631  9184 layer_factory.hpp:77] Creating layer ip2_ip2_0_split
I0320 19:02:01.627636  9184 net.cpp:91] Creating Layer ip2_ip2_0_split
I0320 19:02:01.627638  9184 net.cpp:435] ip2_ip2_0_split <- ip2
I0320 19:02:01.627642  9184 net.cpp:409] ip2_ip2_0_split -> ip2_ip2_0_split_0
I0320 19:02:01.627650  9184 net.cpp:409] ip2_ip2_0_split -> ip2_ip2_0_split_1
I0320 19:02:01.627674  9184 net.cpp:141] Setting up ip2_ip2_0_split
I0320 19:02:01.627681  9184 net.cpp:148] Top shape: 500 10 (5000)
I0320 19:02:01.627683  9184 net.cpp:148] Top shape: 500 10 (5000)
I0320 19:02:01.627686  9184 net.cpp:156] Memory required for data: 40434000
I0320 19:02:01.627691  9184 layer_factory.hpp:77] Creating layer accuracy
I0320 19:02:01.627696  9184 net.cpp:91] Creating Layer accuracy
I0320 19:02:01.627704  9184 net.cpp:435] accuracy <- ip2_ip2_0_split_0
I0320 19:02:01.627707  9184 net.cpp:435] accuracy <- label_mnist_1_split_0
I0320 19:02:01.627712  9184 net.cpp:409] accuracy -> accuracy
…
