…
I0315 16:56:48.097635 12838 net.cpp:323] The NetState phase (0) differed from the phase (1) specified by a rule in layer accuracy
I0315 16:56:48.097728 12838 net.cpp:49] Initializing net from parameters: 
state {
  phase: TRAIN
}
layer {
  name: "data"
  type: "ImageData"
  top: "data"
  top: "label"
  include {
    phase: TRAIN
  }
  image_data_param {
    source: "/home/nikoong/Algorithm_test/handwritting/data_crop/txt/data2_28*28.txt"
    scale: 0.00390625
    batch_size: 30000
    shuffle: true
    new_height: 28
    new_width: 28
    is_color: false
  }
}
layer {
  name: "conv1"
  type: "Convolution"
  bottom: "data"
  top: "conv1"
  param {
    lr_mult: 1
  }
  param {
    lr_mult: 2
  }
  convolution_param {
    num_output: 20
    kernel_size: 5
    stride: 1
    weight_filler {
      type: "xavier"
    }
    bias_filler {
      type: "constant"
    }
  }
}
layer {
  name: "pool1"
  type: "Pooling"
  bottom: "conv1"
  top: "pool1"
  pooling_param {
    pool: MAX
    kernel_size: 2
    stride: 2
  }
}
layer {
  name: "conv2"
  type: "Convolution"
  bottom: "pool1"
  top: "conv2"
  param {
    lr_mult: 1
  }
  param {
    lr_mult: 2
  }
  convolution_param {
    num_output: 50
    kernel_size: 5
    stride: 1
    weight_filler {
      type: "xavier"
    }
    bias_filler {
      type: "constant"
    }
  }
}
layer {
  name: "pool2"
  type: "Pooling"
  bottom: "conv2"
  top: "pool2"
  pooling_param {
    pool: MAX
    kernel_size: 2
    stride: 2
  }
}
layer {
  name: "ip1"
  type: "InnerProduct"
  bottom: "pool2"
  top: "ip1"
  param {
    lr_mult: 1
  }
  param {
    lr_mult: 2
  }
  inner_product_param {
    num_output: 500
    weight_filler {
      type: "xavier"
    }
    bias_filler {
      type: "constant"
    }
  }
}
layer {
  name: "relu1"
  type: "ReLU"
  bottom: "ip1"
  top: "ip1"
}
layer {
  name: "ip2"
  type: "InnerProduct"
  bottom: "ip1"
  top: "ip2"
  param {
    lr_mult: 1
  }
  param {
    lr_mult: 2
  }
  inner_product_param {
    num_output: 10
    weight_filler {
      type: "xavier"
    }
    bias_filler {
      type: "constant"
    }
  }
}
layer {
  name: "loss"
  type: "SoftmaxWithLoss"
  bottom: "ip2"
  bottom: "label"
  top: "loss"
}
I0315 16:56:48.097784 12838 layer_factory.hpp:77] Creating layer data
I0315 16:56:48.097813 12838 net.cpp:91] Creating Layer data
I0315 16:56:48.097820 12838 net.cpp:409] data -> data
I0315 16:56:48.097851 12838 net.cpp:409] data -> label
I0315 16:56:48.097863 12838 image_data_layer.cpp:37] Opening file /home/nikoong/Algorithm_test/handwritting/data_crop/txt/data2_28*28.txt
I0315 16:56:48.124284 12838 image_data_layer.cpp:47] Shuffling data
I0315 16:56:48.139932 12838 image_data_layer.cpp:52] A total of 88300 images.
I0315 16:56:48.259210 12838 image_data_layer.cpp:79] output data size: 30000,1,28,28
I0315 16:56:48.509332 12838 net.cpp:141] Setting up data
I0315 16:56:48.509384 12838 net.cpp:148] Top shape: 30000 1 28 28 (23520000)
I0315 16:56:48.509390 12838 net.cpp:148] Top shape: 30000 (30000)
I0315 16:56:48.509393 12838 net.cpp:156] Memory required for data: 94200000
I0315 16:56:48.509402 12838 layer_factory.hpp:77] Creating layer conv1
I0315 16:56:48.509425 12838 net.cpp:91] Creating Layer conv1
I0315 16:56:48.509431 12838 net.cpp:435] conv1 <- data
I0315 16:56:48.509443 12838 net.cpp:409] conv1 -> conv1
I0315 16:56:48.902082 12838 net.cpp:141] Setting up conv1
I0315 16:56:48.902114 12838 net.cpp:148] Top shape: 30000 20 24 24 (345600000)
I0315 16:56:48.902118 12838 net.cpp:156] Memory required for data: 1476600000
I0315 16:56:48.902145 12838 layer_factory.hpp:77] Creating layer pool1
I0315 16:56:48.902158 12838 net.cpp:91] Creating Layer pool1
I0315 16:56:48.902163 12838 net.cpp:435] pool1 <- conv1
I0315 16:56:48.902168 12838 net.cpp:409] pool1 -> pool1
I0315 16:56:48.902225 12838 net.cpp:141] Setting up pool1
I0315 16:56:48.902230 12838 net.cpp:148] Top shape: 30000 20 12 12 (86400000)
I0315 16:56:48.902243 12838 net.cpp:156] Memory required for data: 1822200000
I0315 16:56:48.902245 12838 layer_factory.hpp:77] Creating layer conv2
I0315 16:56:48.902256 12838 net.cpp:91] Creating Layer conv2
I0315 16:56:48.902258 12838 net.cpp:435] conv2 <- pool1
I0315 16:56:48.902273 12838 net.cpp:409] conv2 -> conv2
I0315 16:56:48.903893 12838 net.cpp:141] Setting up conv2
I0315 16:56:48.903915 12838 net.cpp:148] Top shape: 30000 50 8 8 (96000000)
I0315 16:56:48.903919 12838 net.cpp:156] Memory required for data: 2206200000
I0315 16:56:48.903925 12838 layer_factory.hpp:77] Creating layer pool2
I0315 16:56:48.903944 12838 net.cpp:91] Creating Layer pool2
I0315 16:56:48.903949 12838 net.cpp:435] pool2 <- conv2
I0315 16:56:48.903954 12838 net.cpp:409] pool2 -> pool2
I0315 16:56:48.903992 12838 net.cpp:141] Setting up pool2
I0315 16:56:48.903998 12838 net.cpp:148] Top shape: 30000 50 4 4 (24000000)
I0315 16:56:48.904009 12838 net.cpp:156] Memory required for data: 2302200000
I0315 16:56:48.904012 12838 layer_factory.hpp:77] Creating layer ip1
I0315 16:56:48.904027 12838 net.cpp:91] Creating Layer ip1
I0315 16:56:48.904031 12838 net.cpp:435] ip1 <- pool2
I0315 16:56:48.904034 12838 net.cpp:409] ip1 -> ip1
I0315 16:56:48.907519 12838 net.cpp:141] Setting up ip1
I0315 16:56:48.907543 12838 net.cpp:148] Top shape: 30000 500 (15000000)
I0315 16:56:48.907547 12838 net.cpp:156] Memory required for data: 2362200000
I0315 16:56:48.907555 12838 layer_factory.hpp:77] Creating layer relu1
I0315 16:56:48.907572 12838 net.cpp:91] Creating Layer relu1
I0315 16:56:48.907575 12838 net.cpp:435] relu1 <- ip1
I0315 16:56:48.907580 12838 net.cpp:396] relu1 -> ip1 (in-place)
I0315 16:56:48.907750 12838 net.cpp:141] Setting up relu1
I0315 16:56:48.907758 12838 net.cpp:148] Top shape: 30000 500 (15000000)
I0315 16:56:48.907771 12838 net.cpp:156] Memory required for data: 2422200000
I0315 16:56:48.907774 12838 layer_factory.hpp:77] Creating layer ip2
I0315 16:56:48.907779 12838 net.cpp:91] Creating Layer ip2
I0315 16:56:48.907785 12838 net.cpp:435] ip2 <- ip1
I0315 16:56:48.907799 12838 net.cpp:409] ip2 -> ip2
I0315 16:56:48.908646 12838 net.cpp:141] Setting up ip2
I0315 16:56:48.908668 12838 net.cpp:148] Top shape: 30000 10 (300000)
I0315 16:56:48.908670 12838 net.cpp:156] Memory required for data: 2423400000
I0315 16:56:48.908676 12838 layer_factory.hpp:77] Creating layer loss
I0315 16:56:48.908682 12838 net.cpp:91] Creating Layer loss
I0315 16:56:48.908695 12838 net.cpp:435] loss <- ip2
I0315 16:56:48.908699 12838 net.cpp:435] loss <- label
I0315 16:56:48.908704 12838 net.cpp:409] loss -> loss
I0315 16:56:48.908717 12838 layer_factory.hpp:77] Creating layer loss
…
I0315 16:56:48.909261 12838 solver.cpp:181] Creating test net (#0) specified by net file: /home/nikoong/Algorithm_test/handwritting/lenet/lenet_my.prototxt
I0315 16:56:48.909292 12838 net.cpp:323] The NetState phase (1) differed from the phase (0) specified by a rule in layer data
I0315 16:56:48.909405 12838 net.cpp:49] Initializing net from parameters: 
state {
  phase: TEST
}
layer {
  name: "data"
  type: "ImageData"
  top: "data"
  top: "label"
  include {
    phase: TEST
  }
  image_data_param {
    source: "/home/nikoong/Algorithm_test/handwritting/data_crop/txt/data1_28*28.txt"
    batch_size: 100
    new_height: 28
    new_width: 28
    is_color: false
  }
}
layer {
  name: "conv1"
  type: "Convolution"
  bottom: "data"
  top: "conv1"
  param {
    lr_mult: 1
  }
  param {
    lr_mult: 2
  }
  convolution_param {
    num_output: 20
    kernel_size: 5
    stride: 1
    weight_filler {
      type: "xavier"
    }
    bias_filler {
      type: "constant"
    }
  }
}
layer {
  name: "pool1"
  type: "Pooling"
  bottom: "conv1"
  top: "pool1"
  pooling_param {
    pool: MAX
    kernel_size: 2
    stride: 2
  }
}
layer {
  name: "conv2"
  type: "Convolution"
  bottom: "pool1"
  top: "conv2"
  param {
    lr_mult: 1
  }
  param {
    lr_mult: 2
  }
  convolution_param {
    num_output: 50
    kernel_size: 5
    stride: 1
    weight_filler {
      type: "xavier"
    }
    bias_filler {
      type: "constant"
    }
  }
}
layer {
  name: "pool2"
  type: "Pooling"
  bottom: "conv2"
  top: "pool2"
  pooling_param {
    pool: MAX
    kernel_size: 2
    stride: 2
  }
}
layer {
  name: "ip1"
  type: "InnerProduct"
  bottom: "pool2"
  top: "ip1"
  param {
    lr_mult: 1
  }
  param {
    lr_mult: 2
  }
  inner_product_param {
    num_output: 500
    weight_filler {
      type: "xavier"
    }
    bias_filler {
      type: "constant"
    }
  }
}
layer {
  name: "relu1"
  type: "ReLU"
  bottom: "ip1"
  top: "ip1"
}
layer {
  name: "ip2"
  type: "InnerProduct"
  bottom: "ip1"
  top: "ip2"
  param {
    lr_mult: 1
  }
  param {
    lr_mult: 2
  }
  inner_product_param {
    num_output: 10
    weight_filler {
      type: "xavier"
    }
    bias_filler {
      type: "constant"
    }
  }
}
layer {
  name: "accuracy"
  type: "Accuracy"
  bottom: "ip2"
  bottom: "label"
  top: "accuracy"
  include {
    phase: TEST
  }
}
layer {
  name: "loss"
  type: "SoftmaxWithLoss"
  bottom: "ip2"
  bottom: "label"
  top: "loss"
}
I0315 16:56:48.909472 12838 layer_factory.hpp:77] Creating layer data
I0315 16:56:48.909484 12838 net.cpp:91] Creating Layer data
I0315 16:56:48.909488 12838 net.cpp:409] data -> data
I0315 16:56:48.909494 12838 net.cpp:409] data -> label
I0315 16:56:48.909502 12838 image_data_layer.cpp:37] Opening file /home/nikoong/Algorithm_test/handwritting/data_crop/txt/data1_28*28.txt
I0315 16:56:48.912739 12838 image_data_layer.cpp:52] A total of 11430 images.
I0315 16:56:48.912915 12838 image_data_layer.cpp:79] output data size: 100,1,28,28
I0315 16:56:48.915057 12838 net.cpp:141] Setting up data
I0315 16:56:48.915091 12838 net.cpp:148] Top shape: 100 1 28 28 (78400)
I0315 16:56:48.915096 12838 net.cpp:148] Top shape: 100 (100)
I0315 16:56:48.915098 12838 net.cpp:156] Memory required for data: 314000
I0315 16:56:48.915103 12838 layer_factory.hpp:77] Creating layer label_data_1_split
I0315 16:56:48.915113 12838 net.cpp:91] Creating Layer label_data_1_split
I0315 16:56:48.915117 12838 net.cpp:435] label_data_1_split <- label
I0315 16:56:48.915122 12838 net.cpp:409] label_data_1_split -> label_data_1_split_0
I0315 16:56:48.915132 12838 net.cpp:409] label_data_1_split -> label_data_1_split_1
I0315 16:56:48.915194 12838 net.cpp:141] Setting up label_data_1_split
I0315 16:56:48.915200 12838 net.cpp:148] Top shape: 100 (100)
I0315 16:56:48.915213 12838 net.cpp:148] Top shape: 100 (100)
I0315 16:56:48.915227 12838 net.cpp:156] Memory required for data: 314800
I0315 16:56:48.915230 12838 layer_factory.hpp:77] Creating layer conv1
I0315 16:56:48.915241 12838 net.cpp:91] Creating Layer conv1
I0315 16:56:48.915243 12838 net.cpp:435] conv1 <- data
I0315 16:56:48.915248 12838 net.cpp:409] conv1 -> conv1
I0315 16:56:48.916640 12838 net.cpp:141] Setting up conv1
I0315 16:56:48.916651 12838 net.cpp:148] Top shape: 100 20 24 24 (1152000)
I0315 16:56:48.916666 12838 net.cpp:156] Memory required for data: 4922800
I0315 16:56:48.916674 12838 layer_factory.hpp:77] Creating layer pool1
I0315 16:56:48.916682 12838 net.cpp:91] Creating Layer pool1
I0315 16:56:48.916684 12838 net.cpp:435] pool1 <- conv1
I0315 16:56:48.916689 12838 net.cpp:409] pool1 -> pool1
I0315 16:56:48.916719 12838 net.cpp:141] Setting up pool1
I0315 16:56:48.916726 12838 net.cpp:148] Top shape: 100 20 12 12 (288000)
I0315 16:56:48.916729 12838 net.cpp:156] Memory required for data: 6074800
I0315 16:56:48.916731 12838 layer_factory.hpp:77] Creating layer conv2
I0315 16:56:48.916738 12838 net.cpp:91] Creating Layer conv2
I0315 16:56:48.916741 12838 net.cpp:435] conv2 <- pool1
I0315 16:56:48.916746 12838 net.cpp:409] conv2 -> conv2
I0315 16:56:48.918040 12838 net.cpp:141] Setting up conv2
I0315 16:56:48.918071 12838 net.cpp:148] Top shape: 100 50 8 8 (320000)
I0315 16:56:48.918087 12838 net.cpp:156] Memory required for data: 7354800
I0315 16:56:48.918102 12838 layer_factory.hpp:77] Creating layer pool2
I0315 16:56:48.918112 12838 net.cpp:91] Creating Layer pool2
I0315 16:56:48.918114 12838 net.cpp:435] pool2 <- conv2
I0315 16:56:48.918119 12838 net.cpp:409] pool2 -> pool2
I0315 16:56:48.918153 12838 net.cpp:141] Setting up pool2
I0315 16:56:48.918169 12838 net.cpp:148] Top shape: 100 50 4 4 (80000)
I0315 16:56:48.918180 12838 net.cpp:156] Memory required for data: 7674800
I0315 16:56:48.918191 12838 layer_factory.hpp:77] Creating layer ip1
I0315 16:56:48.918205 12838 net.cpp:91] Creating Layer ip1
I0315 16:56:48.918217 12838 net.cpp:435] ip1 <- pool2
I0315 16:56:48.918231 12838 net.cpp:409] ip1 -> ip1
I0315 16:56:48.922155 12838 net.cpp:141] Setting up ip1
I0315 16:56:48.922176 12838 net.cpp:148] Top shape: 100 500 (50000)
I0315 16:56:48.922180 12838 net.cpp:156] Memory required for data: 7874800
I0315 16:56:48.922191 12838 layer_factory.hpp:77] Creating layer relu1
I0315 16:56:48.922199 12838 net.cpp:91] Creating Layer relu1
I0315 16:56:48.922204 12838 net.cpp:435] relu1 <- ip1
I0315 16:56:48.922209 12838 net.cpp:396] relu1 -> ip1 (in-place)
I0315 16:56:48.923023 12838 net.cpp:141] Setting up relu1
I0315 16:56:48.923035 12838 net.cpp:148] Top shape: 100 500 (50000)
I0315 16:56:48.923038 12838 net.cpp:156] Memory required for data: 8074800
I0315 16:56:48.923041 12838 layer_factory.hpp:77] Creating layer ip2
I0315 16:56:48.923050 12838 net.cpp:91] Creating Layer ip2
I0315 16:56:48.923054 12838 net.cpp:435] ip2 <- ip1
I0315 16:56:48.923060 12838 net.cpp:409] ip2 -> ip2
I0315 16:56:48.923195 12838 net.cpp:141] Setting up ip2
I0315 16:56:48.923207 12838 net.cpp:148] Top shape: 100 10 (1000)
I0315 16:56:48.923223 12838 net.cpp:156] Memory required for data: 8078800
I0315 16:56:48.923229 12838 layer_factory.hpp:77] Creating layer ip2_ip2_0_split
I0315 16:56:48.923234 12838 net.cpp:91] Creating Layer ip2_ip2_0_split
I0315 16:56:48.923238 12838 net.cpp:435] ip2_ip2_0_split <- ip2
I0315 16:56:48.923240 12838 net.cpp:409] ip2_ip2_0_split -> ip2_ip2_0_split_0
I0315 16:56:48.923246 12838 net.cpp:409] ip2_ip2_0_split -> ip2_ip2_0_split_1
I0315 16:56:48.923272 12838 net.cpp:141] Setting up ip2_ip2_0_split
I0315 16:56:48.923279 12838 net.cpp:148] Top shape: 100 10 (1000)
I0315 16:56:48.923281 12838 net.cpp:148] Top shape: 100 10 (1000)
I0315 16:56:48.923285 12838 net.cpp:156] Memory required for data: 8086800
I0315 16:56:48.923286 12838 layer_factory.hpp:77] Creating layer accuracy
I0315 16:56:48.923292 12838 net.cpp:91] Creating Layer accuracy
I0315 16:56:48.923295 12838 net.cpp:435] accuracy <- ip2_ip2_0_split_0
I0315 16:56:48.923300 12838 net.cpp:435] accuracy <- label_data_1_split_0
I0315 16:56:48.923327 12838 net.cpp:409] accuracy -> accuracy
…
