…
I0316 10:55:26.174973  4899 net.cpp:323] The NetState phase (0) differed from the phase (1) specified by a rule in layer accuracy
I0316 10:55:26.175070  4899 net.cpp:49] Initializing net from parameters: 
state {
  phase: TRAIN
}
layer {
  name: "data"
  type: "ImageData"
  top: "data"
  top: "label"
  include {
    phase: TRAIN
  }
  image_data_param {
    source: "/home/nikoong/Algorithm_test/handwritting/data_crop/txt/data2_28*28.txt"
    scale: 0.00390625
    batch_size: 30000
    shuffle: true
    new_height: 28
    new_width: 28
    is_color: false
  }
}
layer {
  name: "conv1"
  type: "Convolution"
  bottom: "data"
  top: "conv1"
  param {
    lr_mult: 1
  }
  param {
    lr_mult: 2
  }
  convolution_param {
    num_output: 20
    kernel_size: 5
    stride: 1
    weight_filler {
      type: "xavier"
    }
    bias_filler {
      type: "constant"
    }
  }
}
layer {
  name: "pool1"
  type: "Pooling"
  bottom: "conv1"
  top: "pool1"
  pooling_param {
    pool: MAX
    kernel_size: 2
    stride: 2
  }
}
layer {
  name: "conv2"
  type: "Convolution"
  bottom: "pool1"
  top: "conv2"
  param {
    lr_mult: 1
  }
  param {
    lr_mult: 2
  }
  convolution_param {
    num_output: 50
    kernel_size: 5
    stride: 1
    weight_filler {
      type: "xavier"
    }
    bias_filler {
      type: "constant"
    }
  }
}
layer {
  name: "pool2"
  type: "Pooling"
  bottom: "conv2"
  top: "pool2"
  pooling_param {
    pool: MAX
    kernel_size: 2
    stride: 2
  }
}
layer {
  name: "ip1"
  type: "InnerProduct"
  bottom: "pool2"
  top: "ip1"
  param {
    lr_mult: 1
  }
  param {
    lr_mult: 2
  }
  inner_product_param {
    num_output: 500
    weight_filler {
      type: "xavier"
    }
    bias_filler {
      type: "constant"
    }
  }
}
layer {
  name: "relu1"
  type: "ReLU"
  bottom: "ip1"
  top: "ip1"
}
layer {
  name: "ip2"
  type: "InnerProduct"
  bottom: "ip1"
  top: "ip2"
  param {
    lr_mult: 1
  }
  param {
    lr_mult: 2
  }
  inner_product_param {
    num_output: 10
    weight_filler {
      type: "xavier"
    }
    bias_filler {
      type: "constant"
    }
  }
}
layer {
  name: "loss"
  type: "SoftmaxWithLoss"
  bottom: "ip2"
  bottom: "label"
  top: "loss"
}
I0316 10:55:26.175123  4899 layer_factory.hpp:77] Creating layer data
I0316 10:55:26.175158  4899 net.cpp:91] Creating Layer data
I0316 10:55:26.175163  4899 net.cpp:409] data -> data
I0316 10:55:26.175194  4899 net.cpp:409] data -> label
I0316 10:55:26.175207  4899 image_data_layer.cpp:37] Opening file /home/nikoong/Algorithm_test/handwritting/data_crop/txt/data2_28*28.txt
I0316 10:55:26.202412  4899 image_data_layer.cpp:47] Shuffling data
I0316 10:55:26.218179  4899 image_data_layer.cpp:52] A total of 88300 images.
I0316 10:55:26.337957  4899 image_data_layer.cpp:79] output data size: 30000,1,28,28
I0316 10:55:26.589362  4899 net.cpp:141] Setting up data
I0316 10:55:26.589419  4899 net.cpp:148] Top shape: 30000 1 28 28 (23520000)
I0316 10:55:26.589424  4899 net.cpp:148] Top shape: 30000 (30000)
I0316 10:55:26.589427  4899 net.cpp:156] Memory required for data: 94200000
I0316 10:55:26.589434  4899 layer_factory.hpp:77] Creating layer conv1
I0316 10:55:26.589458  4899 net.cpp:91] Creating Layer conv1
I0316 10:55:26.589476  4899 net.cpp:435] conv1 <- data
I0316 10:55:26.589495  4899 net.cpp:409] conv1 -> conv1
I0316 10:55:26.983788  4899 net.cpp:141] Setting up conv1
I0316 10:55:26.983820  4899 net.cpp:148] Top shape: 30000 20 24 24 (345600000)
I0316 10:55:26.983824  4899 net.cpp:156] Memory required for data: 1476600000
I0316 10:55:26.983850  4899 layer_factory.hpp:77] Creating layer pool1
I0316 10:55:26.983865  4899 net.cpp:91] Creating Layer pool1
I0316 10:55:26.983870  4899 net.cpp:435] pool1 <- conv1
I0316 10:55:26.983875  4899 net.cpp:409] pool1 -> pool1
I0316 10:55:26.983922  4899 net.cpp:141] Setting up pool1
I0316 10:55:26.983937  4899 net.cpp:148] Top shape: 30000 20 12 12 (86400000)
I0316 10:55:26.983939  4899 net.cpp:156] Memory required for data: 1822200000
I0316 10:55:26.983942  4899 layer_factory.hpp:77] Creating layer conv2
I0316 10:55:26.983961  4899 net.cpp:91] Creating Layer conv2
I0316 10:55:26.983974  4899 net.cpp:435] conv2 <- pool1
I0316 10:55:26.983978  4899 net.cpp:409] conv2 -> conv2
I0316 10:55:26.985677  4899 net.cpp:141] Setting up conv2
I0316 10:55:26.985692  4899 net.cpp:148] Top shape: 30000 50 8 8 (96000000)
I0316 10:55:26.985704  4899 net.cpp:156] Memory required for data: 2206200000
I0316 10:55:26.985713  4899 layer_factory.hpp:77] Creating layer pool2
I0316 10:55:26.985718  4899 net.cpp:91] Creating Layer pool2
I0316 10:55:26.985721  4899 net.cpp:435] pool2 <- conv2
I0316 10:55:26.985726  4899 net.cpp:409] pool2 -> pool2
I0316 10:55:26.985757  4899 net.cpp:141] Setting up pool2
I0316 10:55:26.985764  4899 net.cpp:148] Top shape: 30000 50 4 4 (24000000)
I0316 10:55:26.985776  4899 net.cpp:156] Memory required for data: 2302200000
I0316 10:55:26.985798  4899 layer_factory.hpp:77] Creating layer ip1
I0316 10:55:26.985805  4899 net.cpp:91] Creating Layer ip1
I0316 10:55:26.985816  4899 net.cpp:435] ip1 <- pool2
I0316 10:55:26.985821  4899 net.cpp:409] ip1 -> ip1
I0316 10:55:26.989364  4899 net.cpp:141] Setting up ip1
I0316 10:55:26.989389  4899 net.cpp:148] Top shape: 30000 500 (15000000)
I0316 10:55:26.989392  4899 net.cpp:156] Memory required for data: 2362200000
I0316 10:55:26.989401  4899 layer_factory.hpp:77] Creating layer relu1
I0316 10:55:26.989413  4899 net.cpp:91] Creating Layer relu1
I0316 10:55:26.989415  4899 net.cpp:435] relu1 <- ip1
I0316 10:55:26.989421  4899 net.cpp:396] relu1 -> ip1 (in-place)
I0316 10:55:26.989620  4899 net.cpp:141] Setting up relu1
I0316 10:55:26.989639  4899 net.cpp:148] Top shape: 30000 500 (15000000)
I0316 10:55:26.989656  4899 net.cpp:156] Memory required for data: 2422200000
I0316 10:55:26.989658  4899 layer_factory.hpp:77] Creating layer ip2
I0316 10:55:26.989665  4899 net.cpp:91] Creating Layer ip2
I0316 10:55:26.989667  4899 net.cpp:435] ip2 <- ip1
I0316 10:55:26.989682  4899 net.cpp:409] ip2 -> ip2
I0316 10:55:26.990537  4899 net.cpp:141] Setting up ip2
I0316 10:55:26.990550  4899 net.cpp:148] Top shape: 30000 10 (300000)
I0316 10:55:26.990561  4899 net.cpp:156] Memory required for data: 2423400000
I0316 10:55:26.990567  4899 layer_factory.hpp:77] Creating layer loss
I0316 10:55:26.990583  4899 net.cpp:91] Creating Layer loss
I0316 10:55:26.990586  4899 net.cpp:435] loss <- ip2
I0316 10:55:26.990591  4899 net.cpp:435] loss <- label
I0316 10:55:26.990605  4899 net.cpp:409] loss -> loss
I0316 10:55:26.990617  4899 layer_factory.hpp:77] Creating layer loss
…
I0316 10:55:26.991415  4899 solver.cpp:181] Creating test net (#0) specified by net file: /home/nikoong/Algorithm_test/handwritting/lenet/lenet_my.prototxt
I0316 10:55:26.991456  4899 net.cpp:323] The NetState phase (1) differed from the phase (0) specified by a rule in layer data
I0316 10:55:26.991564  4899 net.cpp:49] Initializing net from parameters: 
state {
  phase: TEST
}
layer {
  name: "data"
  type: "ImageData"
  top: "data"
  top: "label"
  include {
    phase: TEST
  }
  image_data_param {
    source: "/home/nikoong/Algorithm_test/handwritting/data_crop/txt/data1_28*28.txt"
    batch_size: 100
    new_height: 28
    new_width: 28
    is_color: false
  }
}
layer {
  name: "conv1"
  type: "Convolution"
  bottom: "data"
  top: "conv1"
  param {
    lr_mult: 1
  }
  param {
    lr_mult: 2
  }
  convolution_param {
    num_output: 20
    kernel_size: 5
    stride: 1
    weight_filler {
      type: "xavier"
    }
    bias_filler {
      type: "constant"
    }
  }
}
layer {
  name: "pool1"
  type: "Pooling"
  bottom: "conv1"
  top: "pool1"
  pooling_param {
    pool: MAX
    kernel_size: 2
    stride: 2
  }
}
layer {
  name: "conv2"
  type: "Convolution"
  bottom: "pool1"
  top: "conv2"
  param {
    lr_mult: 1
  }
  param {
    lr_mult: 2
  }
  convolution_param {
    num_output: 50
    kernel_size: 5
    stride: 1
    weight_filler {
      type: "xavier"
    }
    bias_filler {
      type: "constant"
    }
  }
}
layer {
  name: "pool2"
  type: "Pooling"
  bottom: "conv2"
  top: "pool2"
  pooling_param {
    pool: MAX
    kernel_size: 2
    stride: 2
  }
}
layer {
  name: "ip1"
  type: "InnerProduct"
  bottom: "pool2"
  top: "ip1"
  param {
    lr_mult: 1
  }
  param {
    lr_mult: 2
  }
  inner_product_param {
    num_output: 500
    weight_filler {
      type: "xavier"
    }
    bias_filler {
      type: "constant"
    }
  }
}
layer {
  name: "relu1"
  type: "ReLU"
  bottom: "ip1"
  top: "ip1"
}
layer {
  name: "ip2"
  type: "InnerProduct"
  bottom: "ip1"
  top: "ip2"
  param {
    lr_mult: 1
  }
  param {
    lr_mult: 2
  }
  inner_product_param {
    num_output: 10
    weight_filler {
      type: "xavier"
    }
    bias_filler {
      type: "constant"
    }
  }
}
layer {
  name: "accuracy"
  type: "Accuracy"
  bottom: "ip2"
  bottom: "label"
  top: "accuracy"
  include {
    phase: TEST
  }
}
layer {
  name: "loss"
  type: "SoftmaxWithLoss"
  bottom: "ip2"
  bottom: "label"
  top: "loss"
}
I0316 10:55:26.991631  4899 layer_factory.hpp:77] Creating layer data
I0316 10:55:26.991642  4899 net.cpp:91] Creating Layer data
I0316 10:55:26.991653  4899 net.cpp:409] data -> data
I0316 10:55:26.991660  4899 net.cpp:409] data -> label
I0316 10:55:26.991667  4899 image_data_layer.cpp:37] Opening file /home/nikoong/Algorithm_test/handwritting/data_crop/txt/data1_28*28.txt
I0316 10:55:26.995036  4899 image_data_layer.cpp:52] A total of 11430 images.
I0316 10:55:26.995189  4899 image_data_layer.cpp:79] output data size: 100,1,28,28
I0316 10:55:26.997565  4899 net.cpp:141] Setting up data
I0316 10:55:26.997583  4899 net.cpp:148] Top shape: 100 1 28 28 (78400)
I0316 10:55:26.997594  4899 net.cpp:148] Top shape: 100 (100)
I0316 10:55:26.997597  4899 net.cpp:156] Memory required for data: 314000
I0316 10:55:26.997603  4899 layer_factory.hpp:77] Creating layer label_data_1_split
I0316 10:55:26.997613  4899 net.cpp:91] Creating Layer label_data_1_split
I0316 10:55:26.997617  4899 net.cpp:435] label_data_1_split <- label
I0316 10:55:26.997622  4899 net.cpp:409] label_data_1_split -> label_data_1_split_0
I0316 10:55:26.997632  4899 net.cpp:409] label_data_1_split -> label_data_1_split_1
I0316 10:55:26.997675  4899 net.cpp:141] Setting up label_data_1_split
I0316 10:55:26.997690  4899 net.cpp:148] Top shape: 100 (100)
I0316 10:55:26.997694  4899 net.cpp:148] Top shape: 100 (100)
I0316 10:55:26.997720  4899 net.cpp:156] Memory required for data: 314800
I0316 10:55:26.997722  4899 layer_factory.hpp:77] Creating layer conv1
I0316 10:55:26.997735  4899 net.cpp:91] Creating Layer conv1
I0316 10:55:26.997740  4899 net.cpp:435] conv1 <- data
I0316 10:55:26.997745  4899 net.cpp:409] conv1 -> conv1
I0316 10:55:26.999485  4899 net.cpp:141] Setting up conv1
I0316 10:55:26.999507  4899 net.cpp:148] Top shape: 100 20 24 24 (1152000)
I0316 10:55:26.999511  4899 net.cpp:156] Memory required for data: 4922800
I0316 10:55:26.999521  4899 layer_factory.hpp:77] Creating layer pool1
I0316 10:55:26.999528  4899 net.cpp:91] Creating Layer pool1
I0316 10:55:26.999532  4899 net.cpp:435] pool1 <- conv1
I0316 10:55:26.999537  4899 net.cpp:409] pool1 -> pool1
I0316 10:55:26.999569  4899 net.cpp:141] Setting up pool1
I0316 10:55:26.999575  4899 net.cpp:148] Top shape: 100 20 12 12 (288000)
I0316 10:55:26.999577  4899 net.cpp:156] Memory required for data: 6074800
I0316 10:55:26.999580  4899 layer_factory.hpp:77] Creating layer conv2
I0316 10:55:26.999594  4899 net.cpp:91] Creating Layer conv2
I0316 10:55:26.999599  4899 net.cpp:435] conv2 <- pool1
I0316 10:55:26.999603  4899 net.cpp:409] conv2 -> conv2
I0316 10:55:27.000943  4899 net.cpp:141] Setting up conv2
I0316 10:55:27.000955  4899 net.cpp:148] Top shape: 100 50 8 8 (320000)
I0316 10:55:27.000965  4899 net.cpp:156] Memory required for data: 7354800
I0316 10:55:27.000973  4899 layer_factory.hpp:77] Creating layer pool2
I0316 10:55:27.000979  4899 net.cpp:91] Creating Layer pool2
I0316 10:55:27.000982  4899 net.cpp:435] pool2 <- conv2
I0316 10:55:27.000988  4899 net.cpp:409] pool2 -> pool2
I0316 10:55:27.001018  4899 net.cpp:141] Setting up pool2
I0316 10:55:27.001024  4899 net.cpp:148] Top shape: 100 50 4 4 (80000)
I0316 10:55:27.001035  4899 net.cpp:156] Memory required for data: 7674800
I0316 10:55:27.001039  4899 layer_factory.hpp:77] Creating layer ip1
I0316 10:55:27.001044  4899 net.cpp:91] Creating Layer ip1
I0316 10:55:27.001061  4899 net.cpp:435] ip1 <- pool2
I0316 10:55:27.001065  4899 net.cpp:409] ip1 -> ip1
I0316 10:55:27.004776  4899 net.cpp:141] Setting up ip1
I0316 10:55:27.004801  4899 net.cpp:148] Top shape: 100 500 (50000)
I0316 10:55:27.004804  4899 net.cpp:156] Memory required for data: 7874800
I0316 10:55:27.004813  4899 layer_factory.hpp:77] Creating layer relu1
I0316 10:55:27.004820  4899 net.cpp:91] Creating Layer relu1
I0316 10:55:27.004824  4899 net.cpp:435] relu1 <- ip1
I0316 10:55:27.004829  4899 net.cpp:396] relu1 -> ip1 (in-place)
I0316 10:55:27.005527  4899 net.cpp:141] Setting up relu1
I0316 10:55:27.005539  4899 net.cpp:148] Top shape: 100 500 (50000)
I0316 10:55:27.005553  4899 net.cpp:156] Memory required for data: 8074800
I0316 10:55:27.005555  4899 layer_factory.hpp:77] Creating layer ip2
I0316 10:55:27.005563  4899 net.cpp:91] Creating Layer ip2
I0316 10:55:27.005569  4899 net.cpp:435] ip2 <- ip1
I0316 10:55:27.005576  4899 net.cpp:409] ip2 -> ip2
I0316 10:55:27.005715  4899 net.cpp:141] Setting up ip2
I0316 10:55:27.005722  4899 net.cpp:148] Top shape: 100 10 (1000)
I0316 10:55:27.005734  4899 net.cpp:156] Memory required for data: 8078800
I0316 10:55:27.005739  4899 layer_factory.hpp:77] Creating layer ip2_ip2_0_split
I0316 10:55:27.005745  4899 net.cpp:91] Creating Layer ip2_ip2_0_split
I0316 10:55:27.005748  4899 net.cpp:435] ip2_ip2_0_split <- ip2
I0316 10:55:27.005751  4899 net.cpp:409] ip2_ip2_0_split -> ip2_ip2_0_split_0
I0316 10:55:27.005758  4899 net.cpp:409] ip2_ip2_0_split -> ip2_ip2_0_split_1
I0316 10:55:27.005784  4899 net.cpp:141] Setting up ip2_ip2_0_split
I0316 10:55:27.005789  4899 net.cpp:148] Top shape: 100 10 (1000)
I0316 10:55:27.005791  4899 net.cpp:148] Top shape: 100 10 (1000)
I0316 10:55:27.005794  4899 net.cpp:156] Memory required for data: 8086800
I0316 10:55:27.005795  4899 layer_factory.hpp:77] Creating layer accuracy
I0316 10:55:27.005801  4899 net.cpp:91] Creating Layer accuracy
I0316 10:55:27.005803  4899 net.cpp:435] accuracy <- ip2_ip2_0_split_0
I0316 10:55:27.005807  4899 net.cpp:435] accuracy <- label_data_1_split_0
I0316 10:55:27.005823  4899 net.cpp:409] accuracy -> accuracy
…
