…
I0314 15:58:36.976781  6573 net.cpp:323] The NetState phase (0) differed from the phase (1) specified by a rule in layer data
I0314 15:58:36.976794  6573 net.cpp:323] The NetState phase (0) differed from the phase (1) specified by a rule in layer accuracy
I0314 15:58:36.976889  6573 net.cpp:49] Initializing net from parameters: 
state {
  phase: TRAIN
}
layer {
  name: "data"
  type: "ImageData"
  top: "data"
  top: "label"
  include {
    phase: TRAIN
  }
  image_data_param {
    source: "/home/nikoong/Algorithm_test/handwritting/data_crop/txt/data2_28*28.txt"
    batch_size: 5000
    new_height: 28
    new_width: 28
    is_color: false
  }
}
layer {
  name: "conv1"
  type: "Convolution"
  bottom: "data"
  top: "conv1"
  param {
    lr_mult: 1
  }
  param {
    lr_mult: 2
  }
  convolution_param {
    num_output: 20
    kernel_size: 5
    stride: 1
    weight_filler {
      type: "xavier"
    }
    bias_filler {
      type: "constant"
    }
  }
}
layer {
  name: "pool1"
  type: "Pooling"
  bottom: "conv1"
  top: "pool1"
  pooling_param {
    pool: MAX
    kernel_size: 2
    stride: 2
  }
}
layer {
  name: "conv2"
  type: "Convolution"
  bottom: "pool1"
  top: "conv2"
  param {
    lr_mult: 1
  }
  param {
    lr_mult: 2
  }
  convolution_param {
    num_output: 50
    kernel_size: 5
    stride: 1
    weight_filler {
      type: "xavier"
    }
    bias_filler {
      type: "constant"
    }
  }
}
layer {
  name: "pool2"
  type: "Pooling"
  bottom: "conv2"
  top: "pool2"
  pooling_param {
    pool: MAX
    kernel_size: 2
    stride: 2
  }
}
layer {
  name: "ip1"
  type: "InnerProduct"
  bottom: "pool2"
  top: "ip1"
  param {
    lr_mult: 1
  }
  param {
    lr_mult: 2
  }
  inner_product_param {
    num_output: 500
    weight_filler {
      type: "xavier"
    }
    bias_filler {
      type: "constant"
    }
  }
}
layer {
  name: "relu1"
  type: "ReLU"
  bottom: "ip1"
  top: "ip1"
}
layer {
  name: "ip2"
  type: "InnerProduct"
  bottom: "ip1"
  top: "ip2"
  param {
    lr_mult: 1
  }
  param {
    lr_mult: 2
  }
  inner_product_param {
    num_output: 10
    weight_filler {
      type: "xavier"
    }
    bias_filler {
      type: "constant"
    }
  }
}
layer {
  name: "loss"
  type: "SoftmaxWithLoss"
  bottom: "ip2"
  bottom: "label"
  top: "loss"
}
I0314 15:58:36.976944  6573 layer_factory.hpp:77] Creating layer data
I0314 15:58:36.976975  6573 net.cpp:91] Creating Layer data
I0314 15:58:36.976981  6573 net.cpp:409] data -> data
I0314 15:58:36.977013  6573 net.cpp:409] data -> label
I0314 15:58:36.977027  6573 image_data_layer.cpp:37] Opening file /home/nikoong/Algorithm_test/handwritting/data_crop/txt/data2_28*28.txt
I0314 15:58:36.982820  6573 image_data_layer.cpp:52] A total of 19017 images.
I0314 15:58:37.138594  6573 image_data_layer.cpp:79] output data size: 5000,1,28,28
I0314 15:58:37.185199  6573 net.cpp:141] Setting up data
I0314 15:58:37.185242  6573 net.cpp:148] Top shape: 5000 1 28 28 (3920000)
I0314 15:58:37.185247  6573 net.cpp:148] Top shape: 5000 (5000)
I0314 15:58:37.185261  6573 net.cpp:156] Memory required for data: 15700000
I0314 15:58:37.185267  6573 layer_factory.hpp:77] Creating layer conv1
I0314 15:58:37.185289  6573 net.cpp:91] Creating Layer conv1
I0314 15:58:37.185295  6573 net.cpp:435] conv1 <- data
I0314 15:58:37.185305  6573 net.cpp:409] conv1 -> conv1
I0314 15:58:37.550804  6573 net.cpp:141] Setting up conv1
I0314 15:58:37.550835  6573 net.cpp:148] Top shape: 5000 20 24 24 (57600000)
I0314 15:58:37.550866  6573 net.cpp:156] Memory required for data: 246100000
I0314 15:58:37.550884  6573 layer_factory.hpp:77] Creating layer pool1
I0314 15:58:37.550895  6573 net.cpp:91] Creating Layer pool1
I0314 15:58:37.550906  6573 net.cpp:435] pool1 <- conv1
I0314 15:58:37.550912  6573 net.cpp:409] pool1 -> pool1
I0314 15:58:37.550961  6573 net.cpp:141] Setting up pool1
I0314 15:58:37.550966  6573 net.cpp:148] Top shape: 5000 20 12 12 (14400000)
I0314 15:58:37.550979  6573 net.cpp:156] Memory required for data: 303700000
I0314 15:58:37.550981  6573 layer_factory.hpp:77] Creating layer conv2
I0314 15:58:37.551000  6573 net.cpp:91] Creating Layer conv2
I0314 15:58:37.551002  6573 net.cpp:435] conv2 <- pool1
I0314 15:58:37.551017  6573 net.cpp:409] conv2 -> conv2
I0314 15:58:37.553400  6573 net.cpp:141] Setting up conv2
I0314 15:58:37.553422  6573 net.cpp:148] Top shape: 5000 50 8 8 (16000000)
I0314 15:58:37.553426  6573 net.cpp:156] Memory required for data: 367700000
I0314 15:58:37.553432  6573 layer_factory.hpp:77] Creating layer pool2
I0314 15:58:37.553449  6573 net.cpp:91] Creating Layer pool2
I0314 15:58:37.553452  6573 net.cpp:435] pool2 <- conv2
I0314 15:58:37.553457  6573 net.cpp:409] pool2 -> pool2
I0314 15:58:37.553498  6573 net.cpp:141] Setting up pool2
I0314 15:58:37.553503  6573 net.cpp:148] Top shape: 5000 50 4 4 (4000000)
I0314 15:58:37.553505  6573 net.cpp:156] Memory required for data: 383700000
I0314 15:58:37.553517  6573 layer_factory.hpp:77] Creating layer ip1
I0314 15:58:37.553524  6573 net.cpp:91] Creating Layer ip1
I0314 15:58:37.553535  6573 net.cpp:435] ip1 <- pool2
I0314 15:58:37.553539  6573 net.cpp:409] ip1 -> ip1
I0314 15:58:37.557052  6573 net.cpp:141] Setting up ip1
I0314 15:58:37.557075  6573 net.cpp:148] Top shape: 5000 500 (2500000)
I0314 15:58:37.557078  6573 net.cpp:156] Memory required for data: 393700000
I0314 15:58:37.557085  6573 layer_factory.hpp:77] Creating layer relu1
I0314 15:58:37.557102  6573 net.cpp:91] Creating Layer relu1
I0314 15:58:37.557106  6573 net.cpp:435] relu1 <- ip1
I0314 15:58:37.557111  6573 net.cpp:396] relu1 -> ip1 (in-place)
I0314 15:58:37.557273  6573 net.cpp:141] Setting up relu1
I0314 15:58:37.557281  6573 net.cpp:148] Top shape: 5000 500 (2500000)
I0314 15:58:37.557292  6573 net.cpp:156] Memory required for data: 403700000
I0314 15:58:37.557296  6573 layer_factory.hpp:77] Creating layer ip2
I0314 15:58:37.557301  6573 net.cpp:91] Creating Layer ip2
I0314 15:58:37.557303  6573 net.cpp:435] ip2 <- ip1
I0314 15:58:37.557307  6573 net.cpp:409] ip2 -> ip2
I0314 15:58:37.557461  6573 net.cpp:141] Setting up ip2
I0314 15:58:37.557466  6573 net.cpp:148] Top shape: 5000 10 (50000)
I0314 15:58:37.557467  6573 net.cpp:156] Memory required for data: 403900000
I0314 15:58:37.557482  6573 layer_factory.hpp:77] Creating layer loss
I0314 15:58:37.557488  6573 net.cpp:91] Creating Layer loss
I0314 15:58:37.557492  6573 net.cpp:435] loss <- ip2
I0314 15:58:37.557494  6573 net.cpp:435] loss <- label
I0314 15:58:37.557499  6573 net.cpp:409] loss -> loss
I0314 15:58:37.557509  6573 layer_factory.hpp:77] Creating layer loss
…
I0314 15:58:37.558029  6573 solver.cpp:181] Creating test net (#0) specified by net file: /home/nikoong/Algorithm_test/handwritting/lenet/lenet_my.prototxt
I0314 15:58:37.558068  6573 net.cpp:323] The NetState phase (1) differed from the phase (0) specified by a rule in layer data
I0314 15:58:37.558166  6573 net.cpp:49] Initializing net from parameters: 
state {
  phase: TEST
}
layer {
  name: "data"
  type: "ImageData"
  top: "data"
  top: "label"
  include {
    phase: TEST
  }
  image_data_param {
    source: "/home/nikoong/Algorithm_test/handwritting/data_crop/txt/data1_28*28.txt"
    batch_size: 100
    new_height: 28
    new_width: 28
    is_color: false
  }
}
layer {
  name: "conv1"
  type: "Convolution"
  bottom: "data"
  top: "conv1"
  param {
    lr_mult: 1
  }
  param {
    lr_mult: 2
  }
  convolution_param {
    num_output: 20
    kernel_size: 5
    stride: 1
    weight_filler {
      type: "xavier"
    }
    bias_filler {
      type: "constant"
    }
  }
}
layer {
  name: "pool1"
  type: "Pooling"
  bottom: "conv1"
  top: "pool1"
  pooling_param {
    pool: MAX
    kernel_size: 2
    stride: 2
  }
}
layer {
  name: "conv2"
  type: "Convolution"
  bottom: "pool1"
  top: "conv2"
  param {
    lr_mult: 1
  }
  param {
    lr_mult: 2
  }
  convolution_param {
    num_output: 50
    kernel_size: 5
    stride: 1
    weight_filler {
      type: "xavier"
    }
    bias_filler {
      type: "constant"
    }
  }
}
layer {
  name: "pool2"
  type: "Pooling"
  bottom: "conv2"
  top: "pool2"
  pooling_param {
    pool: MAX
    kernel_size: 2
    stride: 2
  }
}
layer {
  name: "ip1"
  type: "InnerProduct"
  bottom: "pool2"
  top: "ip1"
  param {
    lr_mult: 1
  }
  param {
    lr_mult: 2
  }
  inner_product_param {
    num_output: 500
    weight_filler {
      type: "xavier"
    }
    bias_filler {
      type: "constant"
    }
  }
}
layer {
  name: "relu1"
  type: "ReLU"
  bottom: "ip1"
  top: "ip1"
}
layer {
  name: "ip2"
  type: "InnerProduct"
  bottom: "ip1"
  top: "ip2"
  param {
    lr_mult: 1
  }
  param {
    lr_mult: 2
  }
  inner_product_param {
    num_output: 10
    weight_filler {
      type: "xavier"
    }
    bias_filler {
      type: "constant"
    }
  }
}
layer {
  name: "accuracy"
  type: "Accuracy"
  bottom: "ip2"
  bottom: "label"
  top: "accuracy"
  include {
    phase: TEST
  }
}
layer {
  name: "loss"
  type: "SoftmaxWithLoss"
  bottom: "ip2"
  bottom: "label"
  top: "loss"
}
I0314 15:58:37.558224  6573 layer_factory.hpp:77] Creating layer data
I0314 15:58:37.558234  6573 net.cpp:91] Creating Layer data
I0314 15:58:37.558238  6573 net.cpp:409] data -> data
I0314 15:58:37.558244  6573 net.cpp:409] data -> label
I0314 15:58:37.558251  6573 image_data_layer.cpp:37] Opening file /home/nikoong/Algorithm_test/handwritting/data_crop/txt/data1_28*28.txt
I0314 15:58:37.561996  6573 image_data_layer.cpp:52] A total of 11432 images.
I0314 15:58:37.562147  6573 image_data_layer.cpp:79] output data size: 100,1,28,28
I0314 15:58:37.564272  6573 net.cpp:141] Setting up data
I0314 15:58:37.564288  6573 net.cpp:148] Top shape: 100 1 28 28 (78400)
I0314 15:58:37.564293  6573 net.cpp:148] Top shape: 100 (100)
I0314 15:58:37.564296  6573 net.cpp:156] Memory required for data: 314000
I0314 15:58:37.564301  6573 layer_factory.hpp:77] Creating layer label_data_1_split
I0314 15:58:37.564309  6573 net.cpp:91] Creating Layer label_data_1_split
I0314 15:58:37.564312  6573 net.cpp:435] label_data_1_split <- label
I0314 15:58:37.564318  6573 net.cpp:409] label_data_1_split -> label_data_1_split_0
I0314 15:58:37.564327  6573 net.cpp:409] label_data_1_split -> label_data_1_split_1
I0314 15:58:37.564369  6573 net.cpp:141] Setting up label_data_1_split
I0314 15:58:37.564375  6573 net.cpp:148] Top shape: 100 (100)
I0314 15:58:37.564378  6573 net.cpp:148] Top shape: 100 (100)
I0314 15:58:37.564380  6573 net.cpp:156] Memory required for data: 314800
I0314 15:58:37.564383  6573 layer_factory.hpp:77] Creating layer conv1
I0314 15:58:37.564405  6573 net.cpp:91] Creating Layer conv1
I0314 15:58:37.564414  6573 net.cpp:435] conv1 <- data
I0314 15:58:37.564419  6573 net.cpp:409] conv1 -> conv1
I0314 15:58:37.567270  6573 net.cpp:141] Setting up conv1
I0314 15:58:37.567294  6573 net.cpp:148] Top shape: 100 20 24 24 (1152000)
I0314 15:58:37.567297  6573 net.cpp:156] Memory required for data: 4922800
I0314 15:58:37.567306  6573 layer_factory.hpp:77] Creating layer pool1
I0314 15:58:37.567322  6573 net.cpp:91] Creating Layer pool1
I0314 15:58:37.567327  6573 net.cpp:435] pool1 <- conv1
I0314 15:58:37.567333  6573 net.cpp:409] pool1 -> pool1
I0314 15:58:37.567368  6573 net.cpp:141] Setting up pool1
I0314 15:58:37.567374  6573 net.cpp:148] Top shape: 100 20 12 12 (288000)
I0314 15:58:37.567376  6573 net.cpp:156] Memory required for data: 6074800
I0314 15:58:37.567384  6573 layer_factory.hpp:77] Creating layer conv2
I0314 15:58:37.567397  6573 net.cpp:91] Creating Layer conv2
I0314 15:58:37.567402  6573 net.cpp:435] conv2 <- pool1
I0314 15:58:37.567407  6573 net.cpp:409] conv2 -> conv2
I0314 15:58:37.570093  6573 net.cpp:141] Setting up conv2
I0314 15:58:37.570104  6573 net.cpp:148] Top shape: 100 50 8 8 (320000)
I0314 15:58:37.570117  6573 net.cpp:156] Memory required for data: 7354800
I0314 15:58:37.570124  6573 layer_factory.hpp:77] Creating layer pool2
I0314 15:58:37.570132  6573 net.cpp:91] Creating Layer pool2
I0314 15:58:37.570134  6573 net.cpp:435] pool2 <- conv2
I0314 15:58:37.570138  6573 net.cpp:409] pool2 -> pool2
I0314 15:58:37.570169  6573 net.cpp:141] Setting up pool2
I0314 15:58:37.570175  6573 net.cpp:148] Top shape: 100 50 4 4 (80000)
I0314 15:58:37.570178  6573 net.cpp:156] Memory required for data: 7674800
I0314 15:58:37.570180  6573 layer_factory.hpp:77] Creating layer ip1
I0314 15:58:37.570186  6573 net.cpp:91] Creating Layer ip1
I0314 15:58:37.570189  6573 net.cpp:435] ip1 <- pool2
I0314 15:58:37.570192  6573 net.cpp:409] ip1 -> ip1
I0314 15:58:37.585968  6573 net.cpp:141] Setting up ip1
I0314 15:58:37.585999  6573 net.cpp:148] Top shape: 100 500 (50000)
I0314 15:58:37.586004  6573 net.cpp:156] Memory required for data: 7874800
I0314 15:58:37.586015  6573 layer_factory.hpp:77] Creating layer relu1
I0314 15:58:37.586024  6573 net.cpp:91] Creating Layer relu1
I0314 15:58:37.586028  6573 net.cpp:435] relu1 <- ip1
I0314 15:58:37.586033  6573 net.cpp:396] relu1 -> ip1 (in-place)
I0314 15:58:37.586800  6573 net.cpp:141] Setting up relu1
I0314 15:58:37.586812  6573 net.cpp:148] Top shape: 100 500 (50000)
I0314 15:58:37.586823  6573 net.cpp:156] Memory required for data: 8074800
I0314 15:58:37.586827  6573 layer_factory.hpp:77] Creating layer ip2
I0314 15:58:37.586836  6573 net.cpp:91] Creating Layer ip2
I0314 15:58:37.586839  6573 net.cpp:435] ip2 <- ip1
I0314 15:58:37.586846  6573 net.cpp:409] ip2 -> ip2
I0314 15:58:37.587204  6573 net.cpp:141] Setting up ip2
I0314 15:58:37.587216  6573 net.cpp:148] Top shape: 100 10 (1000)
I0314 15:58:37.587229  6573 net.cpp:156] Memory required for data: 8078800
I0314 15:58:37.587235  6573 layer_factory.hpp:77] Creating layer ip2_ip2_0_split
I0314 15:58:37.587240  6573 net.cpp:91] Creating Layer ip2_ip2_0_split
I0314 15:58:37.587244  6573 net.cpp:435] ip2_ip2_0_split <- ip2
I0314 15:58:37.587247  6573 net.cpp:409] ip2_ip2_0_split -> ip2_ip2_0_split_0
I0314 15:58:37.587255  6573 net.cpp:409] ip2_ip2_0_split -> ip2_ip2_0_split_1
I0314 15:58:37.587301  6573 net.cpp:141] Setting up ip2_ip2_0_split
I0314 15:58:37.587306  6573 net.cpp:148] Top shape: 100 10 (1000)
I0314 15:58:37.587318  6573 net.cpp:148] Top shape: 100 10 (1000)
I0314 15:58:37.587321  6573 net.cpp:156] Memory required for data: 8086800
I0314 15:58:37.587323  6573 layer_factory.hpp:77] Creating layer accuracy
I0314 15:58:37.587329  6573 net.cpp:91] Creating Layer accuracy
I0314 15:58:37.587332  6573 net.cpp:435] accuracy <- ip2_ip2_0_split_0
I0314 15:58:37.587337  6573 net.cpp:435] accuracy <- label_data_1_split_0
I0314 15:58:37.587342  6573 net.cpp:409] accuracy -> accuracy
…
