…
I0326 13:50:36.630792 11434 net.cpp:323] The NetState phase (0) differed from the phase (1) specified by a rule in layer mnist
I0326 13:50:36.630816 11434 net.cpp:323] The NetState phase (0) differed from the phase (1) specified by a rule in layer accuracy
I0326 13:50:36.630914 11434 net.cpp:49] Initializing net from parameters: 
name: "LeNet"
state {
  phase: TRAIN
}
layer {
  name: "mnist"
  type: "Data"
  top: "data"
  top: "label"
  include {
    phase: TRAIN
  }
  transform_param {
    scale: 0.00390625
  }
  data_param {
    source: "/home/nikoong/Algorithm_test/handwritting/data/lmdb/newfour/train_withnewfour_lmdb"
    batch_size: 20000
    backend: LMDB
  }
}
layer {
  name: "conv1"
  type: "Convolution"
  bottom: "data"
  top: "conv1"
  param {
    lr_mult: 1
  }
  param {
    lr_mult: 2
  }
  convolution_param {
    num_output: 20
    kernel_size: 5
    stride: 1
    weight_filler {
      type: "xavier"
    }
    bias_filler {
      type: "constant"
    }
  }
}
layer {
  name: "pool1"
  type: "Pooling"
  bottom: "conv1"
  top: "pool1"
  pooling_param {
    pool: MAX
    kernel_size: 2
    stride: 2
  }
}
layer {
  name: "conv2"
  type: "Convolution"
  bottom: "pool1"
  top: "conv2"
  param {
    lr_mult: 1
  }
  param {
    lr_mult: 2
  }
  convolution_param {
    num_output: 50
    kernel_size: 5
    stride: 1
    weight_filler {
      type: "xavier"
    }
    bias_filler {
      type: "constant"
    }
  }
}
layer {
  name: "pool2"
  type: "Pooling"
  bottom: "conv2"
  top: "pool2"
  pooling_param {
    pool: MAX
    kernel_size: 2
    stride: 2
  }
}
layer {
  name: "ip1"
  type: "InnerProduct"
  bottom: "pool2"
  top: "ip1"
  param {
    lr_mult: 1
  }
  param {
    lr_mult: 2
  }
  inner_product_param {
    num_output: 500
    weight_filler {
      type: "xavier"
    }
    bias_filler {
      type: "constant"
    }
  }
}
layer {
  name: "relu1"
  type: "ReLU"
  bottom: "ip1"
  top: "ip1"
}
layer {
  name: "ip2"
  type: "InnerProduct"
  bottom: "ip1"
  top: "ip2"
  param {
    lr_mult: 1
  }
  param {
    lr_mult: 2
  }
  inner_product_param {
    num_output: 10
    weight_filler {
      type: "xavier"
    }
    bias_filler {
      type: "constant"
    }
  }
}
layer {
  name: "loss"
  type: "SoftmaxWithLoss"
  bottom: "ip2"
  bottom: "label"
  top: "loss"
}
I0326 13:50:36.630987 11434 layer_factory.hpp:77] Creating layer mnist
I0326 13:50:36.639325 11434 net.cpp:91] Creating Layer mnist
I0326 13:50:36.639355 11434 net.cpp:409] mnist -> data
I0326 13:50:36.639406 11434 net.cpp:409] mnist -> label
I0326 13:50:36.640147 11441 db_lmdb.cpp:40] Opened lmdb /home/nikoong/Algorithm_test/handwritting/data/lmdb/newfour/train_withnewfour_lmdb
I0326 13:50:36.665077 11434 data_layer.cpp:41] output data size: 20000,1,28,28
I0326 13:50:36.836258 11434 net.cpp:141] Setting up mnist
I0326 13:50:36.836318 11434 net.cpp:148] Top shape: 20000 1 28 28 (15680000)
I0326 13:50:36.836325 11434 net.cpp:148] Top shape: 20000 (20000)
I0326 13:50:36.836328 11434 net.cpp:156] Memory required for data: 62800000
I0326 13:50:36.836336 11434 layer_factory.hpp:77] Creating layer conv1
I0326 13:50:36.836361 11434 net.cpp:91] Creating Layer conv1
I0326 13:50:36.836369 11434 net.cpp:435] conv1 <- data
I0326 13:50:36.836380 11434 net.cpp:409] conv1 -> conv1
I0326 13:50:37.346945 11434 net.cpp:141] Setting up conv1
I0326 13:50:37.346985 11434 net.cpp:148] Top shape: 20000 20 24 24 (230400000)
I0326 13:50:37.346988 11434 net.cpp:156] Memory required for data: 984400000
I0326 13:50:37.347028 11434 layer_factory.hpp:77] Creating layer pool1
I0326 13:50:37.347041 11434 net.cpp:91] Creating Layer pool1
I0326 13:50:37.347053 11434 net.cpp:435] pool1 <- conv1
I0326 13:50:37.347060 11434 net.cpp:409] pool1 -> pool1
I0326 13:50:37.347101 11434 net.cpp:141] Setting up pool1
I0326 13:50:37.347106 11434 net.cpp:148] Top shape: 20000 20 12 12 (57600000)
I0326 13:50:37.347110 11434 net.cpp:156] Memory required for data: 1214800000
I0326 13:50:37.347112 11434 layer_factory.hpp:77] Creating layer conv2
I0326 13:50:37.347126 11434 net.cpp:91] Creating Layer conv2
I0326 13:50:37.347128 11434 net.cpp:435] conv2 <- pool1
I0326 13:50:37.347134 11434 net.cpp:409] conv2 -> conv2
I0326 13:50:37.348691 11434 net.cpp:141] Setting up conv2
I0326 13:50:37.348716 11434 net.cpp:148] Top shape: 20000 50 8 8 (64000000)
I0326 13:50:37.348724 11434 net.cpp:156] Memory required for data: 1470800000
I0326 13:50:37.348732 11434 layer_factory.hpp:77] Creating layer pool2
I0326 13:50:37.348747 11434 net.cpp:91] Creating Layer pool2
I0326 13:50:37.348752 11434 net.cpp:435] pool2 <- conv2
I0326 13:50:37.348757 11434 net.cpp:409] pool2 -> pool2
I0326 13:50:37.348800 11434 net.cpp:141] Setting up pool2
I0326 13:50:37.348805 11434 net.cpp:148] Top shape: 20000 50 4 4 (16000000)
I0326 13:50:37.348819 11434 net.cpp:156] Memory required for data: 1534800000
I0326 13:50:37.348822 11434 layer_factory.hpp:77] Creating layer ip1
I0326 13:50:37.348829 11434 net.cpp:91] Creating Layer ip1
I0326 13:50:37.348830 11434 net.cpp:435] ip1 <- pool2
I0326 13:50:37.348835 11434 net.cpp:409] ip1 -> ip1
I0326 13:50:37.352366 11434 net.cpp:141] Setting up ip1
I0326 13:50:37.352396 11434 net.cpp:148] Top shape: 20000 500 (10000000)
I0326 13:50:37.352399 11434 net.cpp:156] Memory required for data: 1574800000
I0326 13:50:37.352411 11434 layer_factory.hpp:77] Creating layer relu1
I0326 13:50:37.352418 11434 net.cpp:91] Creating Layer relu1
I0326 13:50:37.352421 11434 net.cpp:435] relu1 <- ip1
I0326 13:50:37.352427 11434 net.cpp:396] relu1 -> ip1 (in-place)
I0326 13:50:37.352605 11434 net.cpp:141] Setting up relu1
I0326 13:50:37.352613 11434 net.cpp:148] Top shape: 20000 500 (10000000)
I0326 13:50:37.352625 11434 net.cpp:156] Memory required for data: 1614800000
I0326 13:50:37.352628 11434 layer_factory.hpp:77] Creating layer ip2
I0326 13:50:37.352634 11434 net.cpp:91] Creating Layer ip2
I0326 13:50:37.352638 11434 net.cpp:435] ip2 <- ip1
I0326 13:50:37.352641 11434 net.cpp:409] ip2 -> ip2
I0326 13:50:37.357094 11434 net.cpp:141] Setting up ip2
I0326 13:50:37.357105 11434 net.cpp:148] Top shape: 20000 10 (200000)
I0326 13:50:37.357116 11434 net.cpp:156] Memory required for data: 1615600000
I0326 13:50:37.357122 11434 layer_factory.hpp:77] Creating layer loss
I0326 13:50:37.357138 11434 net.cpp:91] Creating Layer loss
I0326 13:50:37.357141 11434 net.cpp:435] loss <- ip2
I0326 13:50:37.357144 11434 net.cpp:435] loss <- label
I0326 13:50:37.357151 11434 net.cpp:409] loss -> loss
I0326 13:50:37.357161 11434 layer_factory.hpp:77] Creating layer loss
…
I0326 13:50:37.357712 11434 solver.cpp:181] Creating test net (#0) specified by net file: /home/nikoong/Algorithm_test/handwritting/lenet/lenet_lmdb.prototxt
I0326 13:50:37.357735 11434 net.cpp:323] The NetState phase (1) differed from the phase (0) specified by a rule in layer mnist
I0326 13:50:37.357843 11434 net.cpp:49] Initializing net from parameters: 
name: "LeNet"
state {
  phase: TEST
}
layer {
  name: "mnist"
  type: "Data"
  top: "data"
  top: "label"
  include {
    phase: TEST
  }
  transform_param {
    scale: 0.00390625
  }
  data_param {
    source: "/home/nikoong/Algorithm_test/handwritting/data/lmdb/newfour/val_withnewfour_lmdb"
    batch_size: 500
    backend: LMDB
  }
}
layer {
  name: "conv1"
  type: "Convolution"
  bottom: "data"
  top: "conv1"
  param {
    lr_mult: 1
  }
  param {
    lr_mult: 2
  }
  convolution_param {
    num_output: 20
    kernel_size: 5
    stride: 1
    weight_filler {
      type: "xavier"
    }
    bias_filler {
      type: "constant"
    }
  }
}
layer {
  name: "pool1"
  type: "Pooling"
  bottom: "conv1"
  top: "pool1"
  pooling_param {
    pool: MAX
    kernel_size: 2
    stride: 2
  }
}
layer {
  name: "conv2"
  type: "Convolution"
  bottom: "pool1"
  top: "conv2"
  param {
    lr_mult: 1
  }
  param {
    lr_mult: 2
  }
  convolution_param {
    num_output: 50
    kernel_size: 5
    stride: 1
    weight_filler {
      type: "xavier"
    }
    bias_filler {
      type: "constant"
    }
  }
}
layer {
  name: "pool2"
  type: "Pooling"
  bottom: "conv2"
  top: "pool2"
  pooling_param {
    pool: MAX
    kernel_size: 2
    stride: 2
  }
}
layer {
  name: "ip1"
  type: "InnerProduct"
  bottom: "pool2"
  top: "ip1"
  param {
    lr_mult: 1
  }
  param {
    lr_mult: 2
  }
  inner_product_param {
    num_output: 500
    weight_filler {
      type: "xavier"
    }
    bias_filler {
      type: "constant"
    }
  }
}
layer {
  name: "relu1"
  type: "ReLU"
  bottom: "ip1"
  top: "ip1"
}
layer {
  name: "ip2"
  type: "InnerProduct"
  bottom: "ip1"
  top: "ip2"
  param {
    lr_mult: 1
  }
  param {
    lr_mult: 2
  }
  inner_product_param {
    num_output: 10
    weight_filler {
      type: "xavier"
    }
    bias_filler {
      type: "constant"
    }
  }
}
layer {
  name: "accuracy"
  type: "Accuracy"
  bottom: "ip2"
  bottom: "label"
  top: "accuracy"
  include {
    phase: TEST
  }
}
layer {
  name: "loss"
  type: "SoftmaxWithLoss"
  bottom: "ip2"
  bottom: "label"
  top: "loss"
}
I0326 13:50:37.358286 11434 layer_factory.hpp:77] Creating layer mnist
I0326 13:50:37.358546 11434 net.cpp:91] Creating Layer mnist
I0326 13:50:37.358563 11434 net.cpp:409] mnist -> data
I0326 13:50:37.358580 11434 net.cpp:409] mnist -> label
I0326 13:50:37.359549 11443 db_lmdb.cpp:40] Opened lmdb /home/nikoong/Algorithm_test/handwritting/data/lmdb/newfour/val_withnewfour_lmdb
I0326 13:50:37.359660 11434 data_layer.cpp:41] output data size: 500,1,28,28
I0326 13:50:37.397166 11434 net.cpp:141] Setting up mnist
I0326 13:50:37.397197 11434 net.cpp:148] Top shape: 500 1 28 28 (392000)
I0326 13:50:37.397202 11434 net.cpp:148] Top shape: 500 (500)
I0326 13:50:37.397204 11434 net.cpp:156] Memory required for data: 1570000
I0326 13:50:37.397210 11434 layer_factory.hpp:77] Creating layer label_mnist_1_split
I0326 13:50:37.397230 11434 net.cpp:91] Creating Layer label_mnist_1_split
I0326 13:50:37.397233 11434 net.cpp:435] label_mnist_1_split <- label
I0326 13:50:37.397239 11434 net.cpp:409] label_mnist_1_split -> label_mnist_1_split_0
I0326 13:50:37.397248 11434 net.cpp:409] label_mnist_1_split -> label_mnist_1_split_1
I0326 13:50:37.397333 11434 net.cpp:141] Setting up label_mnist_1_split
I0326 13:50:37.397341 11434 net.cpp:148] Top shape: 500 (500)
I0326 13:50:37.397344 11434 net.cpp:148] Top shape: 500 (500)
I0326 13:50:37.397346 11434 net.cpp:156] Memory required for data: 1574000
I0326 13:50:37.397359 11434 layer_factory.hpp:77] Creating layer conv1
I0326 13:50:37.397370 11434 net.cpp:91] Creating Layer conv1
I0326 13:50:37.397385 11434 net.cpp:435] conv1 <- data
I0326 13:50:37.397390 11434 net.cpp:409] conv1 -> conv1
I0326 13:50:37.398977 11434 net.cpp:141] Setting up conv1
I0326 13:50:37.398998 11434 net.cpp:148] Top shape: 500 20 24 24 (5760000)
I0326 13:50:37.399001 11434 net.cpp:156] Memory required for data: 24614000
I0326 13:50:37.399013 11434 layer_factory.hpp:77] Creating layer pool1
I0326 13:50:37.399019 11434 net.cpp:91] Creating Layer pool1
I0326 13:50:37.399022 11434 net.cpp:435] pool1 <- conv1
I0326 13:50:37.399029 11434 net.cpp:409] pool1 -> pool1
I0326 13:50:37.400140 11434 net.cpp:141] Setting up pool1
I0326 13:50:37.400176 11434 net.cpp:148] Top shape: 500 20 12 12 (1440000)
I0326 13:50:37.400182 11434 net.cpp:156] Memory required for data: 30374000
I0326 13:50:37.400187 11434 layer_factory.hpp:77] Creating layer conv2
I0326 13:50:37.400198 11434 net.cpp:91] Creating Layer conv2
I0326 13:50:37.400202 11434 net.cpp:435] conv2 <- pool1
I0326 13:50:37.400207 11434 net.cpp:409] conv2 -> conv2
I0326 13:50:37.401450 11434 net.cpp:141] Setting up conv2
I0326 13:50:37.401464 11434 net.cpp:148] Top shape: 500 50 8 8 (1600000)
I0326 13:50:37.401468 11434 net.cpp:156] Memory required for data: 36774000
I0326 13:50:37.401475 11434 layer_factory.hpp:77] Creating layer pool2
I0326 13:50:37.401484 11434 net.cpp:91] Creating Layer pool2
I0326 13:50:37.401489 11434 net.cpp:435] pool2 <- conv2
I0326 13:50:37.401494 11434 net.cpp:409] pool2 -> pool2
I0326 13:50:37.401525 11434 net.cpp:141] Setting up pool2
I0326 13:50:37.401532 11434 net.cpp:148] Top shape: 500 50 4 4 (400000)
I0326 13:50:37.401536 11434 net.cpp:156] Memory required for data: 38374000
I0326 13:50:37.401564 11434 layer_factory.hpp:77] Creating layer ip1
I0326 13:50:37.401572 11434 net.cpp:91] Creating Layer ip1
I0326 13:50:37.401579 11434 net.cpp:435] ip1 <- pool2
I0326 13:50:37.401587 11434 net.cpp:409] ip1 -> ip1
I0326 13:50:37.405097 11434 net.cpp:141] Setting up ip1
I0326 13:50:37.405114 11434 net.cpp:148] Top shape: 500 500 (250000)
I0326 13:50:37.405140 11434 net.cpp:156] Memory required for data: 39374000
I0326 13:50:37.405153 11434 layer_factory.hpp:77] Creating layer relu1
I0326 13:50:37.405171 11434 net.cpp:91] Creating Layer relu1
I0326 13:50:37.405176 11434 net.cpp:435] relu1 <- ip1
I0326 13:50:37.405182 11434 net.cpp:396] relu1 -> ip1 (in-place)
I0326 13:50:37.405861 11434 net.cpp:141] Setting up relu1
I0326 13:50:37.405874 11434 net.cpp:148] Top shape: 500 500 (250000)
I0326 13:50:37.405879 11434 net.cpp:156] Memory required for data: 40374000
I0326 13:50:37.405884 11434 layer_factory.hpp:77] Creating layer ip2
I0326 13:50:37.405892 11434 net.cpp:91] Creating Layer ip2
I0326 13:50:37.405912 11434 net.cpp:435] ip2 <- ip1
I0326 13:50:37.405921 11434 net.cpp:409] ip2 -> ip2
I0326 13:50:37.406070 11434 net.cpp:141] Setting up ip2
I0326 13:50:37.406088 11434 net.cpp:148] Top shape: 500 10 (5000)
I0326 13:50:37.406100 11434 net.cpp:156] Memory required for data: 40394000
I0326 13:50:37.406114 11434 layer_factory.hpp:77] Creating layer ip2_ip2_0_split
I0326 13:50:37.406131 11434 net.cpp:91] Creating Layer ip2_ip2_0_split
I0326 13:50:37.406136 11434 net.cpp:435] ip2_ip2_0_split <- ip2
I0326 13:50:37.406139 11434 net.cpp:409] ip2_ip2_0_split -> ip2_ip2_0_split_0
I0326 13:50:37.406144 11434 net.cpp:409] ip2_ip2_0_split -> ip2_ip2_0_split_1
I0326 13:50:37.406177 11434 net.cpp:141] Setting up ip2_ip2_0_split
I0326 13:50:37.406183 11434 net.cpp:148] Top shape: 500 10 (5000)
I0326 13:50:37.406188 11434 net.cpp:148] Top shape: 500 10 (5000)
I0326 13:50:37.406193 11434 net.cpp:156] Memory required for data: 40434000
I0326 13:50:37.406196 11434 layer_factory.hpp:77] Creating layer accuracy
I0326 13:50:37.406203 11434 net.cpp:91] Creating Layer accuracy
I0326 13:50:37.406204 11434 net.cpp:435] accuracy <- ip2_ip2_0_split_0
I0326 13:50:37.406208 11434 net.cpp:435] accuracy <- label_mnist_1_split_0
I0326 13:50:37.406213 11434 net.cpp:409] accuracy -> accuracy
…
