…
I0324 21:59:32.414304 19885 net.cpp:323] The NetState phase (0) differed from the phase (1) specified by a rule in layer mnist
I0324 21:59:32.414362 19885 net.cpp:323] The NetState phase (0) differed from the phase (1) specified by a rule in layer accuracy
I0324 21:59:32.414495 19885 net.cpp:49] Initializing net from parameters: 
name: "LeNet"
state {
  phase: TRAIN
}
layer {
  name: "mnist"
  type: "Data"
  top: "data"
  top: "label"
  include {
    phase: TRAIN
  }
  transform_param {
    scale: 0.00390625
  }
  data_param {
    source: "/home/nikoong/Algorithm_test/handwritting/data/lmdb/newfour/train_withnewfour_lmdb"
    batch_size: 20000
    backend: LMDB
  }
}
layer {
  name: "conv1"
  type: "Convolution"
  bottom: "data"
  top: "conv1"
  param {
    lr_mult: 1
  }
  param {
    lr_mult: 2
  }
  convolution_param {
    num_output: 20
    kernel_size: 5
    stride: 1
    weight_filler {
      type: "xavier"
    }
    bias_filler {
      type: "constant"
    }
  }
}
layer {
  name: "pool1"
  type: "Pooling"
  bottom: "conv1"
  top: "pool1"
  pooling_param {
    pool: MAX
    kernel_size: 2
    stride: 2
  }
}
layer {
  name: "conv2"
  type: "Convolution"
  bottom: "pool1"
  top: "conv2"
  param {
    lr_mult: 1
  }
  param {
    lr_mult: 2
  }
  convolution_param {
    num_output: 50
    kernel_size: 5
    stride: 1
    weight_filler {
      type: "xavier"
    }
    bias_filler {
      type: "constant"
    }
  }
}
layer {
  name: "pool2"
  type: "Pooling"
  bottom: "conv2"
  top: "pool2"
  pooling_param {
    pool: MAX
    kernel_size: 2
    stride: 2
  }
}
layer {
  name: "ip1"
  type: "InnerProduct"
  bottom: "pool2"
  top: "ip1"
  param {
    lr_mult: 1
  }
  param {
    lr_mult: 2
  }
  inner_product_param {
    num_output: 500
    weight_filler {
      type: "xavier"
    }
    bias_filler {
      type: "constant"
    }
  }
}
layer {
  name: "relu1"
  type: "ReLU"
  bottom: "ip1"
  top: "ip1"
}
layer {
  name: "ip2"
  type: "InnerProduct"
  bottom: "ip1"
  top: "ip2"
  param {
    lr_mult: 1
  }
  param {
    lr_mult: 2
  }
  inner_product_param {
    num_output: 10
    weight_filler {
      type: "xavier"
    }
    bias_filler {
      type: "constant"
    }
  }
}
layer {
  name: "loss"
  type: "SoftmaxWithLoss"
  bottom: "ip2"
  bottom: "label"
  top: "loss"
}
I0324 21:59:32.414582 19885 layer_factory.hpp:77] Creating layer mnist
I0324 21:59:32.426291 19885 net.cpp:91] Creating Layer mnist
I0324 21:59:32.426324 19885 net.cpp:409] mnist -> data
I0324 21:59:32.426908 19885 net.cpp:409] mnist -> label
I0324 21:59:32.427078 19892 db_lmdb.cpp:40] Opened lmdb /home/nikoong/Algorithm_test/handwritting/data/lmdb/newfour/train_withnewfour_lmdb
I0324 21:59:33.633625 19885 data_layer.cpp:41] output data size: 20000,1,28,28
I0324 21:59:33.803230 19885 net.cpp:141] Setting up mnist
I0324 21:59:33.803272 19885 net.cpp:148] Top shape: 20000 1 28 28 (15680000)
I0324 21:59:33.803287 19885 net.cpp:148] Top shape: 20000 (20000)
I0324 21:59:33.803290 19885 net.cpp:156] Memory required for data: 62800000
I0324 21:59:33.803298 19885 layer_factory.hpp:77] Creating layer conv1
I0324 21:59:33.803365 19885 net.cpp:91] Creating Layer conv1
I0324 21:59:33.803372 19885 net.cpp:435] conv1 <- data
I0324 21:59:33.803395 19885 net.cpp:409] conv1 -> conv1
I0324 21:59:35.025758 19885 net.cpp:141] Setting up conv1
I0324 21:59:35.025779 19885 net.cpp:148] Top shape: 20000 20 24 24 (230400000)
I0324 21:59:35.025782 19885 net.cpp:156] Memory required for data: 984400000
I0324 21:59:35.025825 19885 layer_factory.hpp:77] Creating layer pool1
I0324 21:59:35.025836 19885 net.cpp:91] Creating Layer pool1
I0324 21:59:35.025841 19885 net.cpp:435] pool1 <- conv1
I0324 21:59:35.025847 19885 net.cpp:409] pool1 -> pool1
I0324 21:59:35.025899 19885 net.cpp:141] Setting up pool1
I0324 21:59:35.025904 19885 net.cpp:148] Top shape: 20000 20 12 12 (57600000)
I0324 21:59:35.025907 19885 net.cpp:156] Memory required for data: 1214800000
I0324 21:59:35.025909 19885 layer_factory.hpp:77] Creating layer conv2
I0324 21:59:35.025918 19885 net.cpp:91] Creating Layer conv2
I0324 21:59:35.025921 19885 net.cpp:435] conv2 <- pool1
I0324 21:59:35.025925 19885 net.cpp:409] conv2 -> conv2
I0324 21:59:35.027415 19885 net.cpp:141] Setting up conv2
I0324 21:59:35.027426 19885 net.cpp:148] Top shape: 20000 50 8 8 (64000000)
I0324 21:59:35.027429 19885 net.cpp:156] Memory required for data: 1470800000
I0324 21:59:35.027436 19885 layer_factory.hpp:77] Creating layer pool2
I0324 21:59:35.027441 19885 net.cpp:91] Creating Layer pool2
I0324 21:59:35.027444 19885 net.cpp:435] pool2 <- conv2
I0324 21:59:35.027458 19885 net.cpp:409] pool2 -> pool2
I0324 21:59:35.027487 19885 net.cpp:141] Setting up pool2
I0324 21:59:35.027493 19885 net.cpp:148] Top shape: 20000 50 4 4 (16000000)
I0324 21:59:35.027503 19885 net.cpp:156] Memory required for data: 1534800000
I0324 21:59:35.027505 19885 layer_factory.hpp:77] Creating layer ip1
I0324 21:59:35.027510 19885 net.cpp:91] Creating Layer ip1
I0324 21:59:35.027513 19885 net.cpp:435] ip1 <- pool2
I0324 21:59:35.027516 19885 net.cpp:409] ip1 -> ip1
I0324 21:59:35.031038 19885 net.cpp:141] Setting up ip1
I0324 21:59:35.031051 19885 net.cpp:148] Top shape: 20000 500 (10000000)
I0324 21:59:35.031064 19885 net.cpp:156] Memory required for data: 1574800000
I0324 21:59:35.031072 19885 layer_factory.hpp:77] Creating layer relu1
I0324 21:59:35.031080 19885 net.cpp:91] Creating Layer relu1
I0324 21:59:35.031082 19885 net.cpp:435] relu1 <- ip1
I0324 21:59:35.031087 19885 net.cpp:396] relu1 -> ip1 (in-place)
I0324 21:59:35.031275 19885 net.cpp:141] Setting up relu1
I0324 21:59:35.031306 19885 net.cpp:148] Top shape: 20000 500 (10000000)
I0324 21:59:35.031321 19885 net.cpp:156] Memory required for data: 1614800000
I0324 21:59:35.031322 19885 layer_factory.hpp:77] Creating layer ip2
I0324 21:59:35.031338 19885 net.cpp:91] Creating Layer ip2
I0324 21:59:35.031342 19885 net.cpp:435] ip2 <- ip1
I0324 21:59:35.031345 19885 net.cpp:409] ip2 -> ip2
I0324 21:59:35.032146 19885 net.cpp:141] Setting up ip2
I0324 21:59:35.032157 19885 net.cpp:148] Top shape: 20000 10 (200000)
I0324 21:59:35.032160 19885 net.cpp:156] Memory required for data: 1615600000
I0324 21:59:35.032166 19885 layer_factory.hpp:77] Creating layer loss
I0324 21:59:35.052839 19885 net.cpp:91] Creating Layer loss
I0324 21:59:35.052868 19885 net.cpp:435] loss <- ip2
I0324 21:59:35.052875 19885 net.cpp:435] loss <- label
I0324 21:59:35.052881 19885 net.cpp:409] loss -> loss
I0324 21:59:35.133062 19885 layer_factory.hpp:77] Creating layer loss
…
I0324 21:59:35.149222 19885 solver.cpp:181] Creating test net (#0) specified by net file: /home/nikoong/Algorithm_test/handwritting/lenet/lenet_lmdb.prototxt
I0324 21:59:35.149266 19885 net.cpp:323] The NetState phase (1) differed from the phase (0) specified by a rule in layer mnist
I0324 21:59:35.149369 19885 net.cpp:49] Initializing net from parameters: 
name: "LeNet"
state {
  phase: TEST
}
layer {
  name: "mnist"
  type: "Data"
  top: "data"
  top: "label"
  include {
    phase: TEST
  }
  transform_param {
    scale: 0.00390625
  }
  data_param {
    source: "/home/nikoong/Algorithm_test/handwritting/data/lmdb/newfour/val_withnewfour_lmdb"
    batch_size: 500
    backend: LMDB
  }
}
layer {
  name: "conv1"
  type: "Convolution"
  bottom: "data"
  top: "conv1"
  param {
    lr_mult: 1
  }
  param {
    lr_mult: 2
  }
  convolution_param {
    num_output: 20
    kernel_size: 5
    stride: 1
    weight_filler {
      type: "xavier"
    }
    bias_filler {
      type: "constant"
    }
  }
}
layer {
  name: "pool1"
  type: "Pooling"
  bottom: "conv1"
  top: "pool1"
  pooling_param {
    pool: MAX
    kernel_size: 2
    stride: 2
  }
}
layer {
  name: "conv2"
  type: "Convolution"
  bottom: "pool1"
  top: "conv2"
  param {
    lr_mult: 1
  }
  param {
    lr_mult: 2
  }
  convolution_param {
    num_output: 50
    kernel_size: 5
    stride: 1
    weight_filler {
      type: "xavier"
    }
    bias_filler {
      type: "constant"
    }
  }
}
layer {
  name: "pool2"
  type: "Pooling"
  bottom: "conv2"
  top: "pool2"
  pooling_param {
    pool: MAX
    kernel_size: 2
    stride: 2
  }
}
layer {
  name: "ip1"
  type: "InnerProduct"
  bottom: "pool2"
  top: "ip1"
  param {
    lr_mult: 1
  }
  param {
    lr_mult: 2
  }
  inner_product_param {
    num_output: 500
    weight_filler {
      type: "xavier"
    }
    bias_filler {
      type: "constant"
    }
  }
}
layer {
  name: "relu1"
  type: "ReLU"
  bottom: "ip1"
  top: "ip1"
}
layer {
  name: "ip2"
  type: "InnerProduct"
  bottom: "ip1"
  top: "ip2"
  param {
    lr_mult: 1
  }
  param {
    lr_mult: 2
  }
  inner_product_param {
    num_output: 10
    weight_filler {
      type: "xavier"
    }
    bias_filler {
      type: "constant"
    }
  }
}
layer {
  name: "accuracy"
  type: "Accuracy"
  bottom: "ip2"
  bottom: "label"
  top: "accuracy"
  include {
    phase: TEST
  }
}
layer {
  name: "loss"
  type: "SoftmaxWithLoss"
  bottom: "ip2"
  bottom: "label"
  top: "loss"
}
I0324 21:59:35.149425 19885 layer_factory.hpp:77] Creating layer mnist
I0324 21:59:35.149647 19885 net.cpp:91] Creating Layer mnist
I0324 21:59:35.149664 19885 net.cpp:409] mnist -> data
I0324 21:59:35.149672 19885 net.cpp:409] mnist -> label
I0324 21:59:35.150362 19894 db_lmdb.cpp:40] Opened lmdb /home/nikoong/Algorithm_test/handwritting/data/lmdb/newfour/val_withnewfour_lmdb
I0324 21:59:35.150490 19885 data_layer.cpp:41] output data size: 500,1,28,28
I0324 21:59:35.158141 19885 net.cpp:141] Setting up mnist
I0324 21:59:35.158172 19885 net.cpp:148] Top shape: 500 1 28 28 (392000)
I0324 21:59:35.158179 19885 net.cpp:148] Top shape: 500 (500)
I0324 21:59:35.158180 19885 net.cpp:156] Memory required for data: 1570000
I0324 21:59:35.158186 19885 layer_factory.hpp:77] Creating layer label_mnist_1_split
I0324 21:59:35.158196 19885 net.cpp:91] Creating Layer label_mnist_1_split
I0324 21:59:35.158200 19885 net.cpp:435] label_mnist_1_split <- label
I0324 21:59:35.158205 19885 net.cpp:409] label_mnist_1_split -> label_mnist_1_split_0
I0324 21:59:35.158215 19885 net.cpp:409] label_mnist_1_split -> label_mnist_1_split_1
I0324 21:59:35.158273 19885 net.cpp:141] Setting up label_mnist_1_split
I0324 21:59:35.158288 19885 net.cpp:148] Top shape: 500 (500)
I0324 21:59:35.158290 19885 net.cpp:148] Top shape: 500 (500)
I0324 21:59:35.158293 19885 net.cpp:156] Memory required for data: 1574000
I0324 21:59:35.158295 19885 layer_factory.hpp:77] Creating layer conv1
I0324 21:59:35.158315 19885 net.cpp:91] Creating Layer conv1
I0324 21:59:35.158335 19885 net.cpp:435] conv1 <- data
I0324 21:59:35.158341 19885 net.cpp:409] conv1 -> conv1
I0324 21:59:35.160956 19885 net.cpp:141] Setting up conv1
I0324 21:59:35.160975 19885 net.cpp:148] Top shape: 500 20 24 24 (5760000)
I0324 21:59:35.160980 19885 net.cpp:156] Memory required for data: 24614000
I0324 21:59:35.160991 19885 layer_factory.hpp:77] Creating layer pool1
I0324 21:59:35.160998 19885 net.cpp:91] Creating Layer pool1
I0324 21:59:35.161001 19885 net.cpp:435] pool1 <- conv1
I0324 21:59:35.161006 19885 net.cpp:409] pool1 -> pool1
I0324 21:59:35.161037 19885 net.cpp:141] Setting up pool1
I0324 21:59:35.161043 19885 net.cpp:148] Top shape: 500 20 12 12 (1440000)
I0324 21:59:35.161048 19885 net.cpp:156] Memory required for data: 30374000
I0324 21:59:35.161051 19885 layer_factory.hpp:77] Creating layer conv2
I0324 21:59:35.161061 19885 net.cpp:91] Creating Layer conv2
I0324 21:59:35.161063 19885 net.cpp:435] conv2 <- pool1
I0324 21:59:35.161068 19885 net.cpp:409] conv2 -> conv2
I0324 21:59:35.162333 19885 net.cpp:141] Setting up conv2
I0324 21:59:35.162348 19885 net.cpp:148] Top shape: 500 50 8 8 (1600000)
I0324 21:59:35.162353 19885 net.cpp:156] Memory required for data: 36774000
I0324 21:59:35.162365 19885 layer_factory.hpp:77] Creating layer pool2
I0324 21:59:35.162374 19885 net.cpp:91] Creating Layer pool2
I0324 21:59:35.162376 19885 net.cpp:435] pool2 <- conv2
I0324 21:59:35.162384 19885 net.cpp:409] pool2 -> pool2
I0324 21:59:35.162417 19885 net.cpp:141] Setting up pool2
I0324 21:59:35.162427 19885 net.cpp:148] Top shape: 500 50 4 4 (400000)
I0324 21:59:35.162433 19885 net.cpp:156] Memory required for data: 38374000
I0324 21:59:35.162436 19885 layer_factory.hpp:77] Creating layer ip1
I0324 21:59:35.162444 19885 net.cpp:91] Creating Layer ip1
I0324 21:59:35.162451 19885 net.cpp:435] ip1 <- pool2
I0324 21:59:35.162456 19885 net.cpp:409] ip1 -> ip1
I0324 21:59:35.166023 19885 net.cpp:141] Setting up ip1
I0324 21:59:35.166043 19885 net.cpp:148] Top shape: 500 500 (250000)
I0324 21:59:35.166046 19885 net.cpp:156] Memory required for data: 39374000
I0324 21:59:35.166059 19885 layer_factory.hpp:77] Creating layer relu1
I0324 21:59:35.166067 19885 net.cpp:91] Creating Layer relu1
I0324 21:59:35.166071 19885 net.cpp:435] relu1 <- ip1
I0324 21:59:35.166075 19885 net.cpp:396] relu1 -> ip1 (in-place)
I0324 21:59:35.166718 19885 net.cpp:141] Setting up relu1
I0324 21:59:35.166730 19885 net.cpp:148] Top shape: 500 500 (250000)
I0324 21:59:35.166743 19885 net.cpp:156] Memory required for data: 40374000
I0324 21:59:35.166745 19885 layer_factory.hpp:77] Creating layer ip2
I0324 21:59:35.166755 19885 net.cpp:91] Creating Layer ip2
I0324 21:59:35.166757 19885 net.cpp:435] ip2 <- ip1
I0324 21:59:35.166762 19885 net.cpp:409] ip2 -> ip2
I0324 21:59:35.166893 19885 net.cpp:141] Setting up ip2
I0324 21:59:35.166908 19885 net.cpp:148] Top shape: 500 10 (5000)
I0324 21:59:35.166924 19885 net.cpp:156] Memory required for data: 40394000
I0324 21:59:35.166932 19885 layer_factory.hpp:77] Creating layer ip2_ip2_0_split
I0324 21:59:35.166937 19885 net.cpp:91] Creating Layer ip2_ip2_0_split
I0324 21:59:35.166942 19885 net.cpp:435] ip2_ip2_0_split <- ip2
I0324 21:59:35.166946 19885 net.cpp:409] ip2_ip2_0_split -> ip2_ip2_0_split_0
I0324 21:59:35.166951 19885 net.cpp:409] ip2_ip2_0_split -> ip2_ip2_0_split_1
I0324 21:59:35.166988 19885 net.cpp:141] Setting up ip2_ip2_0_split
I0324 21:59:35.166993 19885 net.cpp:148] Top shape: 500 10 (5000)
I0324 21:59:35.167006 19885 net.cpp:148] Top shape: 500 10 (5000)
I0324 21:59:35.167008 19885 net.cpp:156] Memory required for data: 40434000
I0324 21:59:35.167011 19885 layer_factory.hpp:77] Creating layer accuracy
I0324 21:59:35.167016 19885 net.cpp:91] Creating Layer accuracy
I0324 21:59:35.167019 19885 net.cpp:435] accuracy <- ip2_ip2_0_split_0
I0324 21:59:35.167024 19885 net.cpp:435] accuracy <- label_mnist_1_split_0
I0324 21:59:35.167028 19885 net.cpp:409] accuracy -> accuracy
…
