…
I0326 12:42:15.714830 10540 net.cpp:323] The NetState phase (0) differed from the phase (1) specified by a rule in layer mnist
I0326 12:42:15.714845 10540 net.cpp:323] The NetState phase (0) differed from the phase (1) specified by a rule in layer accuracy
I0326 12:42:15.714939 10540 net.cpp:49] Initializing net from parameters: 
name: "LeNet"
state {
  phase: TRAIN
}
layer {
  name: "mnist"
  type: "Data"
  top: "data"
  top: "label"
  include {
    phase: TRAIN
  }
  transform_param {
    scale: 0.00390625
  }
  data_param {
    source: "/home/nikoong/Algorithm_test/handwritting/data/lmdb/newfour/train_withnewfour_lmdb"
    batch_size: 20000
    backend: LMDB
  }
}
layer {
  name: "conv1"
  type: "Convolution"
  bottom: "data"
  top: "conv1"
  param {
    lr_mult: 1
  }
  param {
    lr_mult: 2
  }
  convolution_param {
    num_output: 20
    kernel_size: 5
    stride: 1
    weight_filler {
      type: "xavier"
    }
    bias_filler {
      type: "constant"
    }
  }
}
layer {
  name: "pool1"
  type: "Pooling"
  bottom: "conv1"
  top: "pool1"
  pooling_param {
    pool: MAX
    kernel_size: 2
    stride: 2
  }
}
layer {
  name: "conv2"
  type: "Convolution"
  bottom: "pool1"
  top: "conv2"
  param {
    lr_mult: 1
  }
  param {
    lr_mult: 2
  }
  convolution_param {
    num_output: 50
    kernel_size: 5
    stride: 1
    weight_filler {
      type: "xavier"
    }
    bias_filler {
      type: "constant"
    }
  }
}
layer {
  name: "pool2"
  type: "Pooling"
  bottom: "conv2"
  top: "pool2"
  pooling_param {
    pool: MAX
    kernel_size: 2
    stride: 2
  }
}
layer {
  name: "ip1"
  type: "InnerProduct"
  bottom: "pool2"
  top: "ip1"
  param {
    lr_mult: 1
  }
  param {
    lr_mult: 2
  }
  inner_product_param {
    num_output: 500
    weight_filler {
      type: "xavier"
    }
    bias_filler {
      type: "constant"
    }
  }
}
layer {
  name: "relu1"
  type: "ReLU"
  bottom: "ip1"
  top: "ip1"
}
layer {
  name: "ip2"
  type: "InnerProduct"
  bottom: "ip1"
  top: "ip2"
  param {
    lr_mult: 1
  }
  param {
    lr_mult: 2
  }
  inner_product_param {
    num_output: 10
    weight_filler {
      type: "xavier"
    }
    bias_filler {
      type: "constant"
    }
  }
}
layer {
  name: "loss"
  type: "SoftmaxWithLoss"
  bottom: "ip2"
  bottom: "label"
  top: "loss"
}
I0326 12:42:15.714992 10540 layer_factory.hpp:77] Creating layer mnist
I0326 12:42:15.723366 10540 net.cpp:91] Creating Layer mnist
I0326 12:42:15.723395 10540 net.cpp:409] mnist -> data
I0326 12:42:15.723444 10540 net.cpp:409] mnist -> label
I0326 12:42:15.724164 10547 db_lmdb.cpp:40] Opened lmdb /home/nikoong/Algorithm_test/handwritting/data/lmdb/newfour/train_withnewfour_lmdb
I0326 12:42:15.749976 10540 data_layer.cpp:41] output data size: 20000,1,28,28
I0326 12:42:15.920414 10540 net.cpp:141] Setting up mnist
I0326 12:42:15.920459 10540 net.cpp:148] Top shape: 20000 1 28 28 (15680000)
I0326 12:42:15.920475 10540 net.cpp:148] Top shape: 20000 (20000)
I0326 12:42:15.920478 10540 net.cpp:156] Memory required for data: 62800000
I0326 12:42:15.920486 10540 layer_factory.hpp:77] Creating layer conv1
I0326 12:42:15.920511 10540 net.cpp:91] Creating Layer conv1
I0326 12:42:15.920527 10540 net.cpp:435] conv1 <- data
I0326 12:42:15.920548 10540 net.cpp:409] conv1 -> conv1
I0326 12:42:16.906792 10540 net.cpp:141] Setting up conv1
I0326 12:42:16.906814 10540 net.cpp:148] Top shape: 20000 20 24 24 (230400000)
I0326 12:42:16.906833 10540 net.cpp:156] Memory required for data: 984400000
I0326 12:42:16.906859 10540 layer_factory.hpp:77] Creating layer pool1
I0326 12:42:16.906872 10540 net.cpp:91] Creating Layer pool1
I0326 12:42:16.906875 10540 net.cpp:435] pool1 <- conv1
I0326 12:42:16.906880 10540 net.cpp:409] pool1 -> pool1
I0326 12:42:16.906929 10540 net.cpp:141] Setting up pool1
I0326 12:42:16.906934 10540 net.cpp:148] Top shape: 20000 20 12 12 (57600000)
I0326 12:42:16.906936 10540 net.cpp:156] Memory required for data: 1214800000
I0326 12:42:16.906939 10540 layer_factory.hpp:77] Creating layer conv2
I0326 12:42:16.906949 10540 net.cpp:91] Creating Layer conv2
I0326 12:42:16.906950 10540 net.cpp:435] conv2 <- pool1
I0326 12:42:16.906955 10540 net.cpp:409] conv2 -> conv2
I0326 12:42:16.908476 10540 net.cpp:141] Setting up conv2
I0326 12:42:16.908488 10540 net.cpp:148] Top shape: 20000 50 8 8 (64000000)
I0326 12:42:16.908490 10540 net.cpp:156] Memory required for data: 1470800000
I0326 12:42:16.908498 10540 layer_factory.hpp:77] Creating layer pool2
I0326 12:42:16.908502 10540 net.cpp:91] Creating Layer pool2
I0326 12:42:16.908505 10540 net.cpp:435] pool2 <- conv2
I0326 12:42:16.908519 10540 net.cpp:409] pool2 -> pool2
I0326 12:42:16.908550 10540 net.cpp:141] Setting up pool2
I0326 12:42:16.908555 10540 net.cpp:148] Top shape: 20000 50 4 4 (16000000)
I0326 12:42:16.908566 10540 net.cpp:156] Memory required for data: 1534800000
I0326 12:42:16.908568 10540 layer_factory.hpp:77] Creating layer ip1
I0326 12:42:16.908573 10540 net.cpp:91] Creating Layer ip1
I0326 12:42:16.908576 10540 net.cpp:435] ip1 <- pool2
I0326 12:42:16.908581 10540 net.cpp:409] ip1 -> ip1
I0326 12:42:16.912108 10540 net.cpp:141] Setting up ip1
I0326 12:42:16.912122 10540 net.cpp:148] Top shape: 20000 500 (10000000)
I0326 12:42:16.912124 10540 net.cpp:156] Memory required for data: 1574800000
I0326 12:42:16.912132 10540 layer_factory.hpp:77] Creating layer relu1
I0326 12:42:16.912137 10540 net.cpp:91] Creating Layer relu1
I0326 12:42:16.912142 10540 net.cpp:435] relu1 <- ip1
I0326 12:42:16.912155 10540 net.cpp:396] relu1 -> ip1 (in-place)
I0326 12:42:16.912310 10540 net.cpp:141] Setting up relu1
I0326 12:42:16.912317 10540 net.cpp:148] Top shape: 20000 500 (10000000)
I0326 12:42:16.912320 10540 net.cpp:156] Memory required for data: 1614800000
I0326 12:42:16.912322 10540 layer_factory.hpp:77] Creating layer ip2
I0326 12:42:16.912328 10540 net.cpp:91] Creating Layer ip2
I0326 12:42:16.912330 10540 net.cpp:435] ip2 <- ip1
I0326 12:42:16.912335 10540 net.cpp:409] ip2 -> ip2
I0326 12:42:16.913128 10540 net.cpp:141] Setting up ip2
I0326 12:42:16.913138 10540 net.cpp:148] Top shape: 20000 10 (200000)
I0326 12:42:16.913141 10540 net.cpp:156] Memory required for data: 1615600000
I0326 12:42:16.913147 10540 layer_factory.hpp:77] Creating layer loss
I0326 12:42:16.913153 10540 net.cpp:91] Creating Layer loss
I0326 12:42:16.913156 10540 net.cpp:435] loss <- ip2
I0326 12:42:16.913159 10540 net.cpp:435] loss <- label
I0326 12:42:16.913174 10540 net.cpp:409] loss -> loss
I0326 12:42:16.913187 10540 layer_factory.hpp:77] Creating layer loss
…
I0326 12:42:16.913688 10540 solver.cpp:181] Creating test net (#0) specified by net file: /home/nikoong/Algorithm_test/handwritting/lenet/lenet_lmdb.prototxt
I0326 12:42:16.913709 10540 net.cpp:323] The NetState phase (1) differed from the phase (0) specified by a rule in layer mnist
I0326 12:42:16.913812 10540 net.cpp:49] Initializing net from parameters: 
name: "LeNet"
state {
  phase: TEST
}
layer {
  name: "mnist"
  type: "Data"
  top: "data"
  top: "label"
  include {
    phase: TEST
  }
  transform_param {
    scale: 0.00390625
  }
  data_param {
    source: "/home/nikoong/Algorithm_test/handwritting/data/lmdb/newfour/val_withnewfour_lmdb"
    batch_size: 500
    backend: LMDB
  }
}
layer {
  name: "conv1"
  type: "Convolution"
  bottom: "data"
  top: "conv1"
  param {
    lr_mult: 1
  }
  param {
    lr_mult: 2
  }
  convolution_param {
    num_output: 20
    kernel_size: 5
    stride: 1
    weight_filler {
      type: "xavier"
    }
    bias_filler {
      type: "constant"
    }
  }
}
layer {
  name: "pool1"
  type: "Pooling"
  bottom: "conv1"
  top: "pool1"
  pooling_param {
    pool: MAX
    kernel_size: 2
    stride: 2
  }
}
layer {
  name: "conv2"
  type: "Convolution"
  bottom: "pool1"
  top: "conv2"
  param {
    lr_mult: 1
  }
  param {
    lr_mult: 2
  }
  convolution_param {
    num_output: 50
    kernel_size: 5
    stride: 1
    weight_filler {
      type: "xavier"
    }
    bias_filler {
      type: "constant"
    }
  }
}
layer {
  name: "pool2"
  type: "Pooling"
  bottom: "conv2"
  top: "pool2"
  pooling_param {
    pool: MAX
    kernel_size: 2
    stride: 2
  }
}
layer {
  name: "ip1"
  type: "InnerProduct"
  bottom: "pool2"
  top: "ip1"
  param {
    lr_mult: 1
  }
  param {
    lr_mult: 2
  }
  inner_product_param {
    num_output: 500
    weight_filler {
      type: "xavier"
    }
    bias_filler {
      type: "constant"
    }
  }
}
layer {
  name: "relu1"
  type: "ReLU"
  bottom: "ip1"
  top: "ip1"
}
layer {
  name: "ip2"
  type: "InnerProduct"
  bottom: "ip1"
  top: "ip2"
  param {
    lr_mult: 1
  }
  param {
    lr_mult: 2
  }
  inner_product_param {
    num_output: 10
    weight_filler {
      type: "xavier"
    }
    bias_filler {
      type: "constant"
    }
  }
}
layer {
  name: "accuracy"
  type: "Accuracy"
  bottom: "ip2"
  bottom: "label"
  top: "accuracy"
  include {
    phase: TEST
  }
}
layer {
  name: "loss"
  type: "SoftmaxWithLoss"
  bottom: "ip2"
  bottom: "label"
  top: "loss"
}
I0326 12:42:16.913867 10540 layer_factory.hpp:77] Creating layer mnist
I0326 12:42:16.914090 10540 net.cpp:91] Creating Layer mnist
I0326 12:42:16.914108 10540 net.cpp:409] mnist -> data
I0326 12:42:16.914114 10540 net.cpp:409] mnist -> label
I0326 12:42:16.914810 10549 db_lmdb.cpp:40] Opened lmdb /home/nikoong/Algorithm_test/handwritting/data/lmdb/newfour/val_withnewfour_lmdb
I0326 12:42:16.914937 10540 data_layer.cpp:41] output data size: 500,1,28,28
I0326 12:42:16.922766 10540 net.cpp:141] Setting up mnist
I0326 12:42:16.922796 10540 net.cpp:148] Top shape: 500 1 28 28 (392000)
I0326 12:42:16.922801 10540 net.cpp:148] Top shape: 500 (500)
I0326 12:42:16.922803 10540 net.cpp:156] Memory required for data: 1570000
I0326 12:42:16.922809 10540 layer_factory.hpp:77] Creating layer label_mnist_1_split
I0326 12:42:16.922819 10540 net.cpp:91] Creating Layer label_mnist_1_split
I0326 12:42:16.922823 10540 net.cpp:435] label_mnist_1_split <- label
I0326 12:42:16.922829 10540 net.cpp:409] label_mnist_1_split -> label_mnist_1_split_0
I0326 12:42:16.922837 10540 net.cpp:409] label_mnist_1_split -> label_mnist_1_split_1
I0326 12:42:16.922931 10540 net.cpp:141] Setting up label_mnist_1_split
I0326 12:42:16.922937 10540 net.cpp:148] Top shape: 500 (500)
I0326 12:42:16.922950 10540 net.cpp:148] Top shape: 500 (500)
I0326 12:42:16.922952 10540 net.cpp:156] Memory required for data: 1574000
I0326 12:42:16.922955 10540 layer_factory.hpp:77] Creating layer conv1
I0326 12:42:16.922974 10540 net.cpp:91] Creating Layer conv1
I0326 12:42:16.922991 10540 net.cpp:435] conv1 <- data
I0326 12:42:16.922996 10540 net.cpp:409] conv1 -> conv1
I0326 12:42:16.925134 10540 net.cpp:141] Setting up conv1
I0326 12:42:16.925148 10540 net.cpp:148] Top shape: 500 20 24 24 (5760000)
I0326 12:42:16.925160 10540 net.cpp:156] Memory required for data: 24614000
I0326 12:42:16.925169 10540 layer_factory.hpp:77] Creating layer pool1
I0326 12:42:16.925176 10540 net.cpp:91] Creating Layer pool1
I0326 12:42:16.925180 10540 net.cpp:435] pool1 <- conv1
I0326 12:42:16.925186 10540 net.cpp:409] pool1 -> pool1
I0326 12:42:16.925227 10540 net.cpp:141] Setting up pool1
I0326 12:42:16.925233 10540 net.cpp:148] Top shape: 500 20 12 12 (1440000)
I0326 12:42:16.925251 10540 net.cpp:156] Memory required for data: 30374000
I0326 12:42:16.925253 10540 layer_factory.hpp:77] Creating layer conv2
I0326 12:42:16.925261 10540 net.cpp:91] Creating Layer conv2
I0326 12:42:16.925264 10540 net.cpp:435] conv2 <- pool1
I0326 12:42:16.925271 10540 net.cpp:409] conv2 -> conv2
I0326 12:42:16.926445 10540 net.cpp:141] Setting up conv2
I0326 12:42:16.926457 10540 net.cpp:148] Top shape: 500 50 8 8 (1600000)
I0326 12:42:16.926470 10540 net.cpp:156] Memory required for data: 36774000
I0326 12:42:16.926477 10540 layer_factory.hpp:77] Creating layer pool2
I0326 12:42:16.926483 10540 net.cpp:91] Creating Layer pool2
I0326 12:42:16.926487 10540 net.cpp:435] pool2 <- conv2
I0326 12:42:16.926499 10540 net.cpp:409] pool2 -> pool2
I0326 12:42:16.926528 10540 net.cpp:141] Setting up pool2
I0326 12:42:16.926534 10540 net.cpp:148] Top shape: 500 50 4 4 (400000)
I0326 12:42:16.926537 10540 net.cpp:156] Memory required for data: 38374000
I0326 12:42:16.926539 10540 layer_factory.hpp:77] Creating layer ip1
I0326 12:42:16.926547 10540 net.cpp:91] Creating Layer ip1
I0326 12:42:16.926551 10540 net.cpp:435] ip1 <- pool2
I0326 12:42:16.926555 10540 net.cpp:409] ip1 -> ip1
I0326 12:42:16.930131 10540 net.cpp:141] Setting up ip1
I0326 12:42:16.930160 10540 net.cpp:148] Top shape: 500 500 (250000)
I0326 12:42:16.930162 10540 net.cpp:156] Memory required for data: 39374000
I0326 12:42:16.930171 10540 layer_factory.hpp:77] Creating layer relu1
I0326 12:42:16.930179 10540 net.cpp:91] Creating Layer relu1
I0326 12:42:16.930183 10540 net.cpp:435] relu1 <- ip1
I0326 12:42:16.930187 10540 net.cpp:396] relu1 -> ip1 (in-place)
I0326 12:42:16.930802 10540 net.cpp:141] Setting up relu1
I0326 12:42:16.930814 10540 net.cpp:148] Top shape: 500 500 (250000)
I0326 12:42:16.930827 10540 net.cpp:156] Memory required for data: 40374000
I0326 12:42:16.930830 10540 layer_factory.hpp:77] Creating layer ip2
I0326 12:42:16.930838 10540 net.cpp:91] Creating Layer ip2
I0326 12:42:16.930841 10540 net.cpp:435] ip2 <- ip1
I0326 12:42:16.930848 10540 net.cpp:409] ip2 -> ip2
I0326 12:42:16.930971 10540 net.cpp:141] Setting up ip2
I0326 12:42:16.930980 10540 net.cpp:148] Top shape: 500 10 (5000)
I0326 12:42:16.930989 10540 net.cpp:156] Memory required for data: 40394000
I0326 12:42:16.930999 10540 layer_factory.hpp:77] Creating layer ip2_ip2_0_split
I0326 12:42:16.931007 10540 net.cpp:91] Creating Layer ip2_ip2_0_split
I0326 12:42:16.931011 10540 net.cpp:435] ip2_ip2_0_split <- ip2
I0326 12:42:16.931020 10540 net.cpp:409] ip2_ip2_0_split -> ip2_ip2_0_split_0
I0326 12:42:16.931026 10540 net.cpp:409] ip2_ip2_0_split -> ip2_ip2_0_split_1
I0326 12:42:16.931056 10540 net.cpp:141] Setting up ip2_ip2_0_split
I0326 12:42:16.931061 10540 net.cpp:148] Top shape: 500 10 (5000)
I0326 12:42:16.931064 10540 net.cpp:148] Top shape: 500 10 (5000)
I0326 12:42:16.931071 10540 net.cpp:156] Memory required for data: 40434000
I0326 12:42:16.931073 10540 layer_factory.hpp:77] Creating layer accuracy
I0326 12:42:16.931082 10540 net.cpp:91] Creating Layer accuracy
I0326 12:42:16.931085 10540 net.cpp:435] accuracy <- ip2_ip2_0_split_0
I0326 12:42:16.931093 10540 net.cpp:435] accuracy <- label_mnist_1_split_0
I0326 12:42:16.931097 10540 net.cpp:409] accuracy -> accuracy
…
