…
I0328 17:00:54.118466 31199 net.cpp:323] The NetState phase (0) differed from the phase (1) specified by a rule in layer mnist
I0328 17:00:54.118489 31199 net.cpp:323] The NetState phase (0) differed from the phase (1) specified by a rule in layer accuracy
I0328 17:00:54.118618 31199 net.cpp:49] Initializing net from parameters: 
name: "LeNet"
state {
  phase: TRAIN
}
layer {
  name: "mnist"
  type: "Data"
  top: "data"
  top: "label"
  include {
    phase: TRAIN
  }
  transform_param {
    scale: 0.00390625
  }
  data_param {
    source: "/home/nikoong/Algorithm_test/handwritting/data/lmdb/newfour/train_withnewfour_lmdb"
    batch_size: 20000
    backend: LMDB
  }
}
layer {
  name: "conv1"
  type: "Convolution"
  bottom: "data"
  top: "conv1"
  param {
    lr_mult: 1
  }
  param {
    lr_mult: 2
  }
  convolution_param {
    num_output: 20
    kernel_size: 5
    stride: 1
    weight_filler {
      type: "xavier"
    }
    bias_filler {
      type: "constant"
    }
  }
}
layer {
  name: "pool1"
  type: "Pooling"
  bottom: "conv1"
  top: "pool1"
  pooling_param {
    pool: MAX
    kernel_size: 2
    stride: 2
  }
}
layer {
  name: "conv2"
  type: "Convolution"
  bottom: "pool1"
  top: "conv2"
  param {
    lr_mult: 1
  }
  param {
    lr_mult: 2
  }
  convolution_param {
    num_output: 50
    kernel_size: 5
    stride: 1
    weight_filler {
      type: "xavier"
    }
    bias_filler {
      type: "constant"
    }
  }
}
layer {
  name: "pool2"
  type: "Pooling"
  bottom: "conv2"
  top: "pool2"
  pooling_param {
    pool: MAX
    kernel_size: 2
    stride: 2
  }
}
layer {
  name: "ip1"
  type: "InnerProduct"
  bottom: "pool2"
  top: "ip1"
  param {
    lr_mult: 1
  }
  param {
    lr_mult: 2
  }
  inner_product_param {
    num_output: 500
    weight_filler {
      type: "xavier"
    }
    bias_filler {
      type: "constant"
    }
  }
}
layer {
  name: "relu1"
  type: "ReLU"
  bottom: "ip1"
  top: "ip1"
}
layer {
  name: "ip2"
  type: "InnerProduct"
  bottom: "ip1"
  top: "ip2"
  param {
    lr_mult: 1
  }
  param {
    lr_mult: 2
  }
  inner_product_param {
    num_output: 10
    weight_filler {
      type: "xavier"
    }
    bias_filler {
      type: "constant"
    }
  }
}
layer {
  name: "loss"
  type: "SoftmaxWithLoss"
  bottom: "ip2"
  bottom: "label"
  top: "loss"
}
I0328 17:00:54.118690 31199 layer_factory.hpp:77] Creating layer mnist
I0328 17:00:54.129653 31199 net.cpp:91] Creating Layer mnist
I0328 17:00:54.129675 31199 net.cpp:409] mnist -> data
I0328 17:00:54.129722 31199 net.cpp:409] mnist -> label
I0328 17:00:54.204571 31215 db_lmdb.cpp:40] Opened lmdb /home/nikoong/Algorithm_test/handwritting/data/lmdb/newfour/train_withnewfour_lmdb
I0328 17:00:57.103281 31199 data_layer.cpp:41] output data size: 20000,1,28,28
I0328 17:00:57.273463 31199 net.cpp:141] Setting up mnist
I0328 17:00:57.273504 31199 net.cpp:148] Top shape: 20000 1 28 28 (15680000)
I0328 17:00:57.273509 31199 net.cpp:148] Top shape: 20000 (20000)
I0328 17:00:57.273511 31199 net.cpp:156] Memory required for data: 62800000
I0328 17:00:57.273528 31199 layer_factory.hpp:77] Creating layer conv1
I0328 17:00:57.273548 31199 net.cpp:91] Creating Layer conv1
I0328 17:00:57.273552 31199 net.cpp:435] conv1 <- data
I0328 17:00:57.273562 31199 net.cpp:409] conv1 -> conv1
I0328 17:01:01.938634 31199 net.cpp:141] Setting up conv1
I0328 17:01:01.938657 31199 net.cpp:148] Top shape: 20000 20 24 24 (230400000)
I0328 17:01:01.938660 31199 net.cpp:156] Memory required for data: 984400000
I0328 17:01:01.938691 31199 layer_factory.hpp:77] Creating layer pool1
I0328 17:01:01.938704 31199 net.cpp:91] Creating Layer pool1
I0328 17:01:01.938709 31199 net.cpp:435] pool1 <- conv1
I0328 17:01:01.938715 31199 net.cpp:409] pool1 -> pool1
I0328 17:01:01.938758 31199 net.cpp:141] Setting up pool1
I0328 17:01:01.938765 31199 net.cpp:148] Top shape: 20000 20 12 12 (57600000)
I0328 17:01:01.938767 31199 net.cpp:156] Memory required for data: 1214800000
I0328 17:01:01.938771 31199 layer_factory.hpp:77] Creating layer conv2
I0328 17:01:01.938781 31199 net.cpp:91] Creating Layer conv2
I0328 17:01:01.938783 31199 net.cpp:435] conv2 <- pool1
I0328 17:01:01.938787 31199 net.cpp:409] conv2 -> conv2
I0328 17:01:01.940392 31199 net.cpp:141] Setting up conv2
I0328 17:01:01.940412 31199 net.cpp:148] Top shape: 20000 50 8 8 (64000000)
I0328 17:01:01.940415 31199 net.cpp:156] Memory required for data: 1470800000
I0328 17:01:01.940421 31199 layer_factory.hpp:77] Creating layer pool2
I0328 17:01:01.940428 31199 net.cpp:91] Creating Layer pool2
I0328 17:01:01.940430 31199 net.cpp:435] pool2 <- conv2
I0328 17:01:01.940444 31199 net.cpp:409] pool2 -> pool2
I0328 17:01:01.940474 31199 net.cpp:141] Setting up pool2
I0328 17:01:01.940488 31199 net.cpp:148] Top shape: 20000 50 4 4 (16000000)
I0328 17:01:01.940490 31199 net.cpp:156] Memory required for data: 1534800000
I0328 17:01:01.940493 31199 layer_factory.hpp:77] Creating layer ip1
I0328 17:01:01.940498 31199 net.cpp:91] Creating Layer ip1
I0328 17:01:01.940501 31199 net.cpp:435] ip1 <- pool2
I0328 17:01:01.940505 31199 net.cpp:409] ip1 -> ip1
I0328 17:01:01.943871 31199 net.cpp:141] Setting up ip1
I0328 17:01:01.943883 31199 net.cpp:148] Top shape: 20000 500 (10000000)
I0328 17:01:01.943886 31199 net.cpp:156] Memory required for data: 1574800000
I0328 17:01:01.943893 31199 layer_factory.hpp:77] Creating layer relu1
I0328 17:01:01.943899 31199 net.cpp:91] Creating Layer relu1
I0328 17:01:01.943903 31199 net.cpp:435] relu1 <- ip1
I0328 17:01:01.943907 31199 net.cpp:396] relu1 -> ip1 (in-place)
I0328 17:01:01.944052 31199 net.cpp:141] Setting up relu1
I0328 17:01:01.944061 31199 net.cpp:148] Top shape: 20000 500 (10000000)
I0328 17:01:01.944062 31199 net.cpp:156] Memory required for data: 1614800000
I0328 17:01:01.944066 31199 layer_factory.hpp:77] Creating layer ip2
I0328 17:01:01.944070 31199 net.cpp:91] Creating Layer ip2
I0328 17:01:01.944073 31199 net.cpp:435] ip2 <- ip1
I0328 17:01:01.944077 31199 net.cpp:409] ip2 -> ip2
I0328 17:01:01.944823 31199 net.cpp:141] Setting up ip2
I0328 17:01:01.944834 31199 net.cpp:148] Top shape: 20000 10 (200000)
I0328 17:01:01.944838 31199 net.cpp:156] Memory required for data: 1615600000
I0328 17:01:01.944842 31199 layer_factory.hpp:77] Creating layer loss
I0328 17:01:01.944849 31199 net.cpp:91] Creating Layer loss
I0328 17:01:01.944851 31199 net.cpp:435] loss <- ip2
I0328 17:01:01.944855 31199 net.cpp:435] loss <- label
I0328 17:01:01.944860 31199 net.cpp:409] loss -> loss
I0328 17:01:01.944875 31199 layer_factory.hpp:77] Creating layer loss
…
I0328 17:01:01.945351 31199 solver.cpp:181] Creating test net (#0) specified by net file: /home/nikoong/Algorithm_test/handwritting/lenet/lenet_lmdb.prototxt
I0328 17:01:01.945372 31199 net.cpp:323] The NetState phase (1) differed from the phase (0) specified by a rule in layer mnist
I0328 17:01:01.945458 31199 net.cpp:49] Initializing net from parameters: 
name: "LeNet"
state {
  phase: TEST
}
layer {
  name: "mnist"
  type: "Data"
  top: "data"
  top: "label"
  include {
    phase: TEST
  }
  transform_param {
    scale: 0.00390625
  }
  data_param {
    source: "/home/nikoong/Algorithm_test/handwritting/data/lmdb/newfour/val_withnewfour_lmdb"
    batch_size: 500
    backend: LMDB
  }
}
layer {
  name: "conv1"
  type: "Convolution"
  bottom: "data"
  top: "conv1"
  param {
    lr_mult: 1
  }
  param {
    lr_mult: 2
  }
  convolution_param {
    num_output: 20
    kernel_size: 5
    stride: 1
    weight_filler {
      type: "xavier"
    }
    bias_filler {
      type: "constant"
    }
  }
}
layer {
  name: "pool1"
  type: "Pooling"
  bottom: "conv1"
  top: "pool1"
  pooling_param {
    pool: MAX
    kernel_size: 2
    stride: 2
  }
}
layer {
  name: "conv2"
  type: "Convolution"
  bottom: "pool1"
  top: "conv2"
  param {
    lr_mult: 1
  }
  param {
    lr_mult: 2
  }
  convolution_param {
    num_output: 50
    kernel_size: 5
    stride: 1
    weight_filler {
      type: "xavier"
    }
    bias_filler {
      type: "constant"
    }
  }
}
layer {
  name: "pool2"
  type: "Pooling"
  bottom: "conv2"
  top: "pool2"
  pooling_param {
    pool: MAX
    kernel_size: 2
    stride: 2
  }
}
layer {
  name: "ip1"
  type: "InnerProduct"
  bottom: "pool2"
  top: "ip1"
  param {
    lr_mult: 1
  }
  param {
    lr_mult: 2
  }
  inner_product_param {
    num_output: 500
    weight_filler {
      type: "xavier"
    }
    bias_filler {
      type: "constant"
    }
  }
}
layer {
  name: "relu1"
  type: "ReLU"
  bottom: "ip1"
  top: "ip1"
}
layer {
  name: "ip2"
  type: "InnerProduct"
  bottom: "ip1"
  top: "ip2"
  param {
    lr_mult: 1
  }
  param {
    lr_mult: 2
  }
  inner_product_param {
    num_output: 10
    weight_filler {
      type: "xavier"
    }
    bias_filler {
      type: "constant"
    }
  }
}
layer {
  name: "accuracy"
  type: "Accuracy"
  bottom: "ip2"
  bottom: "label"
  top: "accuracy"
  include {
    phase: TEST
  }
}
layer {
  name: "loss"
  type: "SoftmaxWithLoss"
  bottom: "ip2"
  bottom: "label"
  top: "loss"
}
I0328 17:01:01.945504 31199 layer_factory.hpp:77] Creating layer mnist
I0328 17:01:01.945725 31199 net.cpp:91] Creating Layer mnist
I0328 17:01:01.945741 31199 net.cpp:409] mnist -> data
I0328 17:01:01.945749 31199 net.cpp:409] mnist -> label
I0328 17:01:01.993008 31219 db_lmdb.cpp:40] Opened lmdb /home/nikoong/Algorithm_test/handwritting/data/lmdb/newfour/val_withnewfour_lmdb
I0328 17:01:02.012604 31199 data_layer.cpp:41] output data size: 500,1,28,28
I0328 17:01:02.021324 31199 net.cpp:141] Setting up mnist
I0328 17:01:02.021354 31199 net.cpp:148] Top shape: 500 1 28 28 (392000)
I0328 17:01:02.021363 31199 net.cpp:148] Top shape: 500 (500)
I0328 17:01:02.021366 31199 net.cpp:156] Memory required for data: 1570000
I0328 17:01:02.021375 31199 layer_factory.hpp:77] Creating layer label_mnist_1_split
I0328 17:01:02.021387 31199 net.cpp:91] Creating Layer label_mnist_1_split
I0328 17:01:02.021392 31199 net.cpp:435] label_mnist_1_split <- label
I0328 17:01:02.021401 31199 net.cpp:409] label_mnist_1_split -> label_mnist_1_split_0
I0328 17:01:02.021415 31199 net.cpp:409] label_mnist_1_split -> label_mnist_1_split_1
I0328 17:01:02.021489 31199 net.cpp:141] Setting up label_mnist_1_split
I0328 17:01:02.021500 31199 net.cpp:148] Top shape: 500 (500)
I0328 17:01:02.021505 31199 net.cpp:148] Top shape: 500 (500)
I0328 17:01:02.021509 31199 net.cpp:156] Memory required for data: 1574000
I0328 17:01:02.021513 31199 layer_factory.hpp:77] Creating layer conv1
I0328 17:01:02.021528 31199 net.cpp:91] Creating Layer conv1
I0328 17:01:02.021589 31199 net.cpp:435] conv1 <- data
I0328 17:01:02.021602 31199 net.cpp:409] conv1 -> conv1
I0328 17:01:02.024336 31199 net.cpp:141] Setting up conv1
I0328 17:01:02.024363 31199 net.cpp:148] Top shape: 500 20 24 24 (5760000)
I0328 17:01:02.024369 31199 net.cpp:156] Memory required for data: 24614000
I0328 17:01:02.024384 31199 layer_factory.hpp:77] Creating layer pool1
I0328 17:01:02.024397 31199 net.cpp:91] Creating Layer pool1
I0328 17:01:02.024416 31199 net.cpp:435] pool1 <- conv1
I0328 17:01:02.024427 31199 net.cpp:409] pool1 -> pool1
I0328 17:01:02.024483 31199 net.cpp:141] Setting up pool1
I0328 17:01:02.024495 31199 net.cpp:148] Top shape: 500 20 12 12 (1440000)
I0328 17:01:02.024499 31199 net.cpp:156] Memory required for data: 30374000
I0328 17:01:02.024504 31199 layer_factory.hpp:77] Creating layer conv2
I0328 17:01:02.024524 31199 net.cpp:91] Creating Layer conv2
I0328 17:01:02.024529 31199 net.cpp:435] conv2 <- pool1
I0328 17:01:02.024536 31199 net.cpp:409] conv2 -> conv2
I0328 17:01:02.026327 31199 net.cpp:141] Setting up conv2
I0328 17:01:02.026347 31199 net.cpp:148] Top shape: 500 50 8 8 (1600000)
I0328 17:01:02.026352 31199 net.cpp:156] Memory required for data: 36774000
I0328 17:01:02.026363 31199 layer_factory.hpp:77] Creating layer pool2
I0328 17:01:02.026372 31199 net.cpp:91] Creating Layer pool2
I0328 17:01:02.026387 31199 net.cpp:435] pool2 <- conv2
I0328 17:01:02.026394 31199 net.cpp:409] pool2 -> pool2
I0328 17:01:02.026440 31199 net.cpp:141] Setting up pool2
I0328 17:01:02.026448 31199 net.cpp:148] Top shape: 500 50 4 4 (400000)
I0328 17:01:02.026463 31199 net.cpp:156] Memory required for data: 38374000
I0328 17:01:02.026470 31199 layer_factory.hpp:77] Creating layer ip1
I0328 17:01:02.026479 31199 net.cpp:91] Creating Layer ip1
I0328 17:01:02.026492 31199 net.cpp:435] ip1 <- pool2
I0328 17:01:02.026499 31199 net.cpp:409] ip1 -> ip1
I0328 17:01:02.031224 31199 net.cpp:141] Setting up ip1
I0328 17:01:02.031255 31199 net.cpp:148] Top shape: 500 500 (250000)
I0328 17:01:02.031260 31199 net.cpp:156] Memory required for data: 39374000
I0328 17:01:02.031280 31199 layer_factory.hpp:77] Creating layer relu1
I0328 17:01:02.031288 31199 net.cpp:91] Creating Layer relu1
I0328 17:01:02.031291 31199 net.cpp:435] relu1 <- ip1
I0328 17:01:02.031297 31199 net.cpp:396] relu1 -> ip1 (in-place)
I0328 17:01:02.032217 31199 net.cpp:141] Setting up relu1
I0328 17:01:02.032229 31199 net.cpp:148] Top shape: 500 500 (250000)
I0328 17:01:02.032243 31199 net.cpp:156] Memory required for data: 40374000
I0328 17:01:02.032246 31199 layer_factory.hpp:77] Creating layer ip2
I0328 17:01:02.032254 31199 net.cpp:91] Creating Layer ip2
I0328 17:01:02.032258 31199 net.cpp:435] ip2 <- ip1
I0328 17:01:02.032263 31199 net.cpp:409] ip2 -> ip2
I0328 17:01:02.032395 31199 net.cpp:141] Setting up ip2
I0328 17:01:02.032402 31199 net.cpp:148] Top shape: 500 10 (5000)
I0328 17:01:02.032404 31199 net.cpp:156] Memory required for data: 40394000
I0328 17:01:02.032419 31199 layer_factory.hpp:77] Creating layer ip2_ip2_0_split
I0328 17:01:02.032424 31199 net.cpp:91] Creating Layer ip2_ip2_0_split
I0328 17:01:02.032426 31199 net.cpp:435] ip2_ip2_0_split <- ip2
I0328 17:01:02.032430 31199 net.cpp:409] ip2_ip2_0_split -> ip2_ip2_0_split_0
I0328 17:01:02.032435 31199 net.cpp:409] ip2_ip2_0_split -> ip2_ip2_0_split_1
I0328 17:01:02.032460 31199 net.cpp:141] Setting up ip2_ip2_0_split
I0328 17:01:02.032464 31199 net.cpp:148] Top shape: 500 10 (5000)
I0328 17:01:02.032476 31199 net.cpp:148] Top shape: 500 10 (5000)
I0328 17:01:02.032479 31199 net.cpp:156] Memory required for data: 40434000
I0328 17:01:02.032481 31199 layer_factory.hpp:77] Creating layer accuracy
I0328 17:01:02.032495 31199 net.cpp:91] Creating Layer accuracy
I0328 17:01:02.032498 31199 net.cpp:435] accuracy <- ip2_ip2_0_split_0
I0328 17:01:02.032502 31199 net.cpp:435] accuracy <- label_mnist_1_split_0
I0328 17:01:02.032506 31199 net.cpp:409] accuracy -> accuracy
…
