…
I0325 10:22:59.691880 26222 net.cpp:323] The NetState phase (0) differed from the phase (1) specified by a rule in layer mnist
I0325 10:22:59.691893 26222 net.cpp:323] The NetState phase (0) differed from the phase (1) specified by a rule in layer accuracy
I0325 10:22:59.691987 26222 net.cpp:49] Initializing net from parameters: 
name: "LeNet"
state {
  phase: TRAIN
}
layer {
  name: "mnist"
  type: "Data"
  top: "data"
  top: "label"
  include {
    phase: TRAIN
  }
  transform_param {
    scale: 0.00390625
  }
  data_param {
    source: "/home/nikoong/Algorithm_test/handwritting/data/lmdb/newfour/train_withnewfour_lmdb"
    batch_size: 20000
    backend: LMDB
  }
}
layer {
  name: "conv1"
  type: "Convolution"
  bottom: "data"
  top: "conv1"
  param {
    lr_mult: 1
  }
  param {
    lr_mult: 2
  }
  convolution_param {
    num_output: 20
    kernel_size: 5
    stride: 1
    weight_filler {
      type: "xavier"
    }
    bias_filler {
      type: "constant"
    }
  }
}
layer {
  name: "pool1"
  type: "Pooling"
  bottom: "conv1"
  top: "pool1"
  pooling_param {
    pool: MAX
    kernel_size: 2
    stride: 2
  }
}
layer {
  name: "conv2"
  type: "Convolution"
  bottom: "pool1"
  top: "conv2"
  param {
    lr_mult: 1
  }
  param {
    lr_mult: 2
  }
  convolution_param {
    num_output: 50
    kernel_size: 5
    stride: 1
    weight_filler {
      type: "xavier"
    }
    bias_filler {
      type: "constant"
    }
  }
}
layer {
  name: "pool2"
  type: "Pooling"
  bottom: "conv2"
  top: "pool2"
  pooling_param {
    pool: MAX
    kernel_size: 2
    stride: 2
  }
}
layer {
  name: "ip1"
  type: "InnerProduct"
  bottom: "pool2"
  top: "ip1"
  param {
    lr_mult: 1
  }
  param {
    lr_mult: 2
  }
  inner_product_param {
    num_output: 500
    weight_filler {
      type: "xavier"
    }
    bias_filler {
      type: "constant"
    }
  }
}
layer {
  name: "relu1"
  type: "ReLU"
  bottom: "ip1"
  top: "ip1"
}
layer {
  name: "ip2"
  type: "InnerProduct"
  bottom: "ip1"
  top: "ip2"
  param {
    lr_mult: 1
  }
  param {
    lr_mult: 2
  }
  inner_product_param {
    num_output: 10
    weight_filler {
      type: "xavier"
    }
    bias_filler {
      type: "constant"
    }
  }
}
layer {
  name: "loss"
  type: "SoftmaxWithLoss"
  bottom: "ip2"
  bottom: "label"
  top: "loss"
}
I0325 10:22:59.692070 26222 layer_factory.hpp:77] Creating layer mnist
I0325 10:22:59.700135 26222 net.cpp:91] Creating Layer mnist
I0325 10:22:59.700165 26222 net.cpp:409] mnist -> data
I0325 10:22:59.700215 26222 net.cpp:409] mnist -> label
I0325 10:22:59.700964 26229 db_lmdb.cpp:40] Opened lmdb /home/nikoong/Algorithm_test/handwritting/data/lmdb/newfour/train_withnewfour_lmdb
I0325 10:22:59.739326 26222 data_layer.cpp:41] output data size: 20000,1,28,28
I0325 10:22:59.909219 26222 net.cpp:141] Setting up mnist
I0325 10:22:59.909260 26222 net.cpp:148] Top shape: 20000 1 28 28 (15680000)
I0325 10:22:59.909265 26222 net.cpp:148] Top shape: 20000 (20000)
I0325 10:22:59.909277 26222 net.cpp:156] Memory required for data: 62800000
I0325 10:22:59.909286 26222 layer_factory.hpp:77] Creating layer conv1
I0325 10:22:59.909309 26222 net.cpp:91] Creating Layer conv1
I0325 10:22:59.909315 26222 net.cpp:435] conv1 <- data
I0325 10:22:59.909334 26222 net.cpp:409] conv1 -> conv1
I0325 10:23:00.424384 26222 net.cpp:141] Setting up conv1
I0325 10:23:00.424420 26222 net.cpp:148] Top shape: 20000 20 24 24 (230400000)
I0325 10:23:00.424424 26222 net.cpp:156] Memory required for data: 984400000
I0325 10:23:00.424459 26222 layer_factory.hpp:77] Creating layer pool1
I0325 10:23:00.424474 26222 net.cpp:91] Creating Layer pool1
I0325 10:23:00.424477 26222 net.cpp:435] pool1 <- conv1
I0325 10:23:00.424482 26222 net.cpp:409] pool1 -> pool1
I0325 10:23:00.424532 26222 net.cpp:141] Setting up pool1
I0325 10:23:00.424537 26222 net.cpp:148] Top shape: 20000 20 12 12 (57600000)
I0325 10:23:00.424549 26222 net.cpp:156] Memory required for data: 1214800000
I0325 10:23:00.424552 26222 layer_factory.hpp:77] Creating layer conv2
I0325 10:23:00.424562 26222 net.cpp:91] Creating Layer conv2
I0325 10:23:00.424564 26222 net.cpp:435] conv2 <- pool1
I0325 10:23:00.424569 26222 net.cpp:409] conv2 -> conv2
I0325 10:23:00.429425 26222 net.cpp:141] Setting up conv2
I0325 10:23:00.429458 26222 net.cpp:148] Top shape: 20000 50 8 8 (64000000)
I0325 10:23:00.429461 26222 net.cpp:156] Memory required for data: 1470800000
I0325 10:23:00.429473 26222 layer_factory.hpp:77] Creating layer pool2
I0325 10:23:00.429484 26222 net.cpp:91] Creating Layer pool2
I0325 10:23:00.429488 26222 net.cpp:435] pool2 <- conv2
I0325 10:23:00.429494 26222 net.cpp:409] pool2 -> pool2
I0325 10:23:00.429545 26222 net.cpp:141] Setting up pool2
I0325 10:23:00.429551 26222 net.cpp:148] Top shape: 20000 50 4 4 (16000000)
I0325 10:23:00.429563 26222 net.cpp:156] Memory required for data: 1534800000
I0325 10:23:00.429565 26222 layer_factory.hpp:77] Creating layer ip1
I0325 10:23:00.429571 26222 net.cpp:91] Creating Layer ip1
I0325 10:23:00.429574 26222 net.cpp:435] ip1 <- pool2
I0325 10:23:00.429579 26222 net.cpp:409] ip1 -> ip1
I0325 10:23:00.436638 26222 net.cpp:141] Setting up ip1
I0325 10:23:00.436664 26222 net.cpp:148] Top shape: 20000 500 (10000000)
I0325 10:23:00.436668 26222 net.cpp:156] Memory required for data: 1574800000
I0325 10:23:00.436678 26222 layer_factory.hpp:77] Creating layer relu1
I0325 10:23:00.436686 26222 net.cpp:91] Creating Layer relu1
I0325 10:23:00.436691 26222 net.cpp:435] relu1 <- ip1
I0325 10:23:00.436694 26222 net.cpp:396] relu1 -> ip1 (in-place)
I0325 10:23:00.436898 26222 net.cpp:141] Setting up relu1
I0325 10:23:00.436918 26222 net.cpp:148] Top shape: 20000 500 (10000000)
I0325 10:23:00.436921 26222 net.cpp:156] Memory required for data: 1614800000
I0325 10:23:00.436923 26222 layer_factory.hpp:77] Creating layer ip2
I0325 10:23:00.436929 26222 net.cpp:91] Creating Layer ip2
I0325 10:23:00.436933 26222 net.cpp:435] ip2 <- ip1
I0325 10:23:00.436936 26222 net.cpp:409] ip2 -> ip2
I0325 10:23:00.441432 26222 net.cpp:141] Setting up ip2
I0325 10:23:00.441447 26222 net.cpp:148] Top shape: 20000 10 (200000)
I0325 10:23:00.441450 26222 net.cpp:156] Memory required for data: 1615600000
I0325 10:23:00.441458 26222 layer_factory.hpp:77] Creating layer loss
I0325 10:23:00.441480 26222 net.cpp:91] Creating Layer loss
I0325 10:23:00.441484 26222 net.cpp:435] loss <- ip2
I0325 10:23:00.441489 26222 net.cpp:435] loss <- label
I0325 10:23:00.441494 26222 net.cpp:409] loss -> loss
I0325 10:23:00.441510 26222 layer_factory.hpp:77] Creating layer loss
…
I0325 10:23:00.442056 26222 solver.cpp:181] Creating test net (#0) specified by net file: /home/nikoong/Algorithm_test/handwritting/lenet/lenet_lmdb.prototxt
I0325 10:23:00.442077 26222 net.cpp:323] The NetState phase (1) differed from the phase (0) specified by a rule in layer mnist
I0325 10:23:00.442184 26222 net.cpp:49] Initializing net from parameters: 
name: "LeNet"
state {
  phase: TEST
}
layer {
  name: "mnist"
  type: "Data"
  top: "data"
  top: "label"
  include {
    phase: TEST
  }
  transform_param {
    scale: 0.00390625
  }
  data_param {
    source: "/home/nikoong/Algorithm_test/handwritting/data/lmdb/newfour/val_withnewfour_lmdb"
    batch_size: 500
    backend: LMDB
  }
}
layer {
  name: "conv1"
  type: "Convolution"
  bottom: "data"
  top: "conv1"
  param {
    lr_mult: 1
  }
  param {
    lr_mult: 2
  }
  convolution_param {
    num_output: 20
    kernel_size: 5
    stride: 1
    weight_filler {
      type: "xavier"
    }
    bias_filler {
      type: "constant"
    }
  }
}
layer {
  name: "pool1"
  type: "Pooling"
  bottom: "conv1"
  top: "pool1"
  pooling_param {
    pool: MAX
    kernel_size: 2
    stride: 2
  }
}
layer {
  name: "conv2"
  type: "Convolution"
  bottom: "pool1"
  top: "conv2"
  param {
    lr_mult: 1
  }
  param {
    lr_mult: 2
  }
  convolution_param {
    num_output: 50
    kernel_size: 5
    stride: 1
    weight_filler {
      type: "xavier"
    }
    bias_filler {
      type: "constant"
    }
  }
}
layer {
  name: "pool2"
  type: "Pooling"
  bottom: "conv2"
  top: "pool2"
  pooling_param {
    pool: MAX
    kernel_size: 2
    stride: 2
  }
}
layer {
  name: "ip1"
  type: "InnerProduct"
  bottom: "pool2"
  top: "ip1"
  param {
    lr_mult: 1
  }
  param {
    lr_mult: 2
  }
  inner_product_param {
    num_output: 500
    weight_filler {
      type: "xavier"
    }
    bias_filler {
      type: "constant"
    }
  }
}
layer {
  name: "relu1"
  type: "ReLU"
  bottom: "ip1"
  top: "ip1"
}
layer {
  name: "ip2"
  type: "InnerProduct"
  bottom: "ip1"
  top: "ip2"
  param {
    lr_mult: 1
  }
  param {
    lr_mult: 2
  }
  inner_product_param {
    num_output: 10
    weight_filler {
      type: "xavier"
    }
    bias_filler {
      type: "constant"
    }
  }
}
layer {
  name: "accuracy"
  type: "Accuracy"
  bottom: "ip2"
  bottom: "label"
  top: "accuracy"
  include {
    phase: TEST
  }
}
layer {
  name: "loss"
  type: "SoftmaxWithLoss"
  bottom: "ip2"
  bottom: "label"
  top: "loss"
}
I0325 10:23:00.442242 26222 layer_factory.hpp:77] Creating layer mnist
I0325 10:23:00.442478 26222 net.cpp:91] Creating Layer mnist
I0325 10:23:00.442486 26222 net.cpp:409] mnist -> data
I0325 10:23:00.442492 26222 net.cpp:409] mnist -> label
I0325 10:23:00.443397 26231 db_lmdb.cpp:40] Opened lmdb /home/nikoong/Algorithm_test/handwritting/data/lmdb/newfour/val_withnewfour_lmdb
I0325 10:23:00.443512 26222 data_layer.cpp:41] output data size: 500,1,28,28
I0325 10:23:00.467916 26222 net.cpp:141] Setting up mnist
I0325 10:23:00.467947 26222 net.cpp:148] Top shape: 500 1 28 28 (392000)
I0325 10:23:00.467952 26222 net.cpp:148] Top shape: 500 (500)
I0325 10:23:00.467955 26222 net.cpp:156] Memory required for data: 1570000
I0325 10:23:00.467960 26222 layer_factory.hpp:77] Creating layer label_mnist_1_split
I0325 10:23:00.467980 26222 net.cpp:91] Creating Layer label_mnist_1_split
I0325 10:23:00.467984 26222 net.cpp:435] label_mnist_1_split <- label
I0325 10:23:00.467989 26222 net.cpp:409] label_mnist_1_split -> label_mnist_1_split_0
I0325 10:23:00.468003 26222 net.cpp:409] label_mnist_1_split -> label_mnist_1_split_1
I0325 10:23:00.468077 26222 net.cpp:141] Setting up label_mnist_1_split
I0325 10:23:00.468083 26222 net.cpp:148] Top shape: 500 (500)
I0325 10:23:00.468096 26222 net.cpp:148] Top shape: 500 (500)
I0325 10:23:00.468098 26222 net.cpp:156] Memory required for data: 1574000
I0325 10:23:00.468101 26222 layer_factory.hpp:77] Creating layer conv1
I0325 10:23:00.468122 26222 net.cpp:91] Creating Layer conv1
I0325 10:23:00.468135 26222 net.cpp:435] conv1 <- data
I0325 10:23:00.468142 26222 net.cpp:409] conv1 -> conv1
I0325 10:23:00.470206 26222 net.cpp:141] Setting up conv1
I0325 10:23:00.470218 26222 net.cpp:148] Top shape: 500 20 24 24 (5760000)
I0325 10:23:00.470233 26222 net.cpp:156] Memory required for data: 24614000
I0325 10:23:00.470242 26222 layer_factory.hpp:77] Creating layer pool1
I0325 10:23:00.470252 26222 net.cpp:91] Creating Layer pool1
I0325 10:23:00.470254 26222 net.cpp:435] pool1 <- conv1
I0325 10:23:00.470258 26222 net.cpp:409] pool1 -> pool1
I0325 10:23:00.470288 26222 net.cpp:141] Setting up pool1
I0325 10:23:00.470293 26222 net.cpp:148] Top shape: 500 20 12 12 (1440000)
I0325 10:23:00.470296 26222 net.cpp:156] Memory required for data: 30374000
I0325 10:23:00.470299 26222 layer_factory.hpp:77] Creating layer conv2
I0325 10:23:00.470306 26222 net.cpp:91] Creating Layer conv2
I0325 10:23:00.470309 26222 net.cpp:435] conv2 <- pool1
I0325 10:23:00.470314 26222 net.cpp:409] conv2 -> conv2
I0325 10:23:00.471457 26222 net.cpp:141] Setting up conv2
I0325 10:23:00.471469 26222 net.cpp:148] Top shape: 500 50 8 8 (1600000)
I0325 10:23:00.471482 26222 net.cpp:156] Memory required for data: 36774000
I0325 10:23:00.471489 26222 layer_factory.hpp:77] Creating layer pool2
I0325 10:23:00.471495 26222 net.cpp:91] Creating Layer pool2
I0325 10:23:00.471498 26222 net.cpp:435] pool2 <- conv2
I0325 10:23:00.471511 26222 net.cpp:409] pool2 -> pool2
I0325 10:23:00.471549 26222 net.cpp:141] Setting up pool2
I0325 10:23:00.471556 26222 net.cpp:148] Top shape: 500 50 4 4 (400000)
I0325 10:23:00.471559 26222 net.cpp:156] Memory required for data: 38374000
I0325 10:23:00.471576 26222 layer_factory.hpp:77] Creating layer ip1
I0325 10:23:00.471585 26222 net.cpp:91] Creating Layer ip1
I0325 10:23:00.471597 26222 net.cpp:435] ip1 <- pool2
I0325 10:23:00.471602 26222 net.cpp:409] ip1 -> ip1
I0325 10:23:00.474984 26222 net.cpp:141] Setting up ip1
I0325 10:23:00.475011 26222 net.cpp:148] Top shape: 500 500 (250000)
I0325 10:23:00.475015 26222 net.cpp:156] Memory required for data: 39374000
I0325 10:23:00.475024 26222 layer_factory.hpp:77] Creating layer relu1
I0325 10:23:00.475030 26222 net.cpp:91] Creating Layer relu1
I0325 10:23:00.475033 26222 net.cpp:435] relu1 <- ip1
I0325 10:23:00.475039 26222 net.cpp:396] relu1 -> ip1 (in-place)
I0325 10:23:00.475626 26222 net.cpp:141] Setting up relu1
I0325 10:23:00.475637 26222 net.cpp:148] Top shape: 500 500 (250000)
I0325 10:23:00.475651 26222 net.cpp:156] Memory required for data: 40374000
I0325 10:23:00.475653 26222 layer_factory.hpp:77] Creating layer ip2
I0325 10:23:00.475661 26222 net.cpp:91] Creating Layer ip2
I0325 10:23:00.475666 26222 net.cpp:435] ip2 <- ip1
I0325 10:23:00.475679 26222 net.cpp:409] ip2 -> ip2
I0325 10:23:00.475813 26222 net.cpp:141] Setting up ip2
I0325 10:23:00.475821 26222 net.cpp:148] Top shape: 500 10 (5000)
I0325 10:23:00.475833 26222 net.cpp:156] Memory required for data: 40394000
I0325 10:23:00.475841 26222 layer_factory.hpp:77] Creating layer ip2_ip2_0_split
I0325 10:23:00.475845 26222 net.cpp:91] Creating Layer ip2_ip2_0_split
I0325 10:23:00.475848 26222 net.cpp:435] ip2_ip2_0_split <- ip2
I0325 10:23:00.475857 26222 net.cpp:409] ip2_ip2_0_split -> ip2_ip2_0_split_0
I0325 10:23:00.475864 26222 net.cpp:409] ip2_ip2_0_split -> ip2_ip2_0_split_1
I0325 10:23:00.475893 26222 net.cpp:141] Setting up ip2_ip2_0_split
I0325 10:23:00.475908 26222 net.cpp:148] Top shape: 500 10 (5000)
I0325 10:23:00.475910 26222 net.cpp:148] Top shape: 500 10 (5000)
I0325 10:23:00.475924 26222 net.cpp:156] Memory required for data: 40434000
I0325 10:23:00.475930 26222 layer_factory.hpp:77] Creating layer accuracy
I0325 10:23:00.475937 26222 net.cpp:91] Creating Layer accuracy
I0325 10:23:00.475939 26222 net.cpp:435] accuracy <- ip2_ip2_0_split_0
I0325 10:23:00.475944 26222 net.cpp:435] accuracy <- label_mnist_1_split_0
I0325 10:23:00.475946 26222 net.cpp:409] accuracy -> accuracy
…
