…
I0314 21:28:44.481375  6332 net.cpp:323] The NetState phase (0) differed from the phase (1) specified by a rule in layer accuracy
I0314 21:28:44.481469  6332 net.cpp:49] Initializing net from parameters: 
state {
  phase: TRAIN
}
layer {
  name: "data"
  type: "ImageData"
  top: "data"
  top: "label"
  include {
    phase: TRAIN
  }
  image_data_param {
    source: "/home/nikoong/Algorithm_test/handwritting/data_crop/txt/data2_28*28.txt"
    scale: 0.00390625
    batch_size: 5000
    shuffle: true
    new_height: 28
    new_width: 28
    is_color: false
  }
}
layer {
  name: "conv1"
  type: "Convolution"
  bottom: "data"
  top: "conv1"
  param {
    lr_mult: 1
  }
  param {
    lr_mult: 2
  }
  convolution_param {
    num_output: 20
    kernel_size: 5
    stride: 1
    weight_filler {
      type: "xavier"
    }
    bias_filler {
      type: "constant"
    }
  }
}
layer {
  name: "pool1"
  type: "Pooling"
  bottom: "conv1"
  top: "pool1"
  pooling_param {
    pool: MAX
    kernel_size: 2
    stride: 2
  }
}
layer {
  name: "conv2"
  type: "Convolution"
  bottom: "pool1"
  top: "conv2"
  param {
    lr_mult: 1
  }
  param {
    lr_mult: 2
  }
  convolution_param {
    num_output: 50
    kernel_size: 5
    stride: 1
    weight_filler {
      type: "xavier"
    }
    bias_filler {
      type: "constant"
    }
  }
}
layer {
  name: "pool2"
  type: "Pooling"
  bottom: "conv2"
  top: "pool2"
  pooling_param {
    pool: MAX
    kernel_size: 2
    stride: 2
  }
}
layer {
  name: "ip1"
  type: "InnerProduct"
  bottom: "pool2"
  top: "ip1"
  param {
    lr_mult: 1
  }
  param {
    lr_mult: 2
  }
  inner_product_param {
    num_output: 500
    weight_filler {
      type: "xavier"
    }
    bias_filler {
      type: "constant"
    }
  }
}
layer {
  name: "relu1"
  type: "ReLU"
  bottom: "ip1"
  top: "ip1"
}
layer {
  name: "ip2"
  type: "InnerProduct"
  bottom: "ip1"
  top: "ip2"
  param {
    lr_mult: 1
  }
  param {
    lr_mult: 2
  }
  inner_product_param {
    num_output: 10
    weight_filler {
      type: "xavier"
    }
    bias_filler {
      type: "constant"
    }
  }
}
layer {
  name: "loss"
  type: "SoftmaxWithLoss"
  bottom: "ip2"
  bottom: "label"
  top: "loss"
}
I0314 21:28:44.481521  6332 layer_factory.hpp:77] Creating layer data
I0314 21:28:44.481551  6332 net.cpp:91] Creating Layer data
I0314 21:28:44.481556  6332 net.cpp:409] data -> data
I0314 21:28:44.481586  6332 net.cpp:409] data -> label
I0314 21:28:44.481618  6332 image_data_layer.cpp:37] Opening file /home/nikoong/Algorithm_test/handwritting/data_crop/txt/data2_28*28.txt
I0314 21:28:44.507961  6332 image_data_layer.cpp:47] Shuffling data
I0314 21:28:44.523615  6332 image_data_layer.cpp:52] A total of 88301 images.
I0314 21:28:44.643496  6332 image_data_layer.cpp:79] output data size: 5000,1,28,28
I0314 21:28:44.689127  6332 net.cpp:141] Setting up data
I0314 21:28:44.689172  6332 net.cpp:148] Top shape: 5000 1 28 28 (3920000)
I0314 21:28:44.689177  6332 net.cpp:148] Top shape: 5000 (5000)
I0314 21:28:44.689189  6332 net.cpp:156] Memory required for data: 15700000
I0314 21:28:44.689196  6332 layer_factory.hpp:77] Creating layer conv1
I0314 21:28:44.689219  6332 net.cpp:91] Creating Layer conv1
I0314 21:28:44.689224  6332 net.cpp:435] conv1 <- data
I0314 21:28:44.689234  6332 net.cpp:409] conv1 -> conv1
I0314 21:28:45.052249  6332 net.cpp:141] Setting up conv1
I0314 21:28:45.052281  6332 net.cpp:148] Top shape: 5000 20 24 24 (57600000)
I0314 21:28:45.052285  6332 net.cpp:156] Memory required for data: 246100000
I0314 21:28:45.052312  6332 layer_factory.hpp:77] Creating layer pool1
I0314 21:28:45.052326  6332 net.cpp:91] Creating Layer pool1
I0314 21:28:45.052330  6332 net.cpp:435] pool1 <- conv1
I0314 21:28:45.052335  6332 net.cpp:409] pool1 -> pool1
I0314 21:28:45.052392  6332 net.cpp:141] Setting up pool1
I0314 21:28:45.052398  6332 net.cpp:148] Top shape: 5000 20 12 12 (14400000)
I0314 21:28:45.052410  6332 net.cpp:156] Memory required for data: 303700000
I0314 21:28:45.052414  6332 layer_factory.hpp:77] Creating layer conv2
I0314 21:28:45.052423  6332 net.cpp:91] Creating Layer conv2
I0314 21:28:45.052436  6332 net.cpp:435] conv2 <- pool1
I0314 21:28:45.052441  6332 net.cpp:409] conv2 -> conv2
I0314 21:28:45.054826  6332 net.cpp:141] Setting up conv2
I0314 21:28:45.054849  6332 net.cpp:148] Top shape: 5000 50 8 8 (16000000)
I0314 21:28:45.054852  6332 net.cpp:156] Memory required for data: 367700000
I0314 21:28:45.054862  6332 layer_factory.hpp:77] Creating layer pool2
I0314 21:28:45.054877  6332 net.cpp:91] Creating Layer pool2
I0314 21:28:45.054883  6332 net.cpp:435] pool2 <- conv2
I0314 21:28:45.054893  6332 net.cpp:409] pool2 -> pool2
I0314 21:28:45.054934  6332 net.cpp:141] Setting up pool2
I0314 21:28:45.054949  6332 net.cpp:148] Top shape: 5000 50 4 4 (4000000)
I0314 21:28:45.054951  6332 net.cpp:156] Memory required for data: 383700000
I0314 21:28:45.054963  6332 layer_factory.hpp:77] Creating layer ip1
I0314 21:28:45.054970  6332 net.cpp:91] Creating Layer ip1
I0314 21:28:45.054972  6332 net.cpp:435] ip1 <- pool2
I0314 21:28:45.054976  6332 net.cpp:409] ip1 -> ip1
I0314 21:28:45.058495  6332 net.cpp:141] Setting up ip1
I0314 21:28:45.058517  6332 net.cpp:148] Top shape: 5000 500 (2500000)
I0314 21:28:45.058521  6332 net.cpp:156] Memory required for data: 393700000
I0314 21:28:45.058528  6332 layer_factory.hpp:77] Creating layer relu1
I0314 21:28:45.058545  6332 net.cpp:91] Creating Layer relu1
I0314 21:28:45.058548  6332 net.cpp:435] relu1 <- ip1
I0314 21:28:45.058553  6332 net.cpp:396] relu1 -> ip1 (in-place)
I0314 21:28:45.058717  6332 net.cpp:141] Setting up relu1
I0314 21:28:45.058724  6332 net.cpp:148] Top shape: 5000 500 (2500000)
I0314 21:28:45.058737  6332 net.cpp:156] Memory required for data: 403700000
I0314 21:28:45.058739  6332 layer_factory.hpp:77] Creating layer ip2
I0314 21:28:45.058745  6332 net.cpp:91] Creating Layer ip2
I0314 21:28:45.058748  6332 net.cpp:435] ip2 <- ip1
I0314 21:28:45.058763  6332 net.cpp:409] ip2 -> ip2
I0314 21:28:45.058893  6332 net.cpp:141] Setting up ip2
I0314 21:28:45.058899  6332 net.cpp:148] Top shape: 5000 10 (50000)
I0314 21:28:45.058912  6332 net.cpp:156] Memory required for data: 403900000
I0314 21:28:45.058917  6332 layer_factory.hpp:77] Creating layer loss
I0314 21:28:45.058923  6332 net.cpp:91] Creating Layer loss
I0314 21:28:45.058924  6332 net.cpp:435] loss <- ip2
I0314 21:28:45.058938  6332 net.cpp:435] loss <- label
I0314 21:28:45.058943  6332 net.cpp:409] loss -> loss
I0314 21:28:45.058954  6332 layer_factory.hpp:77] Creating layer loss
…
I0314 21:28:45.059484  6332 solver.cpp:181] Creating test net (#0) specified by net file: /home/nikoong/Algorithm_test/handwritting/lenet/lenet_my.prototxt
I0314 21:28:45.059522  6332 net.cpp:323] The NetState phase (1) differed from the phase (0) specified by a rule in layer data
I0314 21:28:45.059631  6332 net.cpp:49] Initializing net from parameters: 
state {
  phase: TEST
}
layer {
  name: "data"
  type: "ImageData"
  top: "data"
  top: "label"
  include {
    phase: TEST
  }
  image_data_param {
    source: "/home/nikoong/Algorithm_test/handwritting/data_crop/txt/data1_28*28.txt"
    batch_size: 100
    new_height: 28
    new_width: 28
    is_color: false
  }
}
layer {
  name: "conv1"
  type: "Convolution"
  bottom: "data"
  top: "conv1"
  param {
    lr_mult: 1
  }
  param {
    lr_mult: 2
  }
  convolution_param {
    num_output: 20
    kernel_size: 5
    stride: 1
    weight_filler {
      type: "xavier"
    }
    bias_filler {
      type: "constant"
    }
  }
}
layer {
  name: "pool1"
  type: "Pooling"
  bottom: "conv1"
  top: "pool1"
  pooling_param {
    pool: MAX
    kernel_size: 2
    stride: 2
  }
}
layer {
  name: "conv2"
  type: "Convolution"
  bottom: "pool1"
  top: "conv2"
  param {
    lr_mult: 1
  }
  param {
    lr_mult: 2
  }
  convolution_param {
    num_output: 50
    kernel_size: 5
    stride: 1
    weight_filler {
      type: "xavier"
    }
    bias_filler {
      type: "constant"
    }
  }
}
layer {
  name: "pool2"
  type: "Pooling"
  bottom: "conv2"
  top: "pool2"
  pooling_param {
    pool: MAX
    kernel_size: 2
    stride: 2
  }
}
layer {
  name: "ip1"
  type: "InnerProduct"
  bottom: "pool2"
  top: "ip1"
  param {
    lr_mult: 1
  }
  param {
    lr_mult: 2
  }
  inner_product_param {
    num_output: 500
    weight_filler {
      type: "xavier"
    }
    bias_filler {
      type: "constant"
    }
  }
}
layer {
  name: "relu1"
  type: "ReLU"
  bottom: "ip1"
  top: "ip1"
}
layer {
  name: "ip2"
  type: "InnerProduct"
  bottom: "ip1"
  top: "ip2"
  param {
    lr_mult: 1
  }
  param {
    lr_mult: 2
  }
  inner_product_param {
    num_output: 10
    weight_filler {
      type: "xavier"
    }
    bias_filler {
      type: "constant"
    }
  }
}
layer {
  name: "accuracy"
  type: "Accuracy"
  bottom: "ip2"
  bottom: "label"
  top: "accuracy"
  include {
    phase: TEST
  }
}
layer {
  name: "loss"
  type: "SoftmaxWithLoss"
  bottom: "ip2"
  bottom: "label"
  top: "loss"
}
I0314 21:28:45.059700  6332 layer_factory.hpp:77] Creating layer data
I0314 21:28:45.059710  6332 net.cpp:91] Creating Layer data
I0314 21:28:45.059715  6332 net.cpp:409] data -> data
I0314 21:28:45.059721  6332 net.cpp:409] data -> label
I0314 21:28:45.059727  6332 image_data_layer.cpp:37] Opening file /home/nikoong/Algorithm_test/handwritting/data_crop/txt/data1_28*28.txt
I0314 21:28:45.062943  6332 image_data_layer.cpp:52] A total of 11430 images.
I0314 21:28:45.063107  6332 image_data_layer.cpp:79] output data size: 100,1,28,28
I0314 21:28:45.064925  6332 net.cpp:141] Setting up data
I0314 21:28:45.064951  6332 net.cpp:148] Top shape: 100 1 28 28 (78400)
I0314 21:28:45.064955  6332 net.cpp:148] Top shape: 100 (100)
I0314 21:28:45.064959  6332 net.cpp:156] Memory required for data: 314000
I0314 21:28:45.064965  6332 layer_factory.hpp:77] Creating layer label_data_1_split
I0314 21:28:45.064973  6332 net.cpp:91] Creating Layer label_data_1_split
I0314 21:28:45.064977  6332 net.cpp:435] label_data_1_split <- label
I0314 21:28:45.064983  6332 net.cpp:409] label_data_1_split -> label_data_1_split_0
I0314 21:28:45.064991  6332 net.cpp:409] label_data_1_split -> label_data_1_split_1
I0314 21:28:45.065050  6332 net.cpp:141] Setting up label_data_1_split
I0314 21:28:45.065057  6332 net.cpp:148] Top shape: 100 (100)
I0314 21:28:45.065068  6332 net.cpp:148] Top shape: 100 (100)
I0314 21:28:45.065070  6332 net.cpp:156] Memory required for data: 314800
I0314 21:28:45.065094  6332 layer_factory.hpp:77] Creating layer conv1
I0314 21:28:45.065105  6332 net.cpp:91] Creating Layer conv1
I0314 21:28:45.065107  6332 net.cpp:435] conv1 <- data
I0314 21:28:45.065112  6332 net.cpp:409] conv1 -> conv1
I0314 21:28:45.067039  6332 net.cpp:141] Setting up conv1
I0314 21:28:45.067056  6332 net.cpp:148] Top shape: 100 20 24 24 (1152000)
I0314 21:28:45.067086  6332 net.cpp:156] Memory required for data: 4922800
I0314 21:28:45.067113  6332 layer_factory.hpp:77] Creating layer pool1
I0314 21:28:45.067131  6332 net.cpp:91] Creating Layer pool1
I0314 21:28:45.067136  6332 net.cpp:435] pool1 <- conv1
I0314 21:28:45.067158  6332 net.cpp:409] pool1 -> pool1
I0314 21:28:45.067193  6332 net.cpp:141] Setting up pool1
I0314 21:28:45.067198  6332 net.cpp:148] Top shape: 100 20 12 12 (288000)
I0314 21:28:45.067201  6332 net.cpp:156] Memory required for data: 6074800
I0314 21:28:45.067204  6332 layer_factory.hpp:77] Creating layer conv2
I0314 21:28:45.067214  6332 net.cpp:91] Creating Layer conv2
I0314 21:28:45.067217  6332 net.cpp:435] conv2 <- pool1
I0314 21:28:45.067222  6332 net.cpp:409] conv2 -> conv2
I0314 21:28:45.068579  6332 net.cpp:141] Setting up conv2
I0314 21:28:45.068591  6332 net.cpp:148] Top shape: 100 50 8 8 (320000)
I0314 21:28:45.068599  6332 net.cpp:156] Memory required for data: 7354800
I0314 21:28:45.068608  6332 layer_factory.hpp:77] Creating layer pool2
I0314 21:28:45.068614  6332 net.cpp:91] Creating Layer pool2
I0314 21:28:45.068617  6332 net.cpp:435] pool2 <- conv2
I0314 21:28:45.068621  6332 net.cpp:409] pool2 -> pool2
I0314 21:28:45.068652  6332 net.cpp:141] Setting up pool2
I0314 21:28:45.068665  6332 net.cpp:148] Top shape: 100 50 4 4 (80000)
I0314 21:28:45.068667  6332 net.cpp:156] Memory required for data: 7674800
I0314 21:28:45.068670  6332 layer_factory.hpp:77] Creating layer ip1
I0314 21:28:45.068677  6332 net.cpp:91] Creating Layer ip1
I0314 21:28:45.068680  6332 net.cpp:435] ip1 <- pool2
I0314 21:28:45.068684  6332 net.cpp:409] ip1 -> ip1
I0314 21:28:45.072343  6332 net.cpp:141] Setting up ip1
I0314 21:28:45.072367  6332 net.cpp:148] Top shape: 100 500 (50000)
I0314 21:28:45.072371  6332 net.cpp:156] Memory required for data: 7874800
I0314 21:28:45.072378  6332 layer_factory.hpp:77] Creating layer relu1
I0314 21:28:45.072384  6332 net.cpp:91] Creating Layer relu1
I0314 21:28:45.072388  6332 net.cpp:435] relu1 <- ip1
I0314 21:28:45.072392  6332 net.cpp:396] relu1 -> ip1 (in-place)
I0314 21:28:45.073091  6332 net.cpp:141] Setting up relu1
I0314 21:28:45.073102  6332 net.cpp:148] Top shape: 100 500 (50000)
I0314 21:28:45.073117  6332 net.cpp:156] Memory required for data: 8074800
I0314 21:28:45.073124  6332 layer_factory.hpp:77] Creating layer ip2
I0314 21:28:45.073137  6332 net.cpp:91] Creating Layer ip2
I0314 21:28:45.073142  6332 net.cpp:435] ip2 <- ip1
I0314 21:28:45.073146  6332 net.cpp:409] ip2 -> ip2
I0314 21:28:45.073281  6332 net.cpp:141] Setting up ip2
I0314 21:28:45.073287  6332 net.cpp:148] Top shape: 100 10 (1000)
I0314 21:28:45.073298  6332 net.cpp:156] Memory required for data: 8078800
I0314 21:28:45.073307  6332 layer_factory.hpp:77] Creating layer ip2_ip2_0_split
I0314 21:28:45.073310  6332 net.cpp:91] Creating Layer ip2_ip2_0_split
I0314 21:28:45.073313  6332 net.cpp:435] ip2_ip2_0_split <- ip2
I0314 21:28:45.073318  6332 net.cpp:409] ip2_ip2_0_split -> ip2_ip2_0_split_0
I0314 21:28:45.073323  6332 net.cpp:409] ip2_ip2_0_split -> ip2_ip2_0_split_1
I0314 21:28:45.073348  6332 net.cpp:141] Setting up ip2_ip2_0_split
I0314 21:28:45.073352  6332 net.cpp:148] Top shape: 100 10 (1000)
I0314 21:28:45.073355  6332 net.cpp:148] Top shape: 100 10 (1000)
I0314 21:28:45.073359  6332 net.cpp:156] Memory required for data: 8086800
I0314 21:28:45.073360  6332 layer_factory.hpp:77] Creating layer accuracy
I0314 21:28:45.073365  6332 net.cpp:91] Creating Layer accuracy
I0314 21:28:45.073367  6332 net.cpp:435] accuracy <- ip2_ip2_0_split_0
I0314 21:28:45.073371  6332 net.cpp:435] accuracy <- label_data_1_split_0
I0314 21:28:45.073387  6332 net.cpp:409] accuracy -> accuracy
…
