…
I0321 20:45:15.598009  6540 net.cpp:323] The NetState phase (0) differed from the phase (1) specified by a rule in layer mnist
I0321 20:45:15.598037  6540 net.cpp:323] The NetState phase (0) differed from the phase (1) specified by a rule in layer accuracy
I0321 20:45:15.598134  6540 net.cpp:49] Initializing net from parameters: 
name: "LeNet"
state {
  phase: TRAIN
}
layer {
  name: "mnist"
  type: "Data"
  top: "data"
  top: "label"
  include {
    phase: TRAIN
  }
  transform_param {
    scale: 0.00390625
  }
  data_param {
    source: "/home/nikoong/Algorithm_test/handwritting/data/lmdb/finish/balance_train_lmdb"
    batch_size: 20000
    backend: LMDB
  }
}
layer {
  name: "conv1"
  type: "Convolution"
  bottom: "data"
  top: "conv1"
  param {
    lr_mult: 1
  }
  param {
    lr_mult: 2
  }
  convolution_param {
    num_output: 20
    kernel_size: 5
    stride: 1
    weight_filler {
      type: "xavier"
    }
    bias_filler {
      type: "constant"
    }
  }
}
layer {
  name: "pool1"
  type: "Pooling"
  bottom: "conv1"
  top: "pool1"
  pooling_param {
    pool: MAX
    kernel_size: 2
    stride: 2
  }
}
layer {
  name: "conv2"
  type: "Convolution"
  bottom: "pool1"
  top: "conv2"
  param {
    lr_mult: 1
  }
  param {
    lr_mult: 2
  }
  convolution_param {
    num_output: 50
    kernel_size: 5
    stride: 1
    weight_filler {
      type: "xavier"
    }
    bias_filler {
      type: "constant"
    }
  }
}
layer {
  name: "pool2"
  type: "Pooling"
  bottom: "conv2"
  top: "pool2"
  pooling_param {
    pool: MAX
    kernel_size: 2
    stride: 2
  }
}
layer {
  name: "ip1"
  type: "InnerProduct"
  bottom: "pool2"
  top: "ip1"
  param {
    lr_mult: 1
  }
  param {
    lr_mult: 2
  }
  inner_product_param {
    num_output: 500
    weight_filler {
      type: "xavier"
    }
    bias_filler {
      type: "constant"
    }
  }
}
layer {
  name: "relu1"
  type: "ReLU"
  bottom: "ip1"
  top: "ip1"
}
layer {
  name: "ip2"
  type: "InnerProduct"
  bottom: "ip1"
  top: "ip2"
  param {
    lr_mult: 1
  }
  param {
    lr_mult: 2
  }
  inner_product_param {
    num_output: 10
    weight_filler {
      type: "xavier"
    }
    bias_filler {
      type: "constant"
    }
  }
}
layer {
  name: "loss"
  type: "SoftmaxWithLoss"
  bottom: "ip2"
  bottom: "label"
  top: "loss"
}
I0321 20:45:15.598191  6540 layer_factory.hpp:77] Creating layer mnist
I0321 20:45:15.609982  6540 net.cpp:91] Creating Layer mnist
I0321 20:45:15.610015  6540 net.cpp:409] mnist -> data
I0321 20:45:15.610787  6547 db_lmdb.cpp:40] Opened lmdb /home/nikoong/Algorithm_test/handwritting/data/lmdb/finish/balance_train_lmdb
I0321 20:45:15.630136  6540 net.cpp:409] mnist -> label
I0321 20:45:18.433172  6540 data_layer.cpp:41] output data size: 20000,1,28,28
I0321 20:45:18.601624  6540 net.cpp:141] Setting up mnist
I0321 20:45:18.601670  6540 net.cpp:148] Top shape: 20000 1 28 28 (15680000)
I0321 20:45:18.601675  6540 net.cpp:148] Top shape: 20000 (20000)
I0321 20:45:18.601678  6540 net.cpp:156] Memory required for data: 62800000
I0321 20:45:18.601686  6540 layer_factory.hpp:77] Creating layer conv1
I0321 20:45:18.601737  6540 net.cpp:91] Creating Layer conv1
I0321 20:45:18.601766  6540 net.cpp:435] conv1 <- data
I0321 20:45:18.601791  6540 net.cpp:409] conv1 -> conv1
I0321 20:45:25.789203  6540 net.cpp:141] Setting up conv1
I0321 20:45:25.789227  6540 net.cpp:148] Top shape: 20000 20 24 24 (230400000)
I0321 20:45:25.789230  6540 net.cpp:156] Memory required for data: 984400000
I0321 20:45:25.789261  6540 layer_factory.hpp:77] Creating layer pool1
I0321 20:45:25.789274  6540 net.cpp:91] Creating Layer pool1
I0321 20:45:25.789280  6540 net.cpp:435] pool1 <- conv1
I0321 20:45:25.789285  6540 net.cpp:409] pool1 -> pool1
I0321 20:45:25.789337  6540 net.cpp:141] Setting up pool1
I0321 20:45:25.789343  6540 net.cpp:148] Top shape: 20000 20 12 12 (57600000)
I0321 20:45:25.789346  6540 net.cpp:156] Memory required for data: 1214800000
I0321 20:45:25.789348  6540 layer_factory.hpp:77] Creating layer conv2
I0321 20:45:25.789358  6540 net.cpp:91] Creating Layer conv2
I0321 20:45:25.789361  6540 net.cpp:435] conv2 <- pool1
I0321 20:45:25.789366  6540 net.cpp:409] conv2 -> conv2
I0321 20:45:25.791008  6540 net.cpp:141] Setting up conv2
I0321 20:45:25.791020  6540 net.cpp:148] Top shape: 20000 50 8 8 (64000000)
I0321 20:45:25.791023  6540 net.cpp:156] Memory required for data: 1470800000
I0321 20:45:25.791030  6540 layer_factory.hpp:77] Creating layer pool2
I0321 20:45:25.791036  6540 net.cpp:91] Creating Layer pool2
I0321 20:45:25.791038  6540 net.cpp:435] pool2 <- conv2
I0321 20:45:25.791054  6540 net.cpp:409] pool2 -> pool2
I0321 20:45:25.791082  6540 net.cpp:141] Setting up pool2
I0321 20:45:25.791096  6540 net.cpp:148] Top shape: 20000 50 4 4 (16000000)
I0321 20:45:25.791100  6540 net.cpp:156] Memory required for data: 1534800000
I0321 20:45:25.791101  6540 layer_factory.hpp:77] Creating layer ip1
I0321 20:45:25.791106  6540 net.cpp:91] Creating Layer ip1
I0321 20:45:25.791110  6540 net.cpp:435] ip1 <- pool2
I0321 20:45:25.791112  6540 net.cpp:409] ip1 -> ip1
I0321 20:45:25.794523  6540 net.cpp:141] Setting up ip1
I0321 20:45:25.794536  6540 net.cpp:148] Top shape: 20000 500 (10000000)
I0321 20:45:25.794539  6540 net.cpp:156] Memory required for data: 1574800000
I0321 20:45:25.794546  6540 layer_factory.hpp:77] Creating layer relu1
I0321 20:45:25.794553  6540 net.cpp:91] Creating Layer relu1
I0321 20:45:25.794555  6540 net.cpp:435] relu1 <- ip1
I0321 20:45:25.794559  6540 net.cpp:396] relu1 -> ip1 (in-place)
I0321 20:45:25.794705  6540 net.cpp:141] Setting up relu1
I0321 20:45:25.794713  6540 net.cpp:148] Top shape: 20000 500 (10000000)
I0321 20:45:25.794715  6540 net.cpp:156] Memory required for data: 1614800000
I0321 20:45:25.794718  6540 layer_factory.hpp:77] Creating layer ip2
I0321 20:45:25.794723  6540 net.cpp:91] Creating Layer ip2
I0321 20:45:25.794726  6540 net.cpp:435] ip2 <- ip1
I0321 20:45:25.794730  6540 net.cpp:409] ip2 -> ip2
I0321 20:45:25.795475  6540 net.cpp:141] Setting up ip2
I0321 20:45:25.795486  6540 net.cpp:148] Top shape: 20000 10 (200000)
I0321 20:45:25.795488  6540 net.cpp:156] Memory required for data: 1615600000
I0321 20:45:25.795495  6540 layer_factory.hpp:77] Creating layer loss
I0321 20:45:25.811110  6540 net.cpp:91] Creating Layer loss
I0321 20:45:25.811130  6540 net.cpp:435] loss <- ip2
I0321 20:45:25.811136  6540 net.cpp:435] loss <- label
I0321 20:45:25.811143  6540 net.cpp:409] loss -> loss
I0321 20:45:25.816298  6540 layer_factory.hpp:77] Creating layer loss
…
I0321 20:45:25.817088  6540 solver.cpp:181] Creating test net (#0) specified by net file: /home/nikoong/Algorithm_test/handwritting/lenet/lenet_lmdb.prototxt
I0321 20:45:25.817112  6540 net.cpp:323] The NetState phase (1) differed from the phase (0) specified by a rule in layer mnist
I0321 20:45:25.817229  6540 net.cpp:49] Initializing net from parameters: 
name: "LeNet"
state {
  phase: TEST
}
layer {
  name: "mnist"
  type: "Data"
  top: "data"
  top: "label"
  include {
    phase: TEST
  }
  transform_param {
    scale: 0.00390625
  }
  data_param {
    source: "/home/nikoong/Algorithm_test/handwritting/data/lmdb/finish/balance_val_lmdb"
    batch_size: 500
    backend: LMDB
  }
}
layer {
  name: "conv1"
  type: "Convolution"
  bottom: "data"
  top: "conv1"
  param {
    lr_mult: 1
  }
  param {
    lr_mult: 2
  }
  convolution_param {
    num_output: 20
    kernel_size: 5
    stride: 1
    weight_filler {
      type: "xavier"
    }
    bias_filler {
      type: "constant"
    }
  }
}
layer {
  name: "pool1"
  type: "Pooling"
  bottom: "conv1"
  top: "pool1"
  pooling_param {
    pool: MAX
    kernel_size: 2
    stride: 2
  }
}
layer {
  name: "conv2"
  type: "Convolution"
  bottom: "pool1"
  top: "conv2"
  param {
    lr_mult: 1
  }
  param {
    lr_mult: 2
  }
  convolution_param {
    num_output: 50
    kernel_size: 5
    stride: 1
    weight_filler {
      type: "xavier"
    }
    bias_filler {
      type: "constant"
    }
  }
}
layer {
  name: "pool2"
  type: "Pooling"
  bottom: "conv2"
  top: "pool2"
  pooling_param {
    pool: MAX
    kernel_size: 2
    stride: 2
  }
}
layer {
  name: "ip1"
  type: "InnerProduct"
  bottom: "pool2"
  top: "ip1"
  param {
    lr_mult: 1
  }
  param {
    lr_mult: 2
  }
  inner_product_param {
    num_output: 500
    weight_filler {
      type: "xavier"
    }
    bias_filler {
      type: "constant"
    }
  }
}
layer {
  name: "relu1"
  type: "ReLU"
  bottom: "ip1"
  top: "ip1"
}
layer {
  name: "ip2"
  type: "InnerProduct"
  bottom: "ip1"
  top: "ip2"
  param {
    lr_mult: 1
  }
  param {
    lr_mult: 2
  }
  inner_product_param {
    num_output: 10
    weight_filler {
      type: "xavier"
    }
    bias_filler {
      type: "constant"
    }
  }
}
layer {
  name: "accuracy"
  type: "Accuracy"
  bottom: "ip2"
  bottom: "label"
  top: "accuracy"
  include {
    phase: TEST
  }
}
layer {
  name: "loss"
  type: "SoftmaxWithLoss"
  bottom: "ip2"
  bottom: "label"
  top: "loss"
}
I0321 20:45:25.817276  6540 layer_factory.hpp:77] Creating layer mnist
I0321 20:45:25.817836  6540 net.cpp:91] Creating Layer mnist
I0321 20:45:25.817844  6540 net.cpp:409] mnist -> data
I0321 20:45:25.817852  6540 net.cpp:409] mnist -> label
I0321 20:45:25.818590  6549 db_lmdb.cpp:40] Opened lmdb /home/nikoong/Algorithm_test/handwritting/data/lmdb/finish/balance_val_lmdb
I0321 20:45:25.818702  6540 data_layer.cpp:41] output data size: 500,1,28,28
I0321 20:45:25.826392  6540 net.cpp:141] Setting up mnist
I0321 20:45:25.826412  6540 net.cpp:148] Top shape: 500 1 28 28 (392000)
I0321 20:45:25.826417  6540 net.cpp:148] Top shape: 500 (500)
I0321 20:45:25.826419  6540 net.cpp:156] Memory required for data: 1570000
I0321 20:45:25.826426  6540 layer_factory.hpp:77] Creating layer label_mnist_1_split
I0321 20:45:25.826436  6540 net.cpp:91] Creating Layer label_mnist_1_split
I0321 20:45:25.826438  6540 net.cpp:435] label_mnist_1_split <- label
I0321 20:45:25.826444  6540 net.cpp:409] label_mnist_1_split -> label_mnist_1_split_0
I0321 20:45:25.826453  6540 net.cpp:409] label_mnist_1_split -> label_mnist_1_split_1
I0321 20:45:25.826504  6540 net.cpp:141] Setting up label_mnist_1_split
I0321 20:45:25.826510  6540 net.cpp:148] Top shape: 500 (500)
I0321 20:45:25.826514  6540 net.cpp:148] Top shape: 500 (500)
I0321 20:45:25.826516  6540 net.cpp:156] Memory required for data: 1574000
I0321 20:45:25.826519  6540 layer_factory.hpp:77] Creating layer conv1
I0321 20:45:25.826529  6540 net.cpp:91] Creating Layer conv1
I0321 20:45:25.826546  6540 net.cpp:435] conv1 <- data
I0321 20:45:25.826552  6540 net.cpp:409] conv1 -> conv1
I0321 20:45:25.828574  6540 net.cpp:141] Setting up conv1
I0321 20:45:25.828586  6540 net.cpp:148] Top shape: 500 20 24 24 (5760000)
I0321 20:45:25.828600  6540 net.cpp:156] Memory required for data: 24614000
I0321 20:45:25.828614  6540 layer_factory.hpp:77] Creating layer pool1
I0321 20:45:25.828627  6540 net.cpp:91] Creating Layer pool1
I0321 20:45:25.828632  6540 net.cpp:435] pool1 <- conv1
I0321 20:45:25.828637  6540 net.cpp:409] pool1 -> pool1
I0321 20:45:25.828670  6540 net.cpp:141] Setting up pool1
I0321 20:45:25.828675  6540 net.cpp:148] Top shape: 500 20 12 12 (1440000)
I0321 20:45:25.828678  6540 net.cpp:156] Memory required for data: 30374000
I0321 20:45:25.828680  6540 layer_factory.hpp:77] Creating layer conv2
I0321 20:45:25.828688  6540 net.cpp:91] Creating Layer conv2
I0321 20:45:25.828693  6540 net.cpp:435] conv2 <- pool1
I0321 20:45:25.828697  6540 net.cpp:409] conv2 -> conv2
I0321 20:45:25.829848  6540 net.cpp:141] Setting up conv2
I0321 20:45:25.829859  6540 net.cpp:148] Top shape: 500 50 8 8 (1600000)
I0321 20:45:25.829861  6540 net.cpp:156] Memory required for data: 36774000
I0321 20:45:25.829872  6540 layer_factory.hpp:77] Creating layer pool2
I0321 20:45:25.829881  6540 net.cpp:91] Creating Layer pool2
I0321 20:45:25.829885  6540 net.cpp:435] pool2 <- conv2
I0321 20:45:25.829888  6540 net.cpp:409] pool2 -> pool2
I0321 20:45:25.829917  6540 net.cpp:141] Setting up pool2
I0321 20:45:25.829923  6540 net.cpp:148] Top shape: 500 50 4 4 (400000)
I0321 20:45:25.829926  6540 net.cpp:156] Memory required for data: 38374000
I0321 20:45:25.829931  6540 layer_factory.hpp:77] Creating layer ip1
I0321 20:45:25.829936  6540 net.cpp:91] Creating Layer ip1
I0321 20:45:25.829941  6540 net.cpp:435] ip1 <- pool2
I0321 20:45:25.829952  6540 net.cpp:409] ip1 -> ip1
I0321 20:45:25.833426  6540 net.cpp:141] Setting up ip1
I0321 20:45:25.833453  6540 net.cpp:148] Top shape: 500 500 (250000)
I0321 20:45:25.833457  6540 net.cpp:156] Memory required for data: 39374000
I0321 20:45:25.833467  6540 layer_factory.hpp:77] Creating layer relu1
I0321 20:45:25.833475  6540 net.cpp:91] Creating Layer relu1
I0321 20:45:25.833479  6540 net.cpp:435] relu1 <- ip1
I0321 20:45:25.833483  6540 net.cpp:396] relu1 -> ip1 (in-place)
I0321 20:45:25.834089  6540 net.cpp:141] Setting up relu1
I0321 20:45:25.834101  6540 net.cpp:148] Top shape: 500 500 (250000)
I0321 20:45:25.834106  6540 net.cpp:156] Memory required for data: 40374000
I0321 20:45:25.834110  6540 layer_factory.hpp:77] Creating layer ip2
I0321 20:45:25.834118  6540 net.cpp:91] Creating Layer ip2
I0321 20:45:25.834121  6540 net.cpp:435] ip2 <- ip1
I0321 20:45:25.834128  6540 net.cpp:409] ip2 -> ip2
I0321 20:45:25.834270  6540 net.cpp:141] Setting up ip2
I0321 20:45:25.834277  6540 net.cpp:148] Top shape: 500 10 (5000)
I0321 20:45:25.834364  6540 net.cpp:156] Memory required for data: 40394000
I0321 20:45:25.834388  6540 layer_factory.hpp:77] Creating layer ip2_ip2_0_split
I0321 20:45:25.834398  6540 net.cpp:91] Creating Layer ip2_ip2_0_split
I0321 20:45:25.834401  6540 net.cpp:435] ip2_ip2_0_split <- ip2
I0321 20:45:25.834408  6540 net.cpp:409] ip2_ip2_0_split -> ip2_ip2_0_split_0
I0321 20:45:25.834419  6540 net.cpp:409] ip2_ip2_0_split -> ip2_ip2_0_split_1
I0321 20:45:25.834451  6540 net.cpp:141] Setting up ip2_ip2_0_split
I0321 20:45:25.834457  6540 net.cpp:148] Top shape: 500 10 (5000)
I0321 20:45:25.834462  6540 net.cpp:148] Top shape: 500 10 (5000)
I0321 20:45:25.834465  6540 net.cpp:156] Memory required for data: 40434000
I0321 20:45:25.834470  6540 layer_factory.hpp:77] Creating layer accuracy
I0321 20:45:25.834481  6540 net.cpp:91] Creating Layer accuracy
I0321 20:45:25.834484  6540 net.cpp:435] accuracy <- ip2_ip2_0_split_0
I0321 20:45:25.834491  6540 net.cpp:435] accuracy <- label_mnist_1_split_0
I0321 20:45:25.834496  6540 net.cpp:409] accuracy -> accuracy
…
