…
I0325 20:47:37.350563  1575 net.cpp:323] The NetState phase (0) differed from the phase (1) specified by a rule in layer mnist
I0325 20:47:37.350576  1575 net.cpp:323] The NetState phase (0) differed from the phase (1) specified by a rule in layer accuracy
I0325 20:47:37.350674  1575 net.cpp:49] Initializing net from parameters: 
name: "LeNet"
state {
  phase: TRAIN
}
layer {
  name: "mnist"
  type: "Data"
  top: "data"
  top: "label"
  include {
    phase: TRAIN
  }
  transform_param {
    scale: 0.00390625
  }
  data_param {
    source: "/home/nikoong/Algorithm_test/handwritting/data/lmdb/newfour/train_withnewfour_lmdb"
    batch_size: 20000
    backend: LMDB
  }
}
layer {
  name: "conv1"
  type: "Convolution"
  bottom: "data"
  top: "conv1"
  param {
    lr_mult: 1
  }
  param {
    lr_mult: 2
  }
  convolution_param {
    num_output: 20
    kernel_size: 5
    stride: 1
    weight_filler {
      type: "xavier"
    }
    bias_filler {
      type: "constant"
    }
  }
}
layer {
  name: "pool1"
  type: "Pooling"
  bottom: "conv1"
  top: "pool1"
  pooling_param {
    pool: MAX
    kernel_size: 2
    stride: 2
  }
}
layer {
  name: "conv2"
  type: "Convolution"
  bottom: "pool1"
  top: "conv2"
  param {
    lr_mult: 1
  }
  param {
    lr_mult: 2
  }
  convolution_param {
    num_output: 50
    kernel_size: 5
    stride: 1
    weight_filler {
      type: "xavier"
    }
    bias_filler {
      type: "constant"
    }
  }
}
layer {
  name: "pool2"
  type: "Pooling"
  bottom: "conv2"
  top: "pool2"
  pooling_param {
    pool: MAX
    kernel_size: 2
    stride: 2
  }
}
layer {
  name: "ip1"
  type: "InnerProduct"
  bottom: "pool2"
  top: "ip1"
  param {
    lr_mult: 1
  }
  param {
    lr_mult: 2
  }
  inner_product_param {
    num_output: 500
    weight_filler {
      type: "xavier"
    }
    bias_filler {
      type: "constant"
    }
  }
}
layer {
  name: "relu1"
  type: "ReLU"
  bottom: "ip1"
  top: "ip1"
}
layer {
  name: "ip2"
  type: "InnerProduct"
  bottom: "ip1"
  top: "ip2"
  param {
    lr_mult: 1
  }
  param {
    lr_mult: 2
  }
  inner_product_param {
    num_output: 10
    weight_filler {
      type: "xavier"
    }
    bias_filler {
      type: "constant"
    }
  }
}
layer {
  name: "loss"
  type: "SoftmaxWithLoss"
  bottom: "ip2"
  bottom: "label"
  top: "loss"
}
I0325 20:47:37.371387  1575 layer_factory.hpp:77] Creating layer mnist
I0325 20:47:37.379842  1575 net.cpp:91] Creating Layer mnist
I0325 20:47:37.379870  1575 net.cpp:409] mnist -> data
I0325 20:47:37.380620  1582 db_lmdb.cpp:40] Opened lmdb /home/nikoong/Algorithm_test/handwritting/data/lmdb/newfour/train_withnewfour_lmdb
I0325 20:47:37.383442  1575 net.cpp:409] mnist -> label
I0325 20:47:37.420087  1575 data_layer.cpp:41] output data size: 20000,1,28,28
I0325 20:47:37.592473  1575 net.cpp:141] Setting up mnist
I0325 20:47:37.592514  1575 net.cpp:148] Top shape: 20000 1 28 28 (15680000)
I0325 20:47:37.592520  1575 net.cpp:148] Top shape: 20000 (20000)
I0325 20:47:37.592532  1575 net.cpp:156] Memory required for data: 62800000
I0325 20:47:37.592540  1575 layer_factory.hpp:77] Creating layer conv1
I0325 20:47:37.592563  1575 net.cpp:91] Creating Layer conv1
I0325 20:47:37.592579  1575 net.cpp:435] conv1 <- data
I0325 20:47:37.592604  1575 net.cpp:409] conv1 -> conv1
I0325 20:47:38.789887  1575 net.cpp:141] Setting up conv1
I0325 20:47:38.789912  1575 net.cpp:148] Top shape: 20000 20 24 24 (230400000)
I0325 20:47:38.789933  1575 net.cpp:156] Memory required for data: 984400000
I0325 20:47:38.789960  1575 layer_factory.hpp:77] Creating layer pool1
I0325 20:47:38.789973  1575 net.cpp:91] Creating Layer pool1
I0325 20:47:38.789978  1575 net.cpp:435] pool1 <- conv1
I0325 20:47:38.789983  1575 net.cpp:409] pool1 -> pool1
I0325 20:47:38.790031  1575 net.cpp:141] Setting up pool1
I0325 20:47:38.790037  1575 net.cpp:148] Top shape: 20000 20 12 12 (57600000)
I0325 20:47:38.790040  1575 net.cpp:156] Memory required for data: 1214800000
I0325 20:47:38.790042  1575 layer_factory.hpp:77] Creating layer conv2
I0325 20:47:38.790052  1575 net.cpp:91] Creating Layer conv2
I0325 20:47:38.790055  1575 net.cpp:435] conv2 <- pool1
I0325 20:47:38.790060  1575 net.cpp:409] conv2 -> conv2
I0325 20:47:38.791674  1575 net.cpp:141] Setting up conv2
I0325 20:47:38.791687  1575 net.cpp:148] Top shape: 20000 50 8 8 (64000000)
I0325 20:47:38.791689  1575 net.cpp:156] Memory required for data: 1470800000
I0325 20:47:38.791697  1575 layer_factory.hpp:77] Creating layer pool2
I0325 20:47:38.791704  1575 net.cpp:91] Creating Layer pool2
I0325 20:47:38.791707  1575 net.cpp:435] pool2 <- conv2
I0325 20:47:38.791720  1575 net.cpp:409] pool2 -> pool2
I0325 20:47:38.791752  1575 net.cpp:141] Setting up pool2
I0325 20:47:38.791767  1575 net.cpp:148] Top shape: 20000 50 4 4 (16000000)
I0325 20:47:38.791769  1575 net.cpp:156] Memory required for data: 1534800000
I0325 20:47:38.791772  1575 layer_factory.hpp:77] Creating layer ip1
I0325 20:47:38.791777  1575 net.cpp:91] Creating Layer ip1
I0325 20:47:38.791780  1575 net.cpp:435] ip1 <- pool2
I0325 20:47:38.791785  1575 net.cpp:409] ip1 -> ip1
I0325 20:47:38.795132  1575 net.cpp:141] Setting up ip1
I0325 20:47:38.795143  1575 net.cpp:148] Top shape: 20000 500 (10000000)
I0325 20:47:38.795146  1575 net.cpp:156] Memory required for data: 1574800000
I0325 20:47:38.795155  1575 layer_factory.hpp:77] Creating layer relu1
I0325 20:47:38.795159  1575 net.cpp:91] Creating Layer relu1
I0325 20:47:38.795162  1575 net.cpp:435] relu1 <- ip1
I0325 20:47:38.795176  1575 net.cpp:396] relu1 -> ip1 (in-place)
I0325 20:47:38.795320  1575 net.cpp:141] Setting up relu1
I0325 20:47:38.795327  1575 net.cpp:148] Top shape: 20000 500 (10000000)
I0325 20:47:38.795341  1575 net.cpp:156] Memory required for data: 1614800000
I0325 20:47:38.795343  1575 layer_factory.hpp:77] Creating layer ip2
I0325 20:47:38.795348  1575 net.cpp:91] Creating Layer ip2
I0325 20:47:38.795361  1575 net.cpp:435] ip2 <- ip1
I0325 20:47:38.795364  1575 net.cpp:409] ip2 -> ip2
I0325 20:47:38.796171  1575 net.cpp:141] Setting up ip2
I0325 20:47:38.796182  1575 net.cpp:148] Top shape: 20000 10 (200000)
I0325 20:47:38.796185  1575 net.cpp:156] Memory required for data: 1615600000
I0325 20:47:38.796190  1575 layer_factory.hpp:77] Creating layer loss
I0325 20:47:38.796200  1575 net.cpp:91] Creating Layer loss
I0325 20:47:38.796203  1575 net.cpp:435] loss <- ip2
I0325 20:47:38.796216  1575 net.cpp:435] loss <- label
I0325 20:47:38.796221  1575 net.cpp:409] loss -> loss
I0325 20:47:38.796234  1575 layer_factory.hpp:77] Creating layer loss
…
I0325 20:47:38.796736  1575 solver.cpp:181] Creating test net (#0) specified by net file: /home/nikoong/Algorithm_test/handwritting/lenet/lenet_lmdb.prototxt
I0325 20:47:38.796754  1575 net.cpp:323] The NetState phase (1) differed from the phase (0) specified by a rule in layer mnist
I0325 20:47:38.796862  1575 net.cpp:49] Initializing net from parameters: 
name: "LeNet"
state {
  phase: TEST
}
layer {
  name: "mnist"
  type: "Data"
  top: "data"
  top: "label"
  include {
    phase: TEST
  }
  transform_param {
    scale: 0.00390625
  }
  data_param {
    source: "/home/nikoong/Algorithm_test/handwritting/data/lmdb/newfour/val_withnewfour_lmdb"
    batch_size: 500
    backend: LMDB
  }
}
layer {
  name: "conv1"
  type: "Convolution"
  bottom: "data"
  top: "conv1"
  param {
    lr_mult: 1
  }
  param {
    lr_mult: 2
  }
  convolution_param {
    num_output: 20
    kernel_size: 5
    stride: 1
    weight_filler {
      type: "xavier"
    }
    bias_filler {
      type: "constant"
    }
  }
}
layer {
  name: "pool1"
  type: "Pooling"
  bottom: "conv1"
  top: "pool1"
  pooling_param {
    pool: MAX
    kernel_size: 2
    stride: 2
  }
}
layer {
  name: "conv2"
  type: "Convolution"
  bottom: "pool1"
  top: "conv2"
  param {
    lr_mult: 1
  }
  param {
    lr_mult: 2
  }
  convolution_param {
    num_output: 50
    kernel_size: 5
    stride: 1
    weight_filler {
      type: "xavier"
    }
    bias_filler {
      type: "constant"
    }
  }
}
layer {
  name: "pool2"
  type: "Pooling"
  bottom: "conv2"
  top: "pool2"
  pooling_param {
    pool: MAX
    kernel_size: 2
    stride: 2
  }
}
layer {
  name: "ip1"
  type: "InnerProduct"
  bottom: "pool2"
  top: "ip1"
  param {
    lr_mult: 1
  }
  param {
    lr_mult: 2
  }
  inner_product_param {
    num_output: 500
    weight_filler {
      type: "xavier"
    }
    bias_filler {
      type: "constant"
    }
  }
}
layer {
  name: "relu1"
  type: "ReLU"
  bottom: "ip1"
  top: "ip1"
}
layer {
  name: "ip2"
  type: "InnerProduct"
  bottom: "ip1"
  top: "ip2"
  param {
    lr_mult: 1
  }
  param {
    lr_mult: 2
  }
  inner_product_param {
    num_output: 10
    weight_filler {
      type: "xavier"
    }
    bias_filler {
      type: "constant"
    }
  }
}
layer {
  name: "accuracy"
  type: "Accuracy"
  bottom: "ip2"
  bottom: "label"
  top: "accuracy"
  include {
    phase: TEST
  }
}
layer {
  name: "loss"
  type: "SoftmaxWithLoss"
  bottom: "ip2"
  bottom: "label"
  top: "loss"
}
I0325 20:47:38.796917  1575 layer_factory.hpp:77] Creating layer mnist
I0325 20:47:38.797137  1575 net.cpp:91] Creating Layer mnist
I0325 20:47:38.797152  1575 net.cpp:409] mnist -> data
I0325 20:47:38.797159  1575 net.cpp:409] mnist -> label
I0325 20:47:38.797885  1585 db_lmdb.cpp:40] Opened lmdb /home/nikoong/Algorithm_test/handwritting/data/lmdb/newfour/val_withnewfour_lmdb
I0325 20:47:38.798010  1575 data_layer.cpp:41] output data size: 500,1,28,28
I0325 20:47:38.805544  1575 net.cpp:141] Setting up mnist
I0325 20:47:38.805574  1575 net.cpp:148] Top shape: 500 1 28 28 (392000)
I0325 20:47:38.805578  1575 net.cpp:148] Top shape: 500 (500)
I0325 20:47:38.805582  1575 net.cpp:156] Memory required for data: 1570000
I0325 20:47:38.805588  1575 layer_factory.hpp:77] Creating layer label_mnist_1_split
I0325 20:47:38.805606  1575 net.cpp:91] Creating Layer label_mnist_1_split
I0325 20:47:38.805610  1575 net.cpp:435] label_mnist_1_split <- label
I0325 20:47:38.805616  1575 net.cpp:409] label_mnist_1_split -> label_mnist_1_split_0
I0325 20:47:38.805625  1575 net.cpp:409] label_mnist_1_split -> label_mnist_1_split_1
I0325 20:47:38.805686  1575 net.cpp:141] Setting up label_mnist_1_split
I0325 20:47:38.805691  1575 net.cpp:148] Top shape: 500 (500)
I0325 20:47:38.805703  1575 net.cpp:148] Top shape: 500 (500)
I0325 20:47:38.805706  1575 net.cpp:156] Memory required for data: 1574000
I0325 20:47:38.805708  1575 layer_factory.hpp:77] Creating layer conv1
I0325 20:47:38.805729  1575 net.cpp:91] Creating Layer conv1
I0325 20:47:38.805743  1575 net.cpp:435] conv1 <- data
I0325 20:47:38.805749  1575 net.cpp:409] conv1 -> conv1
I0325 20:47:38.807824  1575 net.cpp:141] Setting up conv1
I0325 20:47:38.807838  1575 net.cpp:148] Top shape: 500 20 24 24 (5760000)
I0325 20:47:38.807852  1575 net.cpp:156] Memory required for data: 24614000
I0325 20:47:38.807860  1575 layer_factory.hpp:77] Creating layer pool1
I0325 20:47:38.807868  1575 net.cpp:91] Creating Layer pool1
I0325 20:47:38.807880  1575 net.cpp:435] pool1 <- conv1
I0325 20:47:38.807884  1575 net.cpp:409] pool1 -> pool1
I0325 20:47:38.807917  1575 net.cpp:141] Setting up pool1
I0325 20:47:38.807927  1575 net.cpp:148] Top shape: 500 20 12 12 (1440000)
I0325 20:47:38.807932  1575 net.cpp:156] Memory required for data: 30374000
I0325 20:47:38.807934  1575 layer_factory.hpp:77] Creating layer conv2
I0325 20:47:38.807942  1575 net.cpp:91] Creating Layer conv2
I0325 20:47:38.807946  1575 net.cpp:435] conv2 <- pool1
I0325 20:47:38.807951  1575 net.cpp:409] conv2 -> conv2
I0325 20:47:38.809114  1575 net.cpp:141] Setting up conv2
I0325 20:47:38.809128  1575 net.cpp:148] Top shape: 500 50 8 8 (1600000)
I0325 20:47:38.809139  1575 net.cpp:156] Memory required for data: 36774000
I0325 20:47:38.809146  1575 layer_factory.hpp:77] Creating layer pool2
I0325 20:47:38.809152  1575 net.cpp:91] Creating Layer pool2
I0325 20:47:38.809165  1575 net.cpp:435] pool2 <- conv2
I0325 20:47:38.809170  1575 net.cpp:409] pool2 -> pool2
I0325 20:47:38.809200  1575 net.cpp:141] Setting up pool2
I0325 20:47:38.809211  1575 net.cpp:148] Top shape: 500 50 4 4 (400000)
I0325 20:47:38.809213  1575 net.cpp:156] Memory required for data: 38374000
I0325 20:47:38.809216  1575 layer_factory.hpp:77] Creating layer ip1
I0325 20:47:38.809221  1575 net.cpp:91] Creating Layer ip1
I0325 20:47:38.809224  1575 net.cpp:435] ip1 <- pool2
I0325 20:47:38.809228  1575 net.cpp:409] ip1 -> ip1
I0325 20:47:38.812724  1575 net.cpp:141] Setting up ip1
I0325 20:47:38.812741  1575 net.cpp:148] Top shape: 500 500 (250000)
I0325 20:47:38.812743  1575 net.cpp:156] Memory required for data: 39374000
I0325 20:47:38.812753  1575 layer_factory.hpp:77] Creating layer relu1
I0325 20:47:38.812760  1575 net.cpp:91] Creating Layer relu1
I0325 20:47:38.812763  1575 net.cpp:435] relu1 <- ip1
I0325 20:47:38.812768  1575 net.cpp:396] relu1 -> ip1 (in-place)
I0325 20:47:38.813365  1575 net.cpp:141] Setting up relu1
I0325 20:47:38.813379  1575 net.cpp:148] Top shape: 500 500 (250000)
I0325 20:47:38.813391  1575 net.cpp:156] Memory required for data: 40374000
I0325 20:47:38.813395  1575 layer_factory.hpp:77] Creating layer ip2
I0325 20:47:38.813403  1575 net.cpp:91] Creating Layer ip2
I0325 20:47:38.813407  1575 net.cpp:435] ip2 <- ip1
I0325 20:47:38.813412  1575 net.cpp:409] ip2 -> ip2
I0325 20:47:38.813542  1575 net.cpp:141] Setting up ip2
I0325 20:47:38.813547  1575 net.cpp:148] Top shape: 500 10 (5000)
I0325 20:47:38.813560  1575 net.cpp:156] Memory required for data: 40394000
I0325 20:47:38.813565  1575 layer_factory.hpp:77] Creating layer ip2_ip2_0_split
I0325 20:47:38.813570  1575 net.cpp:91] Creating Layer ip2_ip2_0_split
I0325 20:47:38.813575  1575 net.cpp:435] ip2_ip2_0_split <- ip2
I0325 20:47:38.813578  1575 net.cpp:409] ip2_ip2_0_split -> ip2_ip2_0_split_0
I0325 20:47:38.813582  1575 net.cpp:409] ip2_ip2_0_split -> ip2_ip2_0_split_1
I0325 20:47:38.813617  1575 net.cpp:141] Setting up ip2_ip2_0_split
I0325 20:47:38.813623  1575 net.cpp:148] Top shape: 500 10 (5000)
I0325 20:47:38.813635  1575 net.cpp:148] Top shape: 500 10 (5000)
I0325 20:47:38.813645  1575 net.cpp:156] Memory required for data: 40434000
I0325 20:47:38.813647  1575 layer_factory.hpp:77] Creating layer accuracy
I0325 20:47:38.813653  1575 net.cpp:91] Creating Layer accuracy
I0325 20:47:38.813661  1575 net.cpp:435] accuracy <- ip2_ip2_0_split_0
I0325 20:47:38.813665  1575 net.cpp:435] accuracy <- label_mnist_1_split_0
I0325 20:47:38.813669  1575 net.cpp:409] accuracy -> accuracy
…
