…
I0322 21:46:27.416309 22764 net.cpp:323] The NetState phase (0) differed from the phase (1) specified by a rule in layer mnist
I0322 21:46:27.416323 22764 net.cpp:323] The NetState phase (0) differed from the phase (1) specified by a rule in layer accuracy
I0322 21:46:27.416419 22764 net.cpp:49] Initializing net from parameters: 
name: "LeNet"
state {
  phase: TRAIN
}
layer {
  name: "mnist"
  type: "Data"
  top: "data"
  top: "label"
  include {
    phase: TRAIN
  }
  transform_param {
    scale: 0.00390625
  }
  data_param {
    source: "/home/nikoong/Algorithm_test/handwritting/data/lmdb/onlyresize/balance_train_lmdb"
    batch_size: 20000
    backend: LMDB
  }
}
layer {
  name: "conv1"
  type: "Convolution"
  bottom: "data"
  top: "conv1"
  param {
    lr_mult: 1
  }
  param {
    lr_mult: 2
  }
  convolution_param {
    num_output: 20
    kernel_size: 5
    stride: 1
    weight_filler {
      type: "xavier"
    }
    bias_filler {
      type: "constant"
    }
  }
}
layer {
  name: "pool1"
  type: "Pooling"
  bottom: "conv1"
  top: "pool1"
  pooling_param {
    pool: MAX
    kernel_size: 2
    stride: 2
  }
}
layer {
  name: "conv2"
  type: "Convolution"
  bottom: "pool1"
  top: "conv2"
  param {
    lr_mult: 1
  }
  param {
    lr_mult: 2
  }
  convolution_param {
    num_output: 50
    kernel_size: 5
    stride: 1
    weight_filler {
      type: "xavier"
    }
    bias_filler {
      type: "constant"
    }
  }
}
layer {
  name: "pool2"
  type: "Pooling"
  bottom: "conv2"
  top: "pool2"
  pooling_param {
    pool: MAX
    kernel_size: 2
    stride: 2
  }
}
layer {
  name: "ip1"
  type: "InnerProduct"
  bottom: "pool2"
  top: "ip1"
  param {
    lr_mult: 1
  }
  param {
    lr_mult: 2
  }
  inner_product_param {
    num_output: 500
    weight_filler {
      type: "xavier"
    }
    bias_filler {
      type: "constant"
    }
  }
}
layer {
  name: "relu1"
  type: "ReLU"
  bottom: "ip1"
  top: "ip1"
}
layer {
  name: "ip2"
  type: "InnerProduct"
  bottom: "ip1"
  top: "ip2"
  param {
    lr_mult: 1
  }
  param {
    lr_mult: 2
  }
  inner_product_param {
    num_output: 10
    weight_filler {
      type: "xavier"
    }
    bias_filler {
      type: "constant"
    }
  }
}
layer {
  name: "loss"
  type: "SoftmaxWithLoss"
  bottom: "ip2"
  bottom: "label"
  top: "loss"
}
I0322 21:46:27.416476 22764 layer_factory.hpp:77] Creating layer mnist
I0322 21:46:27.424546 22764 net.cpp:91] Creating Layer mnist
I0322 21:46:27.424587 22764 net.cpp:409] mnist -> data
I0322 21:46:27.424640 22764 net.cpp:409] mnist -> label
I0322 21:46:27.425343 22772 db_lmdb.cpp:40] Opened lmdb /home/nikoong/Algorithm_test/handwritting/data/lmdb/onlyresize/balance_train_lmdb
I0322 21:46:27.449542 22764 data_layer.cpp:41] output data size: 20000,1,28,28
I0322 21:46:27.619280 22764 net.cpp:141] Setting up mnist
I0322 21:46:27.619328 22764 net.cpp:148] Top shape: 20000 1 28 28 (15680000)
I0322 21:46:27.619333 22764 net.cpp:148] Top shape: 20000 (20000)
I0322 21:46:27.619345 22764 net.cpp:156] Memory required for data: 62800000
I0322 21:46:27.619354 22764 layer_factory.hpp:77] Creating layer conv1
I0322 21:46:27.619376 22764 net.cpp:91] Creating Layer conv1
I0322 21:46:27.619391 22764 net.cpp:435] conv1 <- data
I0322 21:46:27.619411 22764 net.cpp:409] conv1 -> conv1
I0322 21:46:31.687492 22764 net.cpp:141] Setting up conv1
I0322 21:46:31.687517 22764 net.cpp:148] Top shape: 20000 20 24 24 (230400000)
I0322 21:46:31.687521 22764 net.cpp:156] Memory required for data: 984400000
I0322 21:46:31.687562 22764 layer_factory.hpp:77] Creating layer pool1
I0322 21:46:31.687574 22764 net.cpp:91] Creating Layer pool1
I0322 21:46:31.687578 22764 net.cpp:435] pool1 <- conv1
I0322 21:46:31.687583 22764 net.cpp:409] pool1 -> pool1
I0322 21:46:31.687633 22764 net.cpp:141] Setting up pool1
I0322 21:46:31.687638 22764 net.cpp:148] Top shape: 20000 20 12 12 (57600000)
I0322 21:46:31.687641 22764 net.cpp:156] Memory required for data: 1214800000
I0322 21:46:31.687644 22764 layer_factory.hpp:77] Creating layer conv2
I0322 21:46:31.687654 22764 net.cpp:91] Creating Layer conv2
I0322 21:46:31.687655 22764 net.cpp:435] conv2 <- pool1
I0322 21:46:31.687659 22764 net.cpp:409] conv2 -> conv2
I0322 21:46:31.689172 22764 net.cpp:141] Setting up conv2
I0322 21:46:31.689183 22764 net.cpp:148] Top shape: 20000 50 8 8 (64000000)
I0322 21:46:31.689187 22764 net.cpp:156] Memory required for data: 1470800000
I0322 21:46:31.689193 22764 layer_factory.hpp:77] Creating layer pool2
I0322 21:46:31.689198 22764 net.cpp:91] Creating Layer pool2
I0322 21:46:31.689201 22764 net.cpp:435] pool2 <- conv2
I0322 21:46:31.689215 22764 net.cpp:409] pool2 -> pool2
I0322 21:46:31.689245 22764 net.cpp:141] Setting up pool2
I0322 21:46:31.689251 22764 net.cpp:148] Top shape: 20000 50 4 4 (16000000)
I0322 21:46:31.689262 22764 net.cpp:156] Memory required for data: 1534800000
I0322 21:46:31.689265 22764 layer_factory.hpp:77] Creating layer ip1
I0322 21:46:31.689270 22764 net.cpp:91] Creating Layer ip1
I0322 21:46:31.689272 22764 net.cpp:435] ip1 <- pool2
I0322 21:46:31.689276 22764 net.cpp:409] ip1 -> ip1
I0322 21:46:31.692622 22764 net.cpp:141] Setting up ip1
I0322 21:46:31.692636 22764 net.cpp:148] Top shape: 20000 500 (10000000)
I0322 21:46:31.692638 22764 net.cpp:156] Memory required for data: 1574800000
I0322 21:46:31.692644 22764 layer_factory.hpp:77] Creating layer relu1
I0322 21:46:31.692651 22764 net.cpp:91] Creating Layer relu1
I0322 21:46:31.692654 22764 net.cpp:435] relu1 <- ip1
I0322 21:46:31.692668 22764 net.cpp:396] relu1 -> ip1 (in-place)
I0322 21:46:31.692818 22764 net.cpp:141] Setting up relu1
I0322 21:46:31.692826 22764 net.cpp:148] Top shape: 20000 500 (10000000)
I0322 21:46:31.692829 22764 net.cpp:156] Memory required for data: 1614800000
I0322 21:46:31.692831 22764 layer_factory.hpp:77] Creating layer ip2
I0322 21:46:31.692836 22764 net.cpp:91] Creating Layer ip2
I0322 21:46:31.692839 22764 net.cpp:435] ip2 <- ip1
I0322 21:46:31.692843 22764 net.cpp:409] ip2 -> ip2
I0322 21:46:31.693583 22764 net.cpp:141] Setting up ip2
I0322 21:46:31.693594 22764 net.cpp:148] Top shape: 20000 10 (200000)
I0322 21:46:31.693598 22764 net.cpp:156] Memory required for data: 1615600000
I0322 21:46:31.693603 22764 layer_factory.hpp:77] Creating layer loss
I0322 21:46:31.693608 22764 net.cpp:91] Creating Layer loss
I0322 21:46:31.693611 22764 net.cpp:435] loss <- ip2
I0322 21:46:31.693614 22764 net.cpp:435] loss <- label
I0322 21:46:31.693629 22764 net.cpp:409] loss -> loss
I0322 21:46:31.693645 22764 layer_factory.hpp:77] Creating layer loss
…
I0322 21:46:31.694139 22764 solver.cpp:181] Creating test net (#0) specified by net file: /home/nikoong/Algorithm_test/handwritting/lenet/lenet_lmdb.prototxt
I0322 21:46:31.694159 22764 net.cpp:323] The NetState phase (1) differed from the phase (0) specified by a rule in layer mnist
I0322 21:46:31.694263 22764 net.cpp:49] Initializing net from parameters: 
name: "LeNet"
state {
  phase: TEST
}
layer {
  name: "mnist"
  type: "Data"
  top: "data"
  top: "label"
  include {
    phase: TEST
  }
  transform_param {
    scale: 0.00390625
  }
  data_param {
    source: "/home/nikoong/Algorithm_test/handwritting/data/lmdb/onlyresize/balance_val_lmdb"
    batch_size: 500
    backend: LMDB
  }
}
layer {
  name: "conv1"
  type: "Convolution"
  bottom: "data"
  top: "conv1"
  param {
    lr_mult: 1
  }
  param {
    lr_mult: 2
  }
  convolution_param {
    num_output: 20
    kernel_size: 5
    stride: 1
    weight_filler {
      type: "xavier"
    }
    bias_filler {
      type: "constant"
    }
  }
}
layer {
  name: "pool1"
  type: "Pooling"
  bottom: "conv1"
  top: "pool1"
  pooling_param {
    pool: MAX
    kernel_size: 2
    stride: 2
  }
}
layer {
  name: "conv2"
  type: "Convolution"
  bottom: "pool1"
  top: "conv2"
  param {
    lr_mult: 1
  }
  param {
    lr_mult: 2
  }
  convolution_param {
    num_output: 50
    kernel_size: 5
    stride: 1
    weight_filler {
      type: "xavier"
    }
    bias_filler {
      type: "constant"
    }
  }
}
layer {
  name: "pool2"
  type: "Pooling"
  bottom: "conv2"
  top: "pool2"
  pooling_param {
    pool: MAX
    kernel_size: 2
    stride: 2
  }
}
layer {
  name: "ip1"
  type: "InnerProduct"
  bottom: "pool2"
  top: "ip1"
  param {
    lr_mult: 1
  }
  param {
    lr_mult: 2
  }
  inner_product_param {
    num_output: 500
    weight_filler {
      type: "xavier"
    }
    bias_filler {
      type: "constant"
    }
  }
}
layer {
  name: "relu1"
  type: "ReLU"
  bottom: "ip1"
  top: "ip1"
}
layer {
  name: "ip2"
  type: "InnerProduct"
  bottom: "ip1"
  top: "ip2"
  param {
    lr_mult: 1
  }
  param {
    lr_mult: 2
  }
  inner_product_param {
    num_output: 10
    weight_filler {
      type: "xavier"
    }
    bias_filler {
      type: "constant"
    }
  }
}
layer {
  name: "accuracy"
  type: "Accuracy"
  bottom: "ip2"
  bottom: "label"
  top: "accuracy"
  include {
    phase: TEST
  }
}
layer {
  name: "loss"
  type: "SoftmaxWithLoss"
  bottom: "ip2"
  bottom: "label"
  top: "loss"
}
I0322 21:46:31.694320 22764 layer_factory.hpp:77] Creating layer mnist
I0322 21:46:31.694541 22764 net.cpp:91] Creating Layer mnist
I0322 21:46:31.694557 22764 net.cpp:409] mnist -> data
I0322 21:46:31.694564 22764 net.cpp:409] mnist -> label
I0322 21:46:31.695332 22775 db_lmdb.cpp:40] Opened lmdb /home/nikoong/Algorithm_test/handwritting/data/lmdb/onlyresize/balance_val_lmdb
I0322 21:46:31.695427 22764 data_layer.cpp:41] output data size: 500,1,28,28
I0322 21:46:31.702967 22764 net.cpp:141] Setting up mnist
I0322 21:46:31.702998 22764 net.cpp:148] Top shape: 500 1 28 28 (392000)
I0322 21:46:31.703003 22764 net.cpp:148] Top shape: 500 (500)
I0322 21:46:31.703006 22764 net.cpp:156] Memory required for data: 1570000
I0322 21:46:31.703011 22764 layer_factory.hpp:77] Creating layer label_mnist_1_split
I0322 21:46:31.703030 22764 net.cpp:91] Creating Layer label_mnist_1_split
I0322 21:46:31.703034 22764 net.cpp:435] label_mnist_1_split <- label
I0322 21:46:31.703040 22764 net.cpp:409] label_mnist_1_split -> label_mnist_1_split_0
I0322 21:46:31.703049 22764 net.cpp:409] label_mnist_1_split -> label_mnist_1_split_1
I0322 21:46:31.703138 22764 net.cpp:141] Setting up label_mnist_1_split
I0322 21:46:31.703145 22764 net.cpp:148] Top shape: 500 (500)
I0322 21:46:31.703158 22764 net.cpp:148] Top shape: 500 (500)
I0322 21:46:31.703161 22764 net.cpp:156] Memory required for data: 1574000
I0322 21:46:31.703163 22764 layer_factory.hpp:77] Creating layer conv1
I0322 21:46:31.703183 22764 net.cpp:91] Creating Layer conv1
I0322 21:46:31.703197 22764 net.cpp:435] conv1 <- data
I0322 21:46:31.703202 22764 net.cpp:409] conv1 -> conv1
I0322 21:46:31.705269 22764 net.cpp:141] Setting up conv1
I0322 21:46:31.705283 22764 net.cpp:148] Top shape: 500 20 24 24 (5760000)
I0322 21:46:31.705287 22764 net.cpp:156] Memory required for data: 24614000
I0322 21:46:31.705296 22764 layer_factory.hpp:77] Creating layer pool1
I0322 21:46:31.705303 22764 net.cpp:91] Creating Layer pool1
I0322 21:46:31.705307 22764 net.cpp:435] pool1 <- conv1
I0322 21:46:31.705324 22764 net.cpp:409] pool1 -> pool1
I0322 21:46:31.705359 22764 net.cpp:141] Setting up pool1
I0322 21:46:31.705368 22764 net.cpp:148] Top shape: 500 20 12 12 (1440000)
I0322 21:46:31.705371 22764 net.cpp:156] Memory required for data: 30374000
I0322 21:46:31.705374 22764 layer_factory.hpp:77] Creating layer conv2
I0322 21:46:31.705382 22764 net.cpp:91] Creating Layer conv2
I0322 21:46:31.705404 22764 net.cpp:435] conv2 <- pool1
I0322 21:46:31.705412 22764 net.cpp:409] conv2 -> conv2
I0322 21:46:31.706575 22764 net.cpp:141] Setting up conv2
I0322 21:46:31.706588 22764 net.cpp:148] Top shape: 500 50 8 8 (1600000)
I0322 21:46:31.706593 22764 net.cpp:156] Memory required for data: 36774000
I0322 21:46:31.706601 22764 layer_factory.hpp:77] Creating layer pool2
I0322 21:46:31.706610 22764 net.cpp:91] Creating Layer pool2
I0322 21:46:31.706622 22764 net.cpp:435] pool2 <- conv2
I0322 21:46:31.706626 22764 net.cpp:409] pool2 -> pool2
I0322 21:46:31.706662 22764 net.cpp:141] Setting up pool2
I0322 21:46:31.706670 22764 net.cpp:148] Top shape: 500 50 4 4 (400000)
I0322 21:46:31.706672 22764 net.cpp:156] Memory required for data: 38374000
I0322 21:46:31.706677 22764 layer_factory.hpp:77] Creating layer ip1
I0322 21:46:31.706683 22764 net.cpp:91] Creating Layer ip1
I0322 21:46:31.706691 22764 net.cpp:435] ip1 <- pool2
I0322 21:46:31.706696 22764 net.cpp:409] ip1 -> ip1
I0322 21:46:31.710162 22764 net.cpp:141] Setting up ip1
I0322 21:46:31.710177 22764 net.cpp:148] Top shape: 500 500 (250000)
I0322 21:46:31.710180 22764 net.cpp:156] Memory required for data: 39374000
I0322 21:46:31.710191 22764 layer_factory.hpp:77] Creating layer relu1
I0322 21:46:31.710196 22764 net.cpp:91] Creating Layer relu1
I0322 21:46:31.710202 22764 net.cpp:435] relu1 <- ip1
I0322 21:46:31.710208 22764 net.cpp:396] relu1 -> ip1 (in-place)
I0322 21:46:31.710791 22764 net.cpp:141] Setting up relu1
I0322 21:46:31.710804 22764 net.cpp:148] Top shape: 500 500 (250000)
I0322 21:46:31.710808 22764 net.cpp:156] Memory required for data: 40374000
I0322 21:46:31.710810 22764 layer_factory.hpp:77] Creating layer ip2
I0322 21:46:31.710820 22764 net.cpp:91] Creating Layer ip2
I0322 21:46:31.710830 22764 net.cpp:435] ip2 <- ip1
I0322 21:46:31.710837 22764 net.cpp:409] ip2 -> ip2
I0322 21:46:31.710961 22764 net.cpp:141] Setting up ip2
I0322 21:46:31.710968 22764 net.cpp:148] Top shape: 500 10 (5000)
I0322 21:46:31.710973 22764 net.cpp:156] Memory required for data: 40394000
I0322 21:46:31.710978 22764 layer_factory.hpp:77] Creating layer ip2_ip2_0_split
I0322 21:46:31.710983 22764 net.cpp:91] Creating Layer ip2_ip2_0_split
I0322 21:46:31.710986 22764 net.cpp:435] ip2_ip2_0_split <- ip2
I0322 21:46:31.710993 22764 net.cpp:409] ip2_ip2_0_split -> ip2_ip2_0_split_0
I0322 21:46:31.711000 22764 net.cpp:409] ip2_ip2_0_split -> ip2_ip2_0_split_1
I0322 21:46:31.711030 22764 net.cpp:141] Setting up ip2_ip2_0_split
I0322 21:46:31.711045 22764 net.cpp:148] Top shape: 500 10 (5000)
I0322 21:46:31.711064 22764 net.cpp:148] Top shape: 500 10 (5000)
I0322 21:46:31.711067 22764 net.cpp:156] Memory required for data: 40434000
I0322 21:46:31.711071 22764 layer_factory.hpp:77] Creating layer accuracy
I0322 21:46:31.711078 22764 net.cpp:91] Creating Layer accuracy
I0322 21:46:31.711088 22764 net.cpp:435] accuracy <- ip2_ip2_0_split_0
I0322 21:46:31.711092 22764 net.cpp:435] accuracy <- label_mnist_1_split_0
I0322 21:46:31.711097 22764 net.cpp:409] accuracy -> accuracy
…
